policy/l4w4/legged_gym/policy_25kg_b.pt (torch, 450564 bytes, 14 tensors)

weight f4 [256, 76]
0.013252331 0.69263893 0.12512308 1.6278305 0.60509706 0.34689865 -0.17513128 0.09629068
0.4402417 -0.60606027 2.2690244 1.2544688 0.15576477 0.5816917 -0.4606046 -0.12406693
0.27569383 0.4412567 -1.5331655 -0.12702645 0.0002613766 -0.55574113 0.590043 -0.39998844
0.5627963 -0.48153064 0.42871192 0.9728774 -0.49267846 0.21524996 -0.048819643 -0.09202683
0.15914734 0.7276989 -1.263934 -1.4528157 -0.008397286 -0.17963056 -0.04351143 0.39849952
-0.035481136 -0.10987792 0.117069736 0.1885392 0.051979255 -0.09382577 -0.008392873 -0.048102908
-0.05601349 0.039598864 -0.30132484 -0.19624837 0.041708186 0.041938245 -0.21162947 0.029966773
-0.0019889087 -0.16021727 -0.033151526 -0.07400251 0.014126185 0.051393352 -0.11356586 0.10538068
-0.17277206 -0.15857828 0.023316717 -0.1684428 0.09693038 0.06360535 0.03928217 -0.065261945
-0.049583845 -0.1266526 0.04368538 0.049524322 -0.3380776 0.22390303 0.10609132 0.28156522
-1.1781019 -0.36025894 0.056389246 0.10860115 -0.11045407 0.374351 0.46545103 -0.6095551
0.031969264 -0.34228298 -0.50346416 0.44139725 0.013885297 -0.73708266 0.1618692 -0.3083978
-0.046716314 2.1145098 0.21112984 0.64198506 -0.19423762 0.071775764 0.49484786 0.33247915
0.09710114 -1.5479723 0.53935 0.040858615 -0.28010672 -0.24654865 -0.034778617 -0.077086225
-0.19540554 -0.41066584 0.27433804 0.24244253 -0.027386514 0.05005429 -0.084576175 -0.018557906
-0.019454548 -0.1604916 0.12079018 0.04004176 -0.018835962 0.013397317 -0.11521255 0.08177535
-0.042065717 -0.047479466 -0.103655644 0.07518628 0.022366866 0.04128259 -0.16303197 0.16503093
-0.024705134 0.04488778 -0.08015172 0.06462105 -0.08325419 -0.01214707 0.13468342 0.000113271104
-0.038329747 -0.14652924 0.08353635 -0.031760734 0.001177433 -0.08715441 0.045915194 0.07212265
0.27583835 0.37836158 0.10746627 -0.3373854 0.5080242 -0.55834866 0.031033551 -0.2394912
-0.22532421 -0.77946347 0.54660213 -0.23900394 -0.01972684 2.0308557 0.2291002 -0.06002425
0.04088418 0.50794405 0.03137431 0.8075995 0.29001367 -0.98375326 -0.106624074 -0.4203624
-0.036232773 0.3840645 -0.440706 -0.12694004 0.10266652 0.48875505 0.9363099 -1.7771529
0.19292732 0.5469598 1.4573927 -1.8281708 0.48917052 0.35653213 -0.38760218 0.21824366
0.14664805 -0.09035373 -0.29746145 0.46487212 -0.054645818 -0.03953819 0.2256801 -0.3770442
-0.047564875 0.091649696 0.10919026 -0.41884694 -0.034198135 0.2696895 -0.022187224 0.21210352
-0.07906749 0.09277234 0.0028114682 0.19551001 -0.118251316 0.108642586 -0.17527328 -0.006835616
-0.11765085 -0.03346132 0.14327239 -0.23906668 0.22065789 -0.25346482 -0.22739492 -0.25017062
-0.14843239 -0.14394067 -0.17143019 0.2065173 -0.5449545 0.04694569 0.55840355 0.07385344
0.7280624 0.6618342 0.01844494 -0.05943818 0.7461565 0.82558954 -0.16497497 -0.1006291
0.17927973 -0.09745894 -0.73790854 0.33949298 -0.06476586 -0.7068584 -0.9668347 0.5234417
-0.040961724 0.5408094 0.6084784 0.9984252 -0.14686455 0.3094682 0.54840934 0.08576751
00000000: 4e20 593c c950 313f 4420 003e c05c d03f
00000010: a4e7 1a3f b39c b13e 9d55 33be 0c34 c53d
00000020: 5c67 e13e c426 1bbf b237 1140 6f92 a03f
00000030: cd80 1f3e bfe9 143f 5ed4 ebbe cd16 febd
00000040: be27 8d3e 66ec e13e c43e c4bf 3913 02be
00000050: 6009 8939 0d45 0ebf 0f0d 173f 49cb ccbe
00000060: 6b13 103f 2f8b f6be 2180 db3e 7e0e 793f
00000070: 5a40 fcbe 7c6a 5c3e 1bf7 47bd 9078 bcbd
00000080: 85f7 223e 7a4a 3a3f 97c8 a1bf ddf5 b9bf
00000090: c594 09bc 13f1 37be 0b39 32bd 2108 cc3e
000000a0: ab54 11bd ad07 e1bd 42c2 ef3d 6c10 413e
000000b0: 33e8 543d ba27 c0bd 4382 09bc 8e07 45bd
000000c0: 676e 65bd 6b32 223d 4047 9abe 55f5 48be
000000d0: 34d6 2a3d 70c7 2b3d 65b5 58be e17c f53c
000000e0: 5a58 02bb ff0f 24be e5c9 07bd a18e 97bd
000000f0: 8471 673c d681 523d 3895 e8bd d3d1 d73d
00000100: 29eb 30be 5862 22be b302 bf3c 457c 2cbe
00000110: 6f83 c63d 8643 823d 57e6 203d 0ea8 85bd
00000120: 6e18 4bbd 38b1 01be 71ef 323d 04da 4a3d
00000130: 8218 adbe d646 653e 6846 d93d 5129 903e
00000140: 0bcc 96bf dc73 b8be 69f8 663d 486a de3d
00000150: be35 e2bd efaa bf3e 994f ee3e ce0b 1cbf
00000160: 34f2 023d b73f afbe 07e3 00bf d2fe e13e
00000170: 287f 633c 73b1 3cbf 0ac1 253e 51e6 9dbe
00000180: 9b59 3fbd 2154 0740 6c32 583e 2259 243f
00000190: 3ae6 46be 2cff 923d b35c fd3e b53a aa3e
000001a0: f6dc c63d f523 c6bf d712 0a3f 5d5b 273d
000001b0: 266a 8fbe 4077 7cbe 0674 0ebd 62df 9dbd
000001c0: 6418 48be cb42 d2be 0976 8c3e db42 783e
000001d0: af59 e0bc ba05 4d3d 4636 adbd c006 98bc
000001e0: 255f 9fbc e957 24be d860 f73d d402 243d
000001f0: e04d 9abc 6c80 5b3c 8ff4 ebbd d679 a73d
00000200: 1a4d 2cbd d479 42bd 6949 d4bd 44fb 993d
00000210: b83a b73c ef17 293d daf1 26be defd 283e
00000220: 6c62 cabc 40dc 373d 9626 a4bd 0b58 843d
00000230: 2c81 aabd 8104 47bc 73ea 093e f68b ed38
00000240: a7ff 1cbd c30b 16be 1b15 ab3d 8b17 02bd
00000250: 1854 9a3a 037e b2bd 9211 3c3d 0ab5 933d
00000260: af3a 8d3e 9cb8 c13e 4717 dc3d c7bd acbe
00000270: e00d 023f f0ef 0ebf 133a fe3c 2e3d 75be
00000280: 64bb 66be eb8a 47bf 1eee 0b3f 73bd 74be
00000290: 2f9a a1bc 8af9 0140 3e99 6a3e fddb 75bd
000002a0: 2c76 273d 9f08 023f 5982 003d d7be 4e3f
000002b0: ac7c 943e 41d7 7bbf b95d dabd be39 d7be
000002c0: d168 14bd 1aa4 c43e 38a4 e1be 92fc 01be
000002d0: d342 d23d 1a3e fa3e 01b2 6f3f bf79 e3bf
000002e0: bd8e 453e 8f05 0c3f d88b ba3f 8001 eabf
000002f0: 8f74 fa3e 618b b63e cb73 c6be 447b 5f3e
00000300: e82a 163e 600b b9bd de4c 98be b803 ee3e
00000310: 4bd4 5fbd ccf2 21bd af18 673e f00b c1be
00000320: 63d3 42bd d6b2 bb3d 259f df3d 1b73 d6be
00000330: 5813 0cbd be14 8a3e fbc1 b5bc aa31 593e
00000340: 23ee a1bd 6dff bd3d 9c40 383b c733 483e
00000350: bf2d f2bd 0180 de3d d77a 33be 4efd dfbb
00000360: eef2 f0bd bd0e 09bd ffb5 123e e5cd 74be
00000370: 24f4 613e 24c6 81be 37da 68be 5d16 80be
00000380: a9fe 17be 2f65 13be 658b 2fbe 4579 533e
00000390: 2382 0bbf 204a 403d 89f3 0e3f 7940 973d
000003a0: 4c62 3a3f f76d 293f d819 973c 7375 73bd
000003b0: 1d04 3f3f d659 533f 33ef 28be a116 cebd
000003c0: 1b95 373e 8e98 c7bd 93e7 3cbf 06d2 ad3e
000003d0: f7a3 84bd acf4 34bf 7b82 77bf 4600 063f
000003e0: 7bc7 27bd 7c72 0a3f 3ec5 1b3f cb98 7f3f
000003f0: a963 16be 9e72 9e3e 8e64 0c3f e0a6 af3d

bias f4 [256]
-0.21504746 -0.4055195 -0.4262629 0.20463753 -0.09815546 -0.3746828 -0.26403558 -0.07497221
-0.14126043 -0.8432121 -0.37736985 -0.30101937 0.23624554 -0.018327802 -0.34165978 0.19058515
-0.41483065 -0.6257316 -0.15996404 -0.4142688 -0.13466895 -0.4902005 -0.15858135 0.13691424
-0.24020416 -0.13860238 -0.5200422 -0.52513933 -0.04451053 -0.12463551 0.12216453 0.13599199
0.05246019 0.007578335 -0.30223805 -0.059349384 0.13949029 -0.047923435 -0.6265453 -0.36583555
-0.2368605 -0.38716885 -0.5536889 -0.5435534 -0.09354823 -0.24494961 -0.8558904 -0.21441764
-0.316754 -0.13327044 -0.8281628 -0.041317474 -1.0077411 -0.4427977 0.10218921 -0.7155385
0.117669374 0.06824143 -0.46156052 -0.38257658 -0.20668401 -0.48414356 -0.17338905 0.47283688
0.08220489 -0.8370709 -0.46706188 0.018117888 -0.24789675 -0.27758405 -0.16394651 -0.71615976
-0.21713863 -0.085398935 0.04144889 -0.21430777 0.038473837 0.071252905 0.19860038 -0.7126299
-0.20554504 -0.39650398 -0.18683165 -0.04530793 -0.68886286 -0.738468 0.10710543 -0.011529556
-0.20829718 0.074479714 -0.267026 -0.52167773 -0.2675785 0.5249363 -0.24781246 -0.26018983
0.012823336 -0.4233418 0.044272337 -0.41049272 0.019410204 -0.059206348 -0.43925983 0.06055576
-0.6272133 -0.054059464 -0.3825154 -0.09900533 -0.22884129 -0.29987544 0.3237071 -0.5198762
-0.5656225 -0.26740292 -0.35040453 -0.16105112 -0.2571164 -0.48094356 -0.15166724 -0.07102359
-0.5008828 -0.23220484 -0.6698425 -0.66991293 0.16987978 -0.08020972 -0.257466 -0.4864943
-0.11379848 -0.37410885 -0.13738242 -0.3335385 -0.4956238 0.026621897 -0.015995074 -0.30150765
-0.7001247 -0.14828995 -0.48451012 -0.26738688 0.06752192 -0.03418781 -0.5519143 -0.70170105
-0.43318546 -0.0065589687 -0.6167084 -0.13594756 -0.3863232 -0.6192858 0.13694492 -0.76709586
0.25351986 -0.24466835 0.05454417 -0.95509726 -0.6876446 0.042416945 -0.04977612 -0.30814955
0.089020535 -0.5547404 -0.03373107 -0.49504003 -0.095591426 -0.20575838 -0.17118435 -0.117895566
-0.1787949 -0.06985199 -0.7396325 -0.33485687 -0.024557957 -0.15866674 -0.32756093 -0.21399
-0.027882494 -0.8243364 -0.28566295 -0.020858955 -0.2996834 -0.021456577 -0.25774613 -0.51101816
-0.19508603 -0.6005212 -0.50377744 0.16352336 -0.31312096 -0.23136537 0.007650153 0.09560811
-1.0085783 -0.03131319 -0.4211124 -0.47837445 -0.4929455 -0.08305833 -0.28395078 -0.47090915
-0.45651788 -0.69939804 -0.4461967 -0.08286897 -0.22819443 -0.12000259 -0.46700186 -0.19910102
-0.17187975 -0.06458687 0.049019072 -0.102027155 -0.3076058 0.13875984 -0.2004694 0.17653261
-0.25698107 -0.36741722 -0.5021338 -0.19239853 -0.47978464 -0.31460717 0.009612461 -0.5225383
-0.29493976 0.07852654 -0.22960304 -0.16997369 -0.13385637 -0.3320091 -0.45102608 -0.54861146
-0.6356613 -0.534586 -0.33478466 0.01814634 -0.26348054 -0.79367363 -0.5872756 -0.015080835
-0.19118348 -0.36230242 -0.16783454 -0.409103 -0.19754307 -0.1844523 -0.0038000743 -0.66816574
-0.75594884 -0.40665582 -0.1822386 -0.17731662 0.49625686 -0.24705444 -0.08454459 -0.25369474
00000000: 6735 5cbe 40a0 cfbe 213f dabe 808c 513e
00000010: bb05 c9bd 6dd6 bfbe ac2f 87be 088b 99bd
00000020: 93a6 10be c0dc 57bf 9f36 c1be 361f 9abe
00000030: 5aea 713e 3024 96bc 08ee aebe c128 433e
00000040: af64 d4be f22f 20bf 9dcd 23be 0a1b d4be
00000050: a8e6 09be 8ffb fabe 2663 22be 3f33 0c3e
00000060: 14f8 75be c8ed 0dbe 7c21 05bf 886f 06bf
00000070: ac50 36bd e740 ffbd 6631 fa3d 7c41 0b3e
00000080: 7fe0 563d ae53 f83b f2be 9abe 5718 73bd
00000090: 8bd6 0e3e 5d4b 44bd 4665 20bf cc4e bbbe
000000a0: 8f8b 72be ff3a c6be 8ebe 0dbf 5126 0bbf
000000b0: 3796 bfbd 12d4 7abe a21b 5bbf 4c90 5bbe
000000c0: 952d a2be 0c78 08be 7a02 54bf 833c 29bd
000000d0: a9fd 80bf 61b6 e2be 9448 d13d 882d 37bf
000000e0: a4fc f03d 2ac2 8b3d a951 ecbe 14e1 c3be
000000f0: f9a4 53be aae1 f7be e68c 31be ad17 f23e
00000100: 0a5b a83d 474a 56bf bc22 efbe f76b 943c
00000110: a5d8 7dbe 7f1f 8ebe 98e1 27be 3f56 37bf
00000120: 9759 5ebe a3e5 aebd 50c6 293d 7f73 5bbe
00000130: be96 1d3d 0bed 913d e65d 4b3e ea6e 36bf
00000140: 667a 52be 9202 cbbe cc50 3fbe cf94 39bd
00000150: 5159 30bf 3d0c 3dbf 175a db3d 76e6 3cbc
00000160: db4b 55be d288 983d a2b7 88be ac8c 05bf
00000170: 0d00 89be 3a62 063f 8dc2 7dbe 9a37 85be
00000180: f818 523c 42c0 d8be e956 353d 1a2c d2be
00000190: 2602 9f3c 5b82 72bd aae6 e0be 5109 783d
000001a0: 0d91 20bf 756d 5dbd 0fd9 c3be 4ec3 cabd
000001b0: 5f55 6abe 4689 99be f0bc a53e 9b16 05bf
000001c0: a3cc 10bf 09e9 88be 3968 b3be 96ea 24be
000001d0: c3a4 83be 3c3e f6be a84e 1bbe d174 91bd
000001e0: db39 00bf 1bc7 6dbe cc7a 2bbf 6a7f 2bbf
000001f0: f7f4 2d3e fe44 a4bd 95d2 83be c815 f9be
00000200: 2d0f e9bd 328b bfbe faad 0cbe 8fc5 aabe
00000210: 67c2 fdbe 2a16 da3c 1a08 83bc 365f 9abe
00000220: 5f3b 33bf 52d9 17be b611 f8be efe6 88be
00000230: ef48 8a3d 8408 0cbd 414a 0dbf aea2 33bf
00000240: 7cca ddbe 9eec d6bb 9ae0 1dbf d635 0bbe
00000250: 28cc c5be 8489 1ebf 4a3b 0c3e 6560 44bf
00000260: 5bcd 813e 578a 7abe b569 5f3d 4181 74bf
00000270: 7a09 30bf 64bd 2d3d 0be2 4bbd c7c5 9dbe
00000280: 6650 b63d 7803 0ebf 9729 0abd e375 fdbe
00000290: 70c5 c3bd 53b2 52be f34a 2fbe 3b73 f1bd
000002a0: 0316 37be 8f0e 8fbd 8e58 3dbf 5c72 abbe
000002b0: c52d c9bc 8979 22be 11b6 a7be 3220 5bbe
000002c0: d469 e4bc b607 53bf 6a42 92be 66e0 aabc
000002d0: 1a70 99be b4c5 afbc 4df7 83be 16d2 02bf
000002e0: a2c4 47be c2bb 19bf 8ff7 00bf ab72 273e
000002f0: 6451 a0be 0beb 6cbe 22ae fa3b 2fce c33d
00000300: 1819 81bf 4242 00bd 0b9c d7be 7fed f4be
00000310: 5a63 fcbe 7c1a aabd ff61 91be 011b f1be
00000320: b6bc e9be c00b 33bf e573 e4be 35b7 a9bd
00000330: cdab 69be ebc3 f5bd de1a efbe 23e1 4bbe
00000340: 3f01 30be 1f46 84bd 39c8 483d 9df3 d0bd
00000350: 827e 9dbe 0f17 0e3e da47 4dbe f7c4 343e
00000360: 0693 83be 1c1e bcbe d78b 00bf 1f04 45be
00000370: 55a6 f5be 3114 a1be 957d 1d3c 12c5 05bf
00000380: 5802 97be 86d2 a03d 0f1d 6bbe 950d 2ebe
00000390: a511 09be 19fd a9be e4ec e6be cd71 0cbf
000003a0: b3ba 22bf a1da 08bf e568 abbe a2a7 943c
000003b0: ece6 86be 322e 4bbf b257 16bf 9b15 77bc
000003c0: 9ac5 43be b47f b9be d1dc 2bbe f375 d1be
000003d0: bb48 4abe 10e1 3cbe ab0a 79bb e90c 2bbf
000003e0: dd85 41bf 3135 d0be c19c 3abe 7d92 35be
000003f0: 6115 fe3e d7fb 7cbe b725 adbd 47e4 81be

weight f4 [128, 256]
-0.28070042 -0.16029991 -0.29814178 -0.38589695 0.09648721 0.090866014 -0.08153499 -0.17448036
-0.013501143 0.27393132 -0.21604449 0.27430826 -0.32048059 0.21914972 0.13153909 -0.11396808
-0.16924642 0.3430439 -0.0786946 -0.088371076 -0.025509328 -0.050939318 -0.058901284 -0.13971068
-0.2752736 -0.17341907 0.046636432 0.38450578 -0.5514415 -0.16734648 -0.36973986 -0.0509755
-0.3589837 0.22718106 -0.33744144 -0.18058111 0.13585351 -0.011680656 0.15908721 0.6510965
0.05866172 0.41901284 -0.19796783 0.23271725 0.018956592 -0.24528116 -0.29668587 0.096111014
0.23138839 -0.17663397 0.13711339 0.08456696 0.53655076 -0.5404996 0.21072932 0.1260372
-0.24430045 -0.27986813 0.21639448 0.32658148 -0.03088528 -0.007603814 -0.13385229 -0.29082057
-0.08311851 0.09515424 0.2703363 -0.23952894 -0.35286996 0.008636565 0.31289795 0.23498887
0.007929824 0.15445815 -0.24126066 -0.14547989 -0.2739058 0.038848717 -0.08725952 0.44345444
-0.080429174 0.28395006 0.4994202 -0.089817055 0.38653958 0.23094204 0.075385556 -0.05984376
-0.460489 -0.05365957 0.016795406 0.14641917 0.36366314 -0.027909974 0.0023143918 0.025580624
0.022005118 0.057305895 -0.056666214 -0.03769 -0.2206933 0.3771107 0.20938048 -0.05263622
0.17792477 0.1586498 0.14137186 0.086457305 0.002201547 0.266202 -0.27576107 0.052163765
-0.038930535 -0.06405552 0.40525907 -0.06857735 0.2710161 0.2281039 0.12867077 0.07018861
0.1313378 0.16733871 0.26836738 -0.03899654 0.04537129 0.07435561 -0.15069553 -0.106114015
0.08795695 -0.33834204 -0.16829152 0.36274737 0.2336712 -0.13626814 -0.011667496 -0.107941404
0.48714074 0.043064907 -0.08691347 0.06118113 0.062111303 -0.08940212 -0.002037809 0.34270343
-0.14655909 0.14893827 0.16079302 -0.29393536 -0.33243707 -0.16548596 -0.69905245 0.036125187
-0.3650398 -0.279618 0.0021281755 -0.06632882 0.062191125 -0.075653866 0.15372649 0.22599989
-0.59851676 -0.015135853 -0.20363545 0.39555374 -0.3524605 0.32094884 -0.07919274 -0.49005625
-0.08277324 -0.10962276 -0.10760758 0.22805616 -0.35301697 0.10199924 0.034083314 -0.19467662
-0.29510635 0.44923934 -0.13454193 -0.28396875 -0.034071453 -0.20815863 -0.17086753 -0.013579749
-0.28111163 -0.18907788 0.19854867 0.25892752 0.13482845 -0.24162331 -0.023839235 0.17583431
0.21133164 0.124153614 0.13603334 -0.15274335 0.3458433 0.25260916 0.14129533 -0.25328407
-0.0446506 -0.02706053 -0.14848134 0.0076853693 -0.09008038 0.04280196 -0.238188 0.27590695
-0.12700021 0.110077456 0.012507144 0.28510654 0.27062398 -0.060368177 0.34460214 -0.2853195
-0.17558706 0.38138473 -0.13494927 0.0076657934 0.27903092 -0.23567604 -0.18497714 -0.14067012
0.28461087 -0.009139572 0.061918657 -0.06573455 0.011805134 -0.003953152 0.35891956 -0.06656454
-0.07650778 -0.5821254 -0.37800127 -0.3917612 -0.11386337 0.022408767 0.30929077 0.12719733
-0.044893496 0.29184946 0.079291314 0.11688583 0.018960766 -0.2409837 0.049522232 0.18696545
0.27481353 0.4311351 0.16335237 0.54546994 0.038606063 0.32885566 -0.25695762 -0.15467216
00000000: f7b7 8fbe a925 24be 0aa6 98be 4994 c5be
00000010: 169b c53d f617 ba3d d1fb a6bd fbaa 32be
00000020: e633 5dbc ba40 8c3e c43a 5dbe 2272 8c3e
00000030: 0816 a4be c968 603e 2fb2 063e 1968 e9bd
00000040: ef4e 2dbe 73a3 af3e a22a a1bd e5fb b4bd
00000050: f0f8 d0bc bfa5 50bd 7942 71bd 5110 0fbe
00000060: a9f0 8cbe c594 31be d805 3f3d f1dd c43e
00000070: 452b 0dbf e05c 2bbe 8b4e bdbe b0cb 50bd
00000080: b6cc b7be 27a2 683e 20c5 acbe 41ea 38be
00000090: 2f1d 0b3e 3960 3fbc c2e7 223e 43ae 263f
000000a0: 4647 703d da88 d63e 14b8 4abe 6e4d 6e3e
000000b0: db4a 9b3c fc2a 7bbe 36e7 97be dad5 c43d
000000c0: 14f1 6c3e 89df 34be 7467 0c3e 7131 ad3d
000000d0: 645b 093f 2f5e 0abf 6dc9 573e e50f 013e
000000e0: e629 7abe e04a 8fbe 8496 5d3e b035 a73e
000000f0: 2003 fdbc 6a29 f9bb 9310 09be 6fe6 94be
00000100: 0a3a aabd 3ae0 c23d 8569 8a3e 1347 75be
00000110: 5fab b4be 6180 0d3c 2934 a03e eca0 703e
00000120: 18ec 013c 472a 1e3e 090d 77be aef8 14be
00000130: 623d 8cbe d51f 1f3d 1fb5 b2bd 760c e33e
00000140: 0db8 a4bd e761 913e 01b4 ff3e 01f2 b7bd
00000150: 84e8 c53e 127c 6c3e be63 9a3d bb1e 75bd
00000160: 37c5 ebbe 23ca 5bbd 8596 893c e8ee 153e
00000170: 0e32 ba3e 75a3 e4bc 0dad 173b 758e d13c
00000180: 1444 b43c 96b9 6a3d d51a 68bd d460 1abd
00000190: 6dfd 61be a714 c13e d667 563e 1499 57bd
000001a0: e931 363e 1875 223e c9c3 103e 8710 b13d
000001b0: d447 103b a14b 883e 8e30 8dbe aca9 553d
000001c0: a075 1fbd 8a2f 83bd 1e7e cf3e 4872 8cbd
000001d0: 9fc2 8a3e 1294 693e 45c2 033e 0cbf 8f3d
000001e0: 6b7d 063e d75a 2b3e 7367 893e d6ba 1fbd
000001f0: 3fd7 393d c147 983d ee4f 1abe 4e52 d9bd
00000200: c622 b43d 2b3b adbe 9d54 2cbe 06ba b93e
00000210: 8147 6f3e e089 0bbe 0629 3fbc 6210 ddbd
00000220: 836a f93e d464 303d b0ff b1bd 1199 7a3d
00000230: 6c68 7e3d 7518 b7bd c38c 05bb d376 af3e
00000240: 9613 16be 4683 183e eda6 243e b27e 96be
00000250: 3135 aabe 2775 29be 1af5 32bf 01f8 133d
00000260: 7fe6 babe 172a 8fbe dc78 0b3b 68d7 87bd
00000270: 1fbc 7e3d 6af0 9abd 7a6a 1d3e 846c 673e
00000280: 6538 19bf 5efc 77bc d085 50be 0586 ca3e
00000290: b475 b4be 6853 a43e ce2f a2bd a7e8 fabe
000002a0: 0485 a9bd e681 e0bd 5d61 dcbd 8e87 693e
000002b0: a4be b4be fae4 d03d f29a 0b3d 4f59 47be
000002c0: 2e18 97be b302 e63e 5cc5 09be 5a64 91be
000002d0: 828e 0bbd 8927 55be e6f7 2ebe 987d 5ebc
000002e0: dded 8fbe a29d 41be 5850 4b3e 2692 843e
000002f0: 7810 0a3e 1a6c 77be 804a c3bc e90d 343e
00000300: 5267 583e 4044 fe3d 534c 0b3e c168 1cbe
00000310: 5f12 b13e fd55 813e b9af 103e 73ae 81be
00000320: 8ce3 36bd 0bae ddbc 7e0b 18be 8dd5 fb3b
00000330: 107c b8bd 1c51 2f3d 8ee7 73be ad43 8d3e
00000340: 580c 02be 4a70 e13d c4ea 4c3c 7cf9 913e
00000350: 3a8f 8a3e 9f44 77bd b16f b03e 6615 92be
00000360: 18cd 33be dc44 c33e 2430 0abe 5631 fb3b
00000370: 24dd 8e3e 0f55 71be a66a 3dbe d40b 10be
00000380: 84b8 913e 25be 15bc 6b9e 7d3d d69f 86bd
00000390: 526a 413c 7189 81bb 4ec4 b73e fd52 88bd
000003a0: 1cb0 9cbd 2c06 15bf 6289 c1be ed94 c8be
000003b0: 3331 e9bd 9792 b73c 5c5b 9e3e 0440 023e
000003c0: 3ee2 37bd 4b6d 953e 7c63 a23d d761 ef3d
000003d0: 9c53 9b3c 6ec4 76be d3d7 4a3d df73 3f3e
000003e0: 5cb4 8c3e bdbd dc3e d845 273e eba3 0b3f
000003f0: 6421 1e3d c55f a83e f38f 83be 6162 1ebe

bias f4 [128]
-0.23351318 -0.33701727 -0.20807764 -0.2210155 -0.121996514 -0.35224295 -0.16947868 -0.952142
-1.0169735 -0.28817722 -0.5074445 -0.20355344 -0.10802471 -0.4800462 -0.61615145 -0.5657486
-0.27426818 -0.15181023 -0.34643066 -0.45392916 0.024102606 -0.489271 -0.6527856 -0.19845365
-0.3807751 -0.14868204 -0.19409755 -0.31234115 -0.8491042 0.0006600469 -0.22248727 -0.32880974
-0.51767814 -0.17999427 -0.1756222 -0.26371497 -0.33792144 -0.3248726 -0.2174928 -0.11663558
-0.3657944 -0.18104576 -0.20102365 -0.7744863 -0.3524963 -0.15312406 -0.26412266 -0.28332523
-0.5297867 -1.3434895 -0.2013756 -0.68929255 -0.24254663 0.12754443 -0.12606034 -0.36726725
-0.38027817 0.07868717 -0.19843154 -0.21930088 -0.48873827 -0.27520445 0.033539124 -0.31791136
0.14597419 -0.1418245 -0.13212569 -0.34526265 -0.39204222 -0.054676656 -0.37931025 0.013606142
0.167111 -0.28703535 -0.59373534 -0.5880933 -0.29159233 -0.32916448 -0.34288958 -0.3185143
-0.12604438 -0.15811741 -0.41061738 -0.059353277 -0.19529387 -0.09782597 -0.40286148 -0.25533625
-0.16205682 -0.37058827 0.09595848 -0.5520111 -0.7469257 -0.50272775 -0.14646196 -0.355272
-0.292442 -0.29265335 -0.31581628 0.10109492 -0.27988696 -0.40581506 -0.31670055 -0.16367501
-0.5926227 -0.21879576 -0.24039227 -0.3244122 -0.31603387 -0.15065807 -0.65306604 0.059974026
-0.7234859 -0.119162716 -0.28468978 -0.2672954 -0.47785833 -0.23666082 -0.37271792 -0.31476817
-0.81869406 -0.41558632 -0.16568837 -0.020489419 -0.6156329 -0.5258478 -0.10938589 -0.50526494
00000000: 141e 6fbe 878d acbe 4e12 55be e351 62be
00000010: 4fd9 f9bd 3059 b4be d28b 2dbe 94bf 73bf
00000020: 302c 82bf f78b 93be e2e7 01bf 5070 50be
00000030: 0f3c ddbd 9ec8 f5be 1abc 1dbf e6d4 10bf
00000040: e16c 8cbe 2474 1bbe 5c5f b1be 6769 e8be
00000050: d472 c53c ba81 fabe f51c 27bf 6f37 4bbe
00000060: f4f4 c2be 1b40 18be 82c1 46be 2eeb 9fbe
00000070: e55e 59bf ff06 2d3a b4d3 63be c059 a8be
00000080: 8e86 04bf 6b50 38be 4ed6 33be a605 87be
00000090: 0a04 adbe b455 a6be 6fb6 5ebe a3de eebd
000000a0: 6749 bbbe 0f64 39be 25d9 4dbe bc44 46bf
000000b0: 657a b4be 8ecc 1cbe 163b 87be 0110 91be
000000c0: 1aa0 07bf 77f7 abbf 6835 4ebe 7a75 30bf
000000d0: 255e 78be 029b 023e f615 01be 740a bcbe
000000e0: d2b3 c2be bd26 a13d a331 4bbe 6990 60be
000000f0: e73b fabe 99e7 8cbe 5260 093d 47c5 a2be
00000100: 427a 153e 713a 11be f54b 07be 44c6 b0be
00000110: c2b9 c8be a1f4 5fbd f434 c2be 4cec 5e3c
00000120: 251f 2b3e 4cf6 92be 0aff 17bf 488d 16bf
00000130: 974b 95be 3f88 a8be 398f afbe 4e14 a3be
00000140: c711 01be 88e9 21be 713c d2be 6c1c 73bd
00000150: 1efb 47be fb58 c8bd dc43 cebe 6fbb 82be
00000160: 39f2 25be bfbd bdbe e185 c43d 9950 0dbf
00000170: 8636 3fbf c4b2 00bf 20fa 15be 36e6 b5be
00000180: f5ba 95be a9d6 95be acb2 a1be da0a cf3d
00000190: 584d 8fbe fec6 cfbe 9326 a2be 6c9a 27be
000001a0: 1fb6 17bf ff0b 60be 6429 76be 5b19 a6be
000001b0: 31cf a1be 1c46 1abe 562f 27bf 53a7 753d
000001c0: 5f36 39bf 950b f4bd dcc2 91be f1da 88be
000001d0: d9a9 f4be 3757 72be e2d4 bebe 4b29 a1be
000001e0: ef95 51bf bbc7 d4be 36aa 29be 6dd9 a7bc
000001f0: 1e9a 1dbf f69d 06bf b605 e0bd 0b59 01bf

weight f4 [64, 128]
0.094544865 -0.12691839 0.034189027 0.052364863 -0.18283087 0.16993518 0.11170741 -0.10766932
-0.13082941 -0.063043386 0.0076308986 0.19169453 -0.24349885 0.15852192 0.0885387 0.030864948
-0.21741894 0.10143861 0.15285558 -0.14339453 -0.12796205 -0.008720961 0.32085803 0.15157972
-0.0538655 0.040489238 0.11610132 -0.30368602 -0.20206405 -0.105850294 -0.063819334 0.021884529
-0.033479143 0.2474989 -0.23688747 -0.05068612 -0.25724077 0.1283026 -0.025036989 0.078726046
0.06633901 -0.0668356 -0.04763319 0.52059245 -0.09441207 0.059865482 -0.11823812 -0.011352985
0.09682011 0.18723387 0.0672046 0.20274097 -0.08528449 0.07363989 -0.2866479 0.0430884
-0.07185555 -0.00688315 -0.0879991 -0.09260411 0.04009931 -0.1750678 -0.110212535 -0.2489829
-0.008177572 -0.112406954 0.10114652 0.022172466 0.10703382 -0.22443825 -0.068859994 0.018006843
0.077504754 -0.036952175 -0.044181336 -0.00068239326 -0.012996638 -0.0202241 -0.022102429 -0.06588302
-0.23465961 -0.15646982 0.23838735 -0.09526572 0.1059743 0.11464344 0.009464258 -0.0095585985
0.22336087 0.0060481797 0.079614475 -0.2246221 0.13110672 -0.20014931 -0.23652706 -0.30199143
0.006132716 0.03588096 -0.11058243 -0.076175794 -0.16979626 0.14558384 0.12428288 -0.014144286
0.050886843 -0.2608334 -0.14975013 0.19067621 0.017894715 -0.12933497 -0.17528802 0.15802762
0.22823568 0.26144367 0.07036333 0.114004366 0.17741749 -0.25947642 0.014451081 -0.20325316
0.05743653 -0.038480677 -0.15364681 -0.07653206 0.14949523 0.027725784 -0.10163576 0.14811546
0.043561965 0.13201901 0.013299173 -0.101482235 -0.12217435 0.0003368395 0.003609537 0.092593096
-0.1344524 0.03318806 -0.22747518 -0.17022185 -0.007809032 -0.331142 0.035045907 0.12638131
-0.012702911 -0.103754885 -0.13447055 0.14819486 -0.08814652 -0.16453369 0.10296819 0.035195544
0.06554793 0.11244824 0.11412248 0.18178032 0.15170835 -0.001994349 -0.09230108 -0.046952154
-0.1836797 0.2543692 0.0061169984 -0.08133396 -0.28176305 0.030159228 0.11893952 -0.2421406
0.18859445 0.07838975 -0.21116625 -0.2702544 -0.040143985 -0.2555111 0.28997278 0.029901067
-0.14302954 -0.1275914 -0.20033096 -0.008432633 0.06605565 -0.06788083 0.02460723 -0.33871853
0.2508639 0.048254643 -0.12710242 0.0031598865 -0.1198886 -0.0573164 0.003467194 0.10149331
0.14679395 0.068664744 -0.17122504 -0.10003332 0.045566846 -0.0587066 -0.065766476 -0.11524822
-0.08175092 0.044892687 0.034434512 -0.12592235 0.12963292 -0.0053729154 0.0970561 0.061331272
0.21695134 0.098611884 -0.04676326 0.0147089595 0.14153756 -0.09125749 -0.18512076 -0.13979137
0.10634401 0.0767254 0.028287897 -0.26366913 0.16094393 -0.2140675 0.0762232 0.006758387
-0.12856305 0.19974935 -0.03534312 -0.11508088 -0.02536988 0.07950064 -0.21879447 0.09797268
0.18591489 -0.09963011 -0.0335208 0.14626886 -0.16169588 -0.017325725 0.01212702 -0.16132095
-0.054839328 0.08290227 -0.08240188 -0.058491006 -0.061542574 0.08574318 0.16192742 -0.13597068
-0.13490753 -0.0409188 0.034402847 0.062354885 0.028733175 -0.2565809 0.17119086 -0.14777444
00000000: bda0 c13d e5f6 01be cb09 0c3d 8a7c 563d
00000010: 0438 3bbe 7d03 2e3e dbc6 e43d bc81 dcbd
00000020: 25f8 05be e41c 81bd 9e0c fa3b 924b 443e
00000030: c357 79be 9253 223e c753 b53d 7dd8 fc3c
00000040: 12a3 5ebe 0cbf cf3d 2c86 1c3e 04d6 12be
00000050: 7c08 03be 5de2 0ebc 8147 a43e b737 1b3e
00000060: 12a2 5cbd 0bd8 253d 87c6 ed3d bc7c 9bbe
00000070: e1e9 4ebe 0ac8 d8bd b6b3 82bd 2f47 b33c
00000080: 6d21 09bd 5a70 7d3e a192 72be 409c 4fbd
00000090: 10b5 83be c261 033e 5f1a cdbc 1f3b a13d
000000a0: bfdc 873d 1ae1 88bd 051b 43bd 8c45 053f
000000b0: 1e5b c1bd 8235 753d d426 f2bd df01 3abc
000000c0: 9f49 c63d 3cba 3f3e 91a2 893d 549b 4f3e
000000d0: a2a9 aebd 83d0 963d 83c3 92be 767d 303d
000000e0: 0129 93bd 0c8c e1bb df38 b4bd 39a7 bdbd
000000f0: 2d3f 243d f944 33be 1cb7 e1bd 60f5 7ebe
00000100: 39fb 05bc 9e35 e6bd e825 cf3d 08a3 b53c
00000110: 8c34 db3d 24d3 65be 7806 8dbd 1683 933c
00000120: d0ba 9e3d 2a5b 17bd 7df7 34bd a3e2 32ba
00000130: daef 54bc 03ad a5bc 2710 b5bc aded 86bd
00000140: 9c4a 70be a039 20be d01b 743e ac1a c3bd
00000150: 0e09 d93d 2eca ea3d fa0f 1b3c ab9b 1cbc
00000160: b6b8 643e cf2f c63b ea0c a33d 5603 66be
00000170: d740 063e f1f3 4cbe 2634 72be 9f9e 9abe
00000180: f3f4 c83b eaf7 123d 0b79 e2bd 0e02 9cbd
00000190: 12df 2dbe ee13 153e 0688 fe3d 6fbd 67bc
000001a0: b96e 503d f58b 85be 1958 19be a040 433e
000001b0: f097 923c 6370 04be b47e 33be fed1 213e
000001c0: 9db6 693e f2db 853e a61a 903d 1f7b e93d
000001d0: eeac 353e 18da 84be 3ac4 6c3c 9921 50be
000001e0: 9142 6b3d ea9d 1dbd 9755 1dbe d7bc 9cbd
000001f0: 4715 193e 2f21 e33c 6926 d0bd 94ab 173e
00000200: 086e 323d fe2f 073e c6e4 593c ebd5 cfbd
00000210: 8c36 fabd d599 b039 fb8d 6c3b 73a1 bd3d
00000220: e4ad 09be 34f0 073d 41ef 68be a34e 2ebe
00000230: e9e2 ffbb 728b a9be 4c8c 0f3d 1a6a 013e
00000240: df1f 50bc 717d d4bd a6b2 09be 65c0 173e
00000250: 2a86 b4bd 857b 28be fde0 d23d 3429 103d
00000260: fe3d 863d 434b e63d 0cb9 e93d 9f24 3a3e
00000270: 6f59 1b3e a0b3 02bb 5908 bdbd e750 40bd
00000280: 8816 3cbe ae3c 823e 1a71 c83b 6b92 a6bd
00000290: 3f43 90be 7c10 f73c 9096 f33d b5f3 77be
000002a0: e71e 413e ce8a a03d f73b 58be c95e 8abe
000002b0: 056e 24bd 5ad2 82be 5077 943e 15f3 f43c
000002c0: 5676 12be 52a7 02be 8f23 4dbe 0729 0abc
000002d0: 2f48 873d 1b05 8bbd 1a95 c93c 846c adbe
000002e0: 3c71 803e a9a6 453d 2327 02be 1916 4f3b
000002f0: 2888 f5bd 9ac4 6abd dd39 633b b9db cf3d
00000300: 2751 163e 1aa0 8c3d 9e55 2fbe 45de ccbd
00000310: 4da4 3a3d 5576 70bd 93b0 86bd 4207 ecbd
00000320: 076d a7bd 65e1 373d 340b 0d3d caf1 00be
00000330: 7ebe 043e 480f b0bb 59c5 c63d 8036 7b3d
00000340: 7e28 5e3e 07f5 c93d d58a 3fbd d9fd 703c
00000350: 39ef 103e 35e5 babd 4c90 3dbe 7825 0fbe
00000360: e3ca d93d 3522 9d3d 05bc e73c a4ff 86be
00000370: 7cce 243e 8334 5bbe e91a 9c3d 7675 dd3b
00000380: 08a6 03be 188b 4c3e f3c3 10bd 86af ebbd
00000390: 7fd4 cfbc 3bd1 a23d a80b 60be e7a5 c83d
000003a0: 7960 3e3e df0a ccbd 1b4d 09bd 81c7 153e
000003b0: 9b93 25be aeee 8dbc 69b0 463c 5231 25be
000003c0: 349f 60bd aac8 a93d 51c2 a8bd 4494 6fbd
000003d0: 1114 7cbd 1f9a af3d 4dd0 253e e63b 0bbe
000003e0: 3325 0abe 799a 27bd 00ea 0c3d d667 7f3d
000003f0: d661 eb3c 925e 83be a84c 2f3e 2f52 17be

bias f4 [64]
-0.121853195 -0.08185086 -0.10705353 -0.11697361 -0.22614828 -0.27662483 -0.13149554 -0.43386996
-0.31237152 -0.22759564 -0.101740345 0.19846645 -0.36437425 -0.1268428 -0.22640383 -0.18869016
-0.25858298 -0.1112045 -0.3542312 -0.5658608 -0.107737795 -0.19006556 -0.1181215 0.059052154
-0.26922524 0.08417914 -0.06919353 -0.07726489 -0.021795336 -0.2110365 -0.22576982 -0.49083698
-0.2673634 -0.25391635 -0.12387548 -0.36277524 -0.40534747 0.05935007 -0.035870425 -0.36416084
-0.32383358 -0.19702029 -0.24879654 -0.20202677 -0.46188733 0.14583178 -0.75387543 -0.16607662
-0.46623427 -0.31649184 -0.29538882 -0.40375707 0.12867045 -0.29722273 -0.03016419 -0.07694023
-0.3241939 -0.6023544 -0.32750922 -0.22931358 -0.2804755 -0.21710402 -0.4260175 -0.19128251
00000000: 2b8e f9bd 6ca1 a7bd e23e dbbd dc8f efbd
00000010: 6a93 67be c5a1 8dbe c4a6 06be 3424 debe
00000020: 29ef 9fbe d50e 69be 3e5d d0bd ca3a 4b3e
00000030: 438f babe 14e3 01be 68d6 67be fe37 41be
00000040: fd64 84be 2fbf e3bd cb5d b5be 41dc 10bf
00000050: a2a5 dcbd 8ca0 42be afe9 f1bd ace0 713d
00000060: e4d7 89be 1d66 ac3d 56b5 8dbd 0e3d 9ebd
00000070: 228c b2bc f419 58be 3430 67be fc4e fbbe
00000080: dbe3 88be 5301 82be 6db2 fdbd adbd b9be
00000090: b489 cfbe 0f19 733d deec 12bd 4a73 babe
000000a0: 84cd a5be b0bf 49be 85c4 7ebe 1be0 4ebe
000000b0: 7f7c ecbe ed54 153e fbfd 40bf fd0f 2abe
000000c0: 42b6 eebe 380b a2be 343d 97be 3fb9 cebe
000000d0: 30c2 033e 942d 98be e41a f7bc d792 9dbd
000000e0: befc a5be e633 1abf 4aaf a7be 2ed1 6abe
000000f0: 7c9a 8fbe 8450 5ebe f71e dabe 90df 43be

weight f4 [16, 64]
-0.05199177 0.07852461 0.036211446 -0.00276836 0.051037144 -0.07594915 -0.06847436 -0.002549725
0.15575914 -0.13170296 -0.028737381 -0.015211932 0.057630062 -0.01549137 -0.026151307 0.036229234
-0.015789255 -0.04187886 0.09701298 0.02080598 -0.0847764 -0.05262927 0.0049292883 0.08158567
-0.04470002 0.026729856 0.036433183 0.03427928 -0.013162222 0.022312297 -0.041988768 -0.024140535
0.05241474 0.033722486 0.019249031 0.09638826 0.045249008 -0.0013148931 -0.048876047 0.10794633
-0.043764383 0.01972434 -0.023447292 -0.0060418826 0.0019781606 0.023222834 -0.04490814 -0.14399394
-0.12675062 0.036970604 0.02461084 -0.0036871098 -0.0029750436 0.0819722 0.06679497 -0.03166078
0.15743598 -0.027684242 -0.1294133 0.057166263 -0.06482262 -0.08881518 -0.07160213 0.11549333
0.012180778 0.04528396 -0.04841592 0.070642084 -0.014799568 -0.13664395 0.003432629 -0.07011965
-0.003719581 0.017425021 -0.10348785 -0.016980382 -0.004564538 -0.18429774 0.051633336 -0.0035162014
-0.032186665 -0.015219523 0.025298981 -0.0011800008 0.0063464767 -0.016767025 0.019657338 0.08045184
0.118249856 -0.065908164 -0.037054393 0.115746096 0.03350093 0.017267395 -0.05256928 -0.005264871
0.017635427 0.005941159 -0.01245798 -0.00995228 0.10895473 -0.036743414 0.08228074 -0.059384633
-0.010198174 -0.016195435 0.0011848297 0.004897462 0.12818982 -0.09096291 -0.017448476 -0.0074738865
0.006229239 0.008310915 -0.017760409 0.03759383 0.013625293 0.05610403 -0.04376826 0.033409458
0.033482153 -0.05022213 0.024085127 -0.030453343 -0.016525036 -0.04651783 -0.015334679 -0.06729504
-0.04864694 0.0022335697 -0.0161152 -0.0062553245 0.038147 -0.065208025 -0.010981282 0.039939053
-0.039269026 -0.035288814 0.028290596 -0.02177903 0.02099663 -0.04169512 0.057113077 -0.07537956
-0.003091261 0.0038355994 -0.059335183 -0.016244894 -0.071800925 -0.061389968 0.0008899467 0.14043626
-0.04438152 0.06257592 0.01125148 -0.2067506 0.004745674 -0.046666507 -0.053498406 -0.100704834
-0.07789436 0.00020862703 0.011021482 -0.081711486 -0.027367346 0.036824826 0.11266906 0.14531514
0.0037852554 0.051101804 -0.029168138 -0.02886904 0.055809394 0.065286584 0.21036454 -0.023215977
0.1235312 -0.06318443 -0.019553721 0.011086291 0.016141338 -0.12946142 0.02154389 0.032330953
-0.061463375 0.037097126 0.094563074 -0.020931927 0.11362687 0.0011941412 0.102606975 0.1891291
0.06477942 0.0040104156 0.005869676 0.23565023 -0.008314262 0.0024802869 0.021264432 0.0010201054
0.014815456 -0.025941048 -0.0033076094 0.502458 -0.03165759 -0.0899636 0.01317279 0.04549729
0.10474415 -0.027094353 0.03551025 -0.033212062 0.06075 0.02315019 0.02698085 -0.09902622
0.06960142 0.15028982 0.056057744 -0.049999814 -0.0017969067 0.019331401 0.022769945 0.027693437
-0.031001024 -0.113188185 0.027350102 0.008180283 -0.009408063 -0.09290603 0.079522654 -0.04892019
0.04350526 -0.05168801 0.030651234 -0.06432583 0.011787354 -0.03786769 -0.043260403 -0.039690934
-0.035094112 -0.078424744 0.01955087 -0.13873509 -0.03615832 -0.004133862 -0.0046409317 -0.3451507
0.022418179 -0.09027496 0.005588715 -0.017788919 -0.011798055 0.046910044 -0.01807854 0.020251235
00000000: 52f5 54bd 83d1 a03d 7452 143d 606d 35bb
00000010: 530c 513d 3a8b 9bbd 493c 8cbd 4919 27bb
00000020: 537f 1f3e 24dd 06be a86a ebbc 783b 79bc
00000030: 800d 6c3d 84cf 7dbc 443b d6bc 1b65 143d
00000040: 7858 81bc 2b89 2bbd beae c63d 4d71 aa3c
00000050: 409f adbd ca91 57bd de85 a13b 6316 a73d
00000060: 5e17 37bd 92f8 da3c f63a 153d 6e68 0c3d
00000070: 5ca6 57bc 47c8 b63c 6afc 2bbd 5fc2 c5bc
00000080: d7b0 563d 9720 0a3d 25b0 9d3c 3567 c53d
00000090: 0657 393d 7e58 acba 4032 48bd f712 dd3d
000000a0: 4842 33bd f094 a13c 8914 c0bc fcfa c5bb
000000b0: 07a4 013b d03d be3c 99f1 37bd 2673 13be
000000c0: eaca 01be 7d6e 173d ac9c c93c 70a3 71bb
000000d0: f3f8 42bb 0ae1 a73d cdcb 883d bcae 01bd
000000e0: e636 213e 10ca e2bc ec84 04be 2c27 6a3d
000000f0: b9c1 84bd bce4 b5bd 23a4 92bd c487 ec3d
00000100: e391 473c ac7b 393d c64f 46bd ccac 903d
00000110: e379 72bc 64ec 0bbe f5f5 603b e49a 8fbd
00000120: 37c4 73bb ebbe 8e3c 70f1 d3bd 711a 8bbc
00000130: 1f92 95bb 8cb8 3cbe 7a7d 533d 1270 66bb
00000140: 2ad6 03bd 4e5b 79bc cf3f cf3c 42aa 9aba
00000150: 1bf6 cf3b 005b 89bc 6d08 a13c efc3 a43d
00000160: fb2c f23d dcfa 86bd 59c6 17bd 4a0c ed3d
00000170: 4538 093d 5a74 8d3c e352 57bd f084 acbb
00000180: 2c78 903c 0eae c23b 8e1c 4cbc e30e 23bc
00000190: a823 df3d 4380 16bd ce82 a83d 4d3d 73bd
000001a0: 3e16 27bc 4aac 84bc 4a4c 9b3a e47a a03b
000001b0: 3144 033e c34a babd 1bf0 8ebc 81e7 f4bb
000001c0: a51e cc3b 812a 083c 477e 91bc fdfb 193d
000001d0: 9f3c 5f3c 57cd 653d 5946 33bd 5bd8 083d
000001e0: 9524 093d b8b5 4dbd 2c4e c53c 4a79 f9bc
000001f0: 835f 87bc 7b89 3ebd 4e3e 7bbc fbd1 89bd
00000200: 0442 47bd 1561 123b 0604 84bc 77f9 ccbb
00000210: 0740 1c3d c98b 85bd d6ea 33bc 2297 233d
00000220: 8fd8 20bd 018b 10bd aec1 e73c f069 b2bc
00000230: 2001 ac3c 81c8 2abd 67ef 693d 9960 9abd
00000240: c196 4abb ae5e 7b3b 7309 73bd 0314 85bc
00000250: 5d0c 93bd 0c74 7bbd 504b 693a 86ce 0f3e
00000260: 66c9 35bd ce27 803d 2158 383c 6eb6 53be
00000270: 9981 9b3b 6125 3fbd 2521 5bbd 563e cebd
00000280: 1487 9fbd e4c2 5a39 7293 343c 5a58 a7bd
00000290: 7c31 e0bc a1d5 163d 09bf e63d 7ecd 143e
000002a0: 0c12 783b 2050 513d 05f2 eebc c47e ecbc
000002b0: 6498 643d f9b4 853d cd69 573e 6f2f bebc
000002c0: edfd fc3d d766 81bd 202f a0bc 46a3 353c
000002d0: d73a 843c 8991 04be d07c b03c 766d 043d
000002e0: 05c1 7bbd 28f3 173d 49aa c13d 6f79 abbc
000002f0: 34b5 e83d bb84 9c3a 9b23 d23d 0fab 413e
00000300: 13ab 843d ce69 833b 6956 c03b 4b4e 713e
00000310: 8b38 08bc 4f8c 223b bf32 ae3c 0fb5 853a
00000320: 87bc 723c 5282 d4bc 7ac4 58bb 16a1 003f
00000330: 64ab 01bd d63e b8bd b0d2 573c 5e5b 3a3d
00000340: 1a84 d63d faf4 ddbc 3273 113d 5f09 08bd
00000350: fed4 783d 78a5 bd3c f206 dd3c 42ce cabd
00000360: 308b 8e3d 93e5 193e ce9c 653d 9bcc 4cbd
00000370: 2f86 ebba e35c 9e3c 0988 ba3c 59dd e23c
00000380: dcf5 fdbc 35cf e7bd 520d e03c 9806 063c
00000390: 4724 1abc 8445 bebd c6dc a23d 8a60 48bd
000003a0: 9232 323d cfb6 53bd 4c18 fb3c 43bd 83bd
000003b0: bf1f 413c 271b 1bbd d231 31bd f692 22bd
000003c0: d8be 0fbd 279d a0bd 2529 a03c 9210 0ebe
000003d0: bf1a 14bd 5975 87bb f512 98bb 98b7 b0be
000003e0: 54a6 b73c 14e2 b8bd 8a21 b73b 11ba 91bc
000003f0: a14c 41bc bf24 403d 7219 94bc ebe5 a53c

bias f4 [16]
-0.016805673 -0.07614246 -0.17703687 0.16079332 -0.31860676 0.03750619 -0.08294638 -0.051797632
0.1296369 -0.11141327 0.16312075 -0.21184433 -0.052737676 -0.079566404 0.024217593 -0.18340066
00000000: 0dac 89bc 94f0 9bbd 2749 35be 01a7 243e
00000010: 6d20 a3be 17a0 193d cbdf a9bd c129 54bd
00000020: 89bf 043e a42c e4bd 2009 273e b8ed 58be
00000030: 7603 58bd b6f3 a2bd f963 c63c 62cd 3bbe

weight f4 [128, 285]
0.6247296 0.4274998 -0.07400828 0.14589965 1.1204305 0.4573988 0.18263222 0.18294185
0.20078692 0.14521748 0.52086526 0.2591437 -0.02782637 -0.95444703 0.42250064 0.06821929
0.03996158 -0.793662 -0.089019544 -0.14157082 0.14968179 0.17340392 -0.80700445 -0.16362797
0.04865397 -0.83572155 -2.0425918 -0.03317924 -0.30620357 0.73304904 0.09018856 0.1343572
0.05215497 0.2891539 0.32488194 -0.2749599 0.3476803 0.01836994 0.96569186 0.5570196
0.124499805 -0.114458136 -0.16968805 0.0047925636 0.023998162 -0.12990926 0.029613677 -0.1688784
0.01112228 -0.07062047 -0.071345456 -0.092106625 -0.027836906 -0.0955111 0.053037446 0.005298133
0.029091848 0.1333499 0.08385746 -0.18904272 0.7288983 1.1103481 0.3559672 -0.063005656
-0.019849677 0.22700667 -0.48640978 0.33274692 0.04700163 -0.010727214 -0.5495587 0.38594782
-0.03653125 0.036207378 -0.4677289 0.08155859 0.08709525 0.039499093 -0.030544234 -0.38805422
0.05221849 0.0681531 -0.36553475 -0.93888706 -0.5779834 -0.4560391 0.39163393 -0.0068862853
0.14797153 -0.0042385613 0.12892385 0.26622537 0.15116835 0.16563463 0.12995452 0.38989642
0.24535769 0.10417586 -0.14868343 -0.16141745 -0.06780273 0.03808939 -0.12823568 0.048474465
-0.19219318 0.011404381 -0.06394754 -0.057283714 -0.11735459 -0.004467414 -0.06767434 0.06718114
-0.018423427 0.016434966 0.12707822 0.054003622 -0.27865106 1.0430778 1.1418235 0.3331991
-0.051158875 -0.05281075 0.20358182 0.051425274 0.6148244 0.054523185 0.040086005 -0.17293996
0.21924739 0.055717766 0.0583527 0.13329259 0.28853 0.40193945 -0.016107135 -0.30636597
-0.0075756074 0.2897881 -0.0130415335 -0.083576106 -0.5751826 -0.27270445 -0.3659957 0.173366
-0.09384281 0.11325006 -0.014848317 0.2178959 0.2023912 0.20796855 -0.016058091 0.26842615
0.034031816 -0.10860868 0.07901739 -0.08754747 -0.12825789 -0.06459597 0.041125756 -0.09773199
0.024817076 -0.13449967 0.015853273 -0.038487494 -0.016123336 -0.111845806 0.010277129 -0.027186843
0.04807392 -0.018906813 0.01811393 0.43148807 0.096084476 -0.016182868 1.247525 1.221303
0.42939126 -0.013967237 -0.022447623 0.19464251 0.71810454 1.1746876 0.10733951 -0.065311834
-0.020847633 0.10662955 0.23117666 -0.010325717 0.7974284 0.2751118 0.6550327 0.025413793
0.041311212 0.09317469 0.32304287 -0.012315779 0.26248094 -0.10709344 -0.03344568 -0.23293853
0.07033664 -0.11059427 0.050077345 -0.0034388036 0.013990412 0.30688718 0.27521524 0.004057769
0.4016354 -0.07203794 0.15522566 0.0044887858 -0.056327652 -0.046671975 -0.1302062 0.037017137
-0.08916995 -0.0027745261 -0.062049158 0.016361093 -0.022347858 0.0073217475 -0.04433078 0.0026653362
-0.03528542 0.03572765 0.027356902 0.021711158 0.29741177 -0.28831637 -1.395576 1.5585768
1.0236332 0.6941605 0.014346843 -0.031728316 0.26416194 0.5939067 1.7062166 0.16355471
-0.08052971 1.499961 -0.24580453 0.30086538 -0.008533152 1.4800092 0.018151099 1.0847151
0.06967928 1.3958358 -0.09694853 -0.099693425 -0.028034557 0.8750107 0.5137208 0.106298484
00000000: 47ee 1f3f 41e1 da3e a791 97bd b866 153e
00000010: 446a 8f3f 2d30 ea3e f103 3b3e 1c55 3b3e
00000020: 169b 4d3e e4b3 143e 6d57 053f 7cae 843e
00000030: 21f4 e3bc a456 74bf 0152 d83e 8eb6 8b3d
00000040: c1ae 233d 6f2d 4bbf e14f b6bd f1f7 10be
00000050: 2f46 193e cc90 313e d897 4ebf 178e 27be
00000060: 6349 473d d9f1 55bf d3b9 02c0 f4e6 07bd
00000070: b7c6 9cbe 1aa9 3b3f c8b4 b83d ef94 093e
00000080: 73a0 553d fb0b 943e ed56 a63e 8bc7 8cbe
00000090: 2703 b23e 8e7c 963c 9537 773f d698 0e3f
000000a0: c1f9 fe3d 0769 eabd b4c2 2dbe f00a 9d3b
000000b0: cb97 c43c ef06 05be 6298 f23c 76ee 2cbe
000000c0: 393a 363c 77a1 90bd 911d 92bd 66a2 bcbd
000000d0: 390a e4bc 539b c3bd cb3d 593d f69b ad3b
000000e0: 0752 ee3c e08c 083e 76bd ab3d 6a94 41be
000000f0: 1499 3a3f e31f 8e3f 5541 b63e 1c09 81bd
00000100: ca9b a2bc 7074 683e b40a f9be ce5d aa3e
00000110: c884 403d 32c1 2fbc e1af 0cbf f49a c53e
00000120: cba1 15bd 304e 143d 2a7a efbe 3108 a73d
00000130: ff5e b23d cdc9 213d e737 fabc 0baf c6be
00000140: 0ee3 553d da93 8b3d 5f27 bbbe e75a 70bf
00000150: b8f6 13bf f57d e9be 3e84 c83e 59a6 e1bb
00000160: d985 173e a1e3 8abb 9d04 043e b14e 883e
00000170: e0cb 1a3e 209c 293e cc12 053e 81a0 c73e
00000180: 0c3f 7b3e 275a d53d 7840 18be 9e4a 25be
00000190: 28dc 8abd 9f03 1c3d 3750 03be 298d 463d
000001a0: 4ace 44be 71d9 3a3c eef6 82bd 54a2 6abd
000001b0: 9a57 f0bd 6363 92bb d898 8abd 4496 893d
000001c0: baec 96bc 9fa2 863c cb20 023e e732 5d3d
000001d0: 5aab 8ebe 9383 853f 4627 923f 1399 aa3e
000001e0: f88b 51bd 1650 58bd c177 503e 4fa3 523d
000001f0: 2265 1d3f b453 5f3d 3931 243d 2c17 31be
00000200: 6382 603e 5038 643d 3e03 6f3d da7d 083e
00000210: 34ba 933e 02cb cd3e 1cf3 83bc 00dc 9cbe
00000220: cd3c f8bb 1b5f 943e 28ac 55bc f329 abbd
00000230: 2b3f 13bf eb9f 8bbe ca63 bbbe db86 313e
00000240: a930 c0bd a6ef e73d 5b46 73bc 1a20 5f3e
00000250: a43f 4f3e b5f5 543e 428c 83bc 276f 893e
00000260: f264 0b3d 3a6e debd dfd3 a13d 174c b3bd
00000270: 0956 03be e44a 84bd 7b73 283d b627 c8bd
00000280: 2e4d cb3c 48ba 09be b9de 813c 10a5 1dbd
00000290: 1615 84bc 6a0f e5bd 6761 283c f1b6 debc
000002a0: 29e9 443d 76e2 9abc aa63 943c 01ec dc3e
000002b0: f0c7 c43d ef91 84bc e6ae 9f3f a853 9c3f
000002c0: 2cd9 db3e d7d6 64bc 14e4 b7bc 5e50 473e
000002d0: b3d5 373f 2a5c 963f d1d4 db3d 36c2 85bd
000002e0: a8c8 aabc 9860 da3d 93b9 6c3e 322d 29bc
000002f0: 4524 4c3f 74db 8c3e 39b0 273f 9630 d03c
00000300: f235 293d 5fd2 be3d e065 a53e 1fc8 49bc
00000310: e763 863e ce53 dbbd 56fe 08bd 7087 6ebe
00000320: a80c 903d 407f e2bd e71d 4d3d 8d5d 61bb
00000330: 0a38 653c 5120 9d3e 03e9 8c3e 09f7 843b
00000340: 28a3 cd3e a188 93bd 7af3 1e3e aa16 933b
00000350: d3b7 66bd 1d2b 3fbd c654 05be 489f 173d
00000360: bc9e b6bd d3d4 35bb 4227 7ebd b307 863c
00000370: db12 b7bc 45eb ef3b 3194 35bd ecac 2e3b
00000380: 7287 10bd 2857 123d 951b e03c 99db b13c
00000390: 5b46 983e 349e 93be 3ca2 b2bf 727f c73f
000003a0: 6a06 833f 81b4 313f 050f 6b3c 8df5 01bd
000003b0: 3c40 873e 450a 183f 4e65 da3f e37a 273e
000003c0: c3ec a4bd b9fe bf3f 2fb4 7bbe 070b 9a3e
000003d0: a2ce 0bbc f170 bd3f 9db1 943c f2d7 8a3f
000003e0: 03b4 8e3d bfaa b23f f38c c6bd 112c ccbd
000003f0: baa8 e5bc b400 603f 3583 033f 05b3 d93d

bias f4 [128]
-0.6634173 -0.21001832 -0.035260305 -1.4291323 -0.19182715 -0.66453505 0.7137222 -0.290809
-0.08690558 0.13286045 0.083460994 0.26556498 1.156387 -0.27547348 -0.026258158 0.5882741
-1.0102142 -0.56199783 -6.7306056 -0.4615623 -0.878747 0.16462843 -0.21401744 -1.2732952
0.24695699 -0.32487097 -0.31830975 0.23865029 0.04671952 -0.9451597 -1.6772833 -3.1652472
-0.05226785 -0.019919846 1.040022 -0.413738 -3.0658715 0.32527742 0.025833573 -10.353765
-1.182363 0.2897222 -1.1416546 -0.0887847 2.059805 -0.5148176 -0.43939194 -0.5958235
0.27173615 0.4841956 0.3386134 -0.620407 0.17538707 -1.7233487 -0.56943893 -1.2580724
-0.919888 -1.3054895 0.12900148 -0.34278837 -0.2465708 -1.0281972 -0.0035853367 0.72661036
0.6449202 -0.15386795 0.22563358 -0.85167956 -0.23013431 -1.2875358 -0.9022243 -0.008008741
0.6638081 0.2075414 0.62552536 0.08118841 -1.8138762 -0.07926394 1.8659704 -1.6460806
1.00217 0.08644533 -0.038457714 -1.4069698 -0.1593622 0.47142366 -0.3297973 -1.4927293
-0.6356793 -0.914452 -3.698151 -0.5435359 -2.0559611 1.3112339 0.2110195 -6.9122076
1.5025936 0.17594643 -0.9373903 -0.7585259 -0.9114024 -6.3776336 -1.2975606 -0.7479736
-1.1463761 0.4024142 -2.2632806 0.23850264 -1.6408954 -0.2012896 -0.4277804 -0.22831313
-1.2412913 -0.20259278 -0.7671912 -1.2698948 -1.3709022 -3.1033046 -0.66880953 -0.021922618
-2.1362994 -0.27918363 -0.35029772 -0.2170114 0.0444332 0.46689054 -1.0319016 0.10856342
00000000: b7d5 29bf 0b0f 57be 1c6d 10bd cfed b6bf
00000010: 566e 44be f81e 2abf 80b6 363f ebe4 94be
00000020: 8dfb b1bd 920c 083e 99ed aa3d 22f8 873e
00000030: 7d04 943f dc0a 8dbe 591b d7bc 2299 163f
00000040: b34e 81bf 17df 0fbf 1f61 d7c0 e551 ecbe
00000050: 90f5 60bf 5b94 283e 6327 5bbe 56fb a2bf
00000060: 4be2 7c3e 7d55 a6be 7ff9 a2be be60 743e
00000070: f85c 3f3d fcf5 71bf 38b1 d6bf 6993 4ac0
00000080: d016 56bd f22e a3bc 711f 853f 78d5 d3be
00000090: 3d37 44c0 c38a a63e eea0 d33c 05a9 25c1
000000a0: ac57 97bf 7856 943e bd21 92bf c1d4 b5bd
000000b0: d8d3 0340 16cb 03bf fbf7 e0be e487 18bf
000000c0: 0021 8b3e 7ce8 f73e bc5e ad3e fed2 1ebf
000000d0: ab98 333e b196 dcbf c0c6 11bf 8408 a1bf
000000e0: c87d 6bbf 481a a7bf f718 043e f581 afbe
000000f0: 0e7d 7cbe f79b 83bf f8f7 6abb 2303 3a3f
00000100: 7d19 253f 8f8f 1dbe 7d0c 673e ac07 5abf
00000110: 54a8 6bbe f9cd a4bf 2cf8 66bf 1837 03bc
00000120: 54ef 293f bc85 543e 6e22 203f 1c46 a63d
00000130: 182d e8bf 2255 a2bd 1ed8 ee3f c5b2 d2bf
00000140: 1b47 803f 400a b13d d685 1dbd 9617 b4bf
00000150: d82f 23be 715e f13e 31db a8be c111 bfbf
00000160: e1bb 22bf 8719 6abf 82ae 6cc0 2b25 0bbf
00000170: de94 03c0 83d6 a73f 7f15 583e ce30 ddc0
00000180: fd54 c03f 4d2b 343e d0f8 6fbf c12e 42bf
00000190: ab51 69bf 9315 ccc0 7716 a6bf 337b 3fbf
000001a0: 74bc 92bf 3c09 ce3e 97d9 10c0 093a 743e
000001b0: dc08 d2bf dc1e 4ebe 0806 dbbe ebca 69be
000001c0: a2e2 9ebf 7b74 4fbe a466 44bf ea8b a2bf
000001d0: b979 afbf 8b9c 46c0 1a37 2bbf 1097 b3bc
000001e0: 21b9 08c0 28f1 8ebe 395a b3be 3d38 5ebe
000001f0: 96ff 353d 470c ef3e 5a15 84bf 8056 de3d
