src/rl_sar/models/go2/robot_lab/policy.pt (torch, 769376 bytes, 8 tensors)

weight f4 [512, 45]
000000 be d0 b3 3c d5 10 60 3e f1 6b 8a be 6f 69 b8 be
       0.021950122 0.21881421 -0.27035478 -0.3601794
000010 7a 94 7a bf ec eb 1f 3d d2 cd 4e be 43 d7 58 be
       -0.9788281 0.039043352 -0.20195702 -0.21175866
000020 c2 88 2e be b6 f0 1b 3f 48 5b c0 3e b3 86 6e 3f
       -0.17044356 0.6091417 0.37569642 0.93174285
000030 56 98 e5 be 00 68 12 be 5e cd f9 3d 91 28 3a 3f
       -0.44842786 -0.14297485 0.12197374 0.7271815
000040 e5 fe 03 be e0 62 8a 3e 32 82 0e bf 8f 40 04 bf
       -0.12890203 0.2702856 -0.5566741 -0.5166101
000050 ae 49 a9 3d 07 43 ba 3d 7c 00 6f be 58 1f 7a 3b
       0.082660064 0.09094816 -0.23340029 0.0038165655
000060 a4 df 86 3f 62 bd 53 3f 47 e7 30 be 04 0f fc 3e
       1.0537 0.8271085 -0.17275725 0.49230206
000070 0f 5f 96 3e 6d 68 63 be 34 7f ca be 20 0c fa be
       0.293694 -0.22207804 -0.39550173 -0.48837376
000080 b2 fb 13 3f b2 79 58 3c 84 91 7a 3d b6 40 70 3d
       0.5780593 0.013212608 0.06117393 0.058655463
000090 26 19 24 be 83 6f dc bd f9 ab 10 3d fb d5 d4 3d
       -0.16025218 -0.10763457 0.035320256 0.10392376
0000a0 92 6e e9 bd 5b 44 8c 3c a8 c7 00 3e 05 d1 cb 3d
       -0.11398043 0.017122438 0.12576163 0.09951977
0000b0 ad db 53 be 5f 9d 60 3c 14 08 86 be 21 95 0e be
       -0.20689268 0.013709395 -0.26178038 -0.13924076
0000c0 ba d6 66 be a4 23 50 bd a4 08 ba be 54 fb 9f 3d
       -0.22542849 -0.05081524 -0.36334717 0.07811609
0000d0 3e 07 6a bd 17 d7 35 bf 37 76 e8 be f4 38 b9 3e
       -0.057135813 -0.71031326 -0.4540269 0.36176264
0000e0 2e fe 86 3e ed 90 64 3e 54 cb f3 3e 23 71 c0 bd
       0.263658 0.2232091 0.47616065 -0.09396579
0000f0 a4 bd 04 3e a6 9d 32 bf 30 e9 af b8 07 fc 26 bf
       0.12962967 -0.697718 -8.388085e-05 -0.65228313
000100 82 87 14 bf c5 aa 7b be 8b c1 95 bf 1a 0f ed 3e
       -0.5801927 -0.24576862 -1.169969 0.46300584
000110 0a 60 15 3d d8 72 7d 3d 65 9a 91 3e 23 93 a9 3d
       0.036468543 0.0618771 0.28438106 0.08280017
000120 7e 83 aa bd 05 68 9e be 19 e7 8f 3e 4c c4 83 3e
       -0.083258614 -0.30938736 0.28106 0.257357
000130 55 8d b9 bd 9a df ad 3d bf da 8b bd 06 1b b9 3d
       -0.0906016 0.08489914 -0.06828832 0.090383574
000140 d2 06 9b 3d f7 d4 0e 3a 9e f1 b0 bb cd ae 80 bd
       0.0756966 0.00054486044 -0.0053998968 -0.062833406
000150 c3 bd 76 3b f0 e0 14 3e 9f c3 02 be 36 fa 80 bd
       0.0037649728 0.14538932 -0.12769936 -0.06297724
000160 d8 e6 7e bc 1d 81 cd 3c 5d cf 23 bc e9 ed 87 3f
       -0.015557967 0.02508598 -0.00999817 1.061948
000170 93 8d 69 3f b7 fd 8e 3f 30 36 18 3f 90 21 8d bb
       0.9123165 1.1171178 0.59457684 -0.0043069795
000180 7d 4a 14 be d0 1b 16 3f 0c 8c 63 be 9d 5d 6b 3e
       -0.1448154 0.5863619 -0.22221392 0.2298493
000190 95 1f 13 3d 35 b5 89 3e d3 3c 27 bf 1a 15 94 bd
       0.03591879 0.26896062 -0.65327185 -0.07230587
0001a0 53 e0 13 bf 75 eb 7d 3c 01 55 8c be a2 18 96 bc
       -0.57764167 0.015498032 -0.27408603 -0.018322293
0001b0 42 34 bf 3e 05 0a ee be 52 88 7e 3e a9 03 98 be
       0.37344557 -0.4649202 0.2485669 -0.29690292
0001c0 03 ed 3c 3e 02 e1 8a 3e 32 ae 4d 3f bd d3 2a 3f
       0.18449788 0.27124792 0.80343926 0.66729337
0001d0 6d bc 36 3f 7c 27 b7 be f8 6c c2 bd 49 57 d5 3d
       0.71381265 -0.35772312 -0.094934404 0.10417039
0001e0 81 d4 02 3f 4b 63 1c 3e 9c e0 8b bc 4c b5 77 3c
       0.51105505 0.15272252 -0.017074876 0.015118908
0001f0 97 7b 4e bd 2d 11 1a bd 3d e4 e9 3c ca 58 7a 3a
       -0.050410833 -0.037614036 0.028551215 0.0009549974
000200 de 82 d6 3d cc a6 5b 3b cd ce 98 bc 29 d9 b0 bb
       0.1047418 0.0033516167 -0.018653298 -0.0053969813
000210 54 47 3f bd b3 7c c5 3d e3 eb ac ba 1a 34 2d be
       -0.046698883 0.09642925 -0.0013192858 -0.16914406
000220 e1 8c fd 3d c2 9b 85 3c 59 23 5e bf 76 81 8e 3f
       0.12380386 0.016309623 -0.86772686 1.1133258
000230 c0 82 70 be cc 19 44 be 49 39 36 3f 4f e7 0a be
       -0.23487377 -0.19150466 0.7118116 -0.135648
000240 51 07 21 3f da 2f 8a be 4b e2 25 3e a3 80 db 3c
       0.6290179 -0.26989633 0.16199605 0.026794737
000250 14 04 a0 3e 73 87 bb be ea 1c 8b bf 4b 42 f1 bd
       0.3125311 -0.36626777 -1.0868199 -0.117802225
000260 fa 20 b0 be 03 a0 98 3e 87 66 5b 3e 16 18 67 be
       -0.3440016 0.2980958 0.2142583 -0.22567782
000270 08 cd f8 be 9c bb 2b 3e 3d 79 9d be cc 99 53 be
       -0.48593926 0.16770786 -0.3075656 -0.20664138
000280 a3 f5 16 3e 39 79 87 bd 7b b8 9d be 35 aa 05 be
       0.1474214 -0.06614918 -0.3080481 -0.1305321
000290 75 49 69 be 5f 3b 84 3e 01 48 8a 3e fb 6a fa bd
       -0.22781928 0.25826547 0.2700806 -0.12227436
0002a0 c2 13 e2 3d 20 52 39 3d ab 3f 7b bd 87 0b 0f bd
       0.11038925 0.045244336 -0.061340015 -0.034923103
0002b0 ba 46 33 bc 24 ff ed 3c 62 15 c1 bd 9a 54 49 3e
       -0.0109421555 0.029052325 -0.094279066 0.19661179
0002c0 99 31 28 3d 98 34 8b bd fd 57 45 bd 9d 5d 9c bc
       0.041062925 -0.06797141 -0.048179615 -0.019087607
0002d0 94 9c cf 3e 93 fb 2f bf fb 98 43 bd e3 13 57 3d
       0.40549147 -0.68743247 -0.047753315 0.0525092
0002e0 d4 f9 0a be 6a 6f 8c 3e 53 65 88 be 15 f9 0f 3e
       -0.13571864 0.27428752 -0.26639804 0.14059861
0002f0 4a 2f ab 3e d2 ca 00 3f 2e 0d 6d 3e 72 69 d5 3e
       0.33434516 0.5030948 0.23149559 0.4168201
000300 7a bb 42 3f 5c 17 23 3f 00 80 78 3f 1b 34 0c be
       0.76067317 0.6370752 0.9707031 -0.13691752
000310 9c 2a 4d bf 94 27 1a 3f e5 72 c5 be 2f 3f ef bd
       -0.8014314 0.6021664 -0.3856422 -0.11681973
000320 14 f5 e4 bd 97 76 45 be 13 4e 01 3d e5 bd 87 3e
       -0.111795574 -0.1928352 0.031568598 0.26512066
000330 26 37 d0 3f 2e 39 47 3f 3b 08 ab 3f 13 e4 09 bd
       1.626683 0.77821624 1.3361887 -0.033664774
000340 57 d0 c6 be c8 57 87 3e 9b ea 56 bd f9 eb a6 3c
       -0.38830826 0.2643416 -0.05246983 0.020376192
000350 04 0e ab 3d 91 b4 d0 3a a4 be 1e bd 5d de 54 bd
       0.08352283 0.0015922954 -0.038756028 -0.051969875
000360 7c 87 8b bd 75 64 93 3d 84 53 32 3e ac 7e 7c 3d
       -0.06812951 0.07196895 0.17414671 0.06164424
000370 d8 9b 70 3c 10 3b 40 3c b1 66 14 bd 06 cd a9 bd
       0.014685594 0.011732832 -0.036230747 -0.08291058
000380 3e 97 3c bc e3 83 39 3f 2c 58 3a 3e 6f b6 08 3e
       -0.011510668 0.7246687 0.18197697 0.13350843
000390 7c 4e f8 3d 7d cb 9a bf fb 19 10 be 75 d0 0b bd
       0.12124345 -1.209335 -0.14072411 -0.034134347
0003a0 a7 7c 76 bd 0e f1 ad bc 80 c5 16 3e 7b 5c a7 bd
       -0.06017747 -0.021233108 0.14723778 -0.08171936
0003b0 3d f7 85 be 81 b7 74 3e 88 d5 83 be 2a 28 2a 3c
       -0.2616519 0.23898126 -0.2574885 0.010385552
0003c0 cb 5e 16 3f 89 62 71 3e 05 82 18 be f3 22 3d 3f
       0.5873839 0.23572744 -0.14893349 0.73881453
0003d0 70 6e a2 3e 2b 34 03 be 34 ed 40 bc 1d cd f4 3d
       0.31724882 -0.12812869 -0.011775304 0.11953185
0003e0 37 13 5d 3e 9f 54 f0 3e d7 98 6e be d5 b0 7f 3e
       0.21589361 0.4693956 -0.23300491 0.249698
0003f0 60 5f 6e be e9 dd 42 bd 02 53 51 3e 4b c1 0e 3f
       -0.2327857 -0.04757491 0.20441821 0.5576369

bias f4 [512]
000000 44 da 51 bf ac 65 10 bf 8a fa c1 be 80 e1 5f 3d
       -0.8197367 -0.5640514 -0.3788646 0.054658413
000010 2c 04 a0 be 96 a0 ff 3d e5 fc de bd 71 d1 be 3d
       -0.31253183 0.12481801 -0.108880796 0.093172915
000020 ca 17 8d be 8b ed 9e 3d 25 fc 15 3f 30 a9 62 be
       -0.27557212 0.077601515 0.5858787 -0.22134852
000030 d8 7f a4 be b1 ed 77 3d bb 73 ae 3e 83 81 65 be
       -0.32128787 0.060529415 0.3407267 -0.22412686
000040 6c c4 a2 be f7 3f 8b bc 13 18 c0 bd f9 e3 27 bf
       -0.31790483 -0.016998274 -0.09379592 -0.65582234
000050 84 93 09 bd 3a cc dc bd 4b 61 76 be 2a 74 8e bf
       -0.033587947 -0.107811406 -0.24060552 -1.11292
000060 61 fb e5 3e 4f 21 bf 3e bc 70 cd bd 47 8d e1 be
       0.4491835 0.373301 -0.10031268 -0.440531
000070 97 3b fb be ba e2 0d bf 6f c2 c4 be 6d 0c 25 bf
       -0.490689 -0.5542408 -0.3842959 -0.64472085
000080 ef 06 ca 3c 2f 83 97 be f2 51 c3 be cc c3 e5 be
       0.02466151 -0.29592273 -0.38148457 -0.44875944
000090 03 50 eb bd 65 de 85 bd a8 4d 8f be a9 90 df bf
       -0.114898704 -0.06536559 -0.27988935 -1.7466022
0000a0 f2 c0 d2 be 1a fe f1 3d 4b 75 f7 bd e3 ce b3 3e
       -0.4116283 0.11816044 -0.12082919 0.3511878
0000b0 fe 66 57 3d ae 0e 93 be 18 1d 70 be 90 7e 12 bf
       0.052588455 -0.28722137 -0.23448598 -0.5722437
0000c0 9c 20 5b 3d 42 a3 06 be fe f1 c0 3d e3 74 05 bf
       0.053497896 -0.13148215 0.09421156 -0.5213148
0000d0 26 e5 a5 bd bc 71 21 be 99 0c de bd c1 d6 0b be
       -0.08100347 -0.15766042 -0.108422466 -0.13656141
0000e0 02 f0 44 be b7 29 18 3e 69 4f 7b be 68 fa 04 bf
       -0.1923218 0.14859663 -0.24542011 -0.5194459
0000f0 ed a6 21 bf e7 4e d8 be 23 14 9b be 33 98 21 be
       -0.63145334 -0.42247698 -0.302888 -0.15780716
000100 bf 6c 3c 3e ee 6c 0c be c2 df 20 bf 16 6e 95 3d
       0.18400858 -0.13713428 -0.6284143 0.07296388
000110 bf dd d2 3d e2 65 b0 be 12 21 cc be b7 f3 d7 bd
       0.10296201 -0.3445273 -0.3986898 -0.10544532
000120 66 a4 8d be 2f ae 09 bf db 1d c4 be 85 e0 2b bf
       -0.2766449 -0.5378141 -0.38304028 -0.67139465
000130 67 37 cf 3e 3b bb 12 bf 51 08 b6 be 9c fb c7 3e
       0.40471956 -0.5731694 -0.3555322 0.3905915
000140 20 c7 6b be e2 59 26 3e e4 5d a6 be c9 c1 82 be
       -0.23025179 0.16245225 -0.32493508 -0.2553847
000150 2d 85 29 be 7e 72 cb be 43 e1 3e bf 22 b9 a0 bd
       -0.16554709 -0.39735788 -0.7456247 -0.07847811
000160 74 8b e7 be da ad 96 3d 41 49 77 3e 89 56 1f bf
       -0.45223582 0.07357378 0.24149038 -0.6224142
000170 31 1b 3a bf d5 98 3e bf bf 84 24 be ec 03 40 3e
       -0.7269774 -0.74451953 -0.16066264 0.18751496
000180 9e e9 69 be b0 67 63 be 92 54 83 3e f7 0f 6a be
       -0.22843024 -0.22207522 0.2565046 -0.22857653
000190 98 2c 11 bd 60 57 e8 be a7 19 d3 be 67 17 29 be
       -0.03544292 -0.45379162 -0.4123051 -0.16512834
0001a0 09 78 13 bf 08 4b 33 bf fa a1 2e bf 1c c6 1b 3d
       -0.57605034 -0.70036364 -0.68215907 0.03803073
0001b0 23 8a ab be 70 76 f0 be 26 d4 22 be 5d ae 47 be
       -0.33503827 -0.4696536 -0.1590124 -0.19500108
0001c0 d0 38 8f 3e 12 b8 6d 3d e7 cb c0 bc e9 40 1f 3e
       0.27973032 0.05803687 -0.023534728 0.15552105
0001d0 41 c9 98 bc 72 b6 b0 3e 94 55 d1 be 4d 3b ae be
       -0.018650653 0.34514195 -0.40885603 -0.34029618
0001e0 a2 b5 79 3d 33 97 61 3e 99 c8 d8 be 21 f1 1c 3e
       0.060964234 0.22030334 -0.42340544 0.15326358
0001f0 35 08 73 3e 7e 42 38 bf da 89 4f 3e b7 fd 07 bf
       0.237336 -0.7197646 0.2026743 -0.53121513
000200 00 2d 21 3e 1c da 81 3d 9d d3 38 bf fe ed f0 3d
       0.15739822 0.06340429 -0.72197896 0.117641434
000210 10 89 e2 be f3 62 3c be 30 e3 77 be 8b dc 8c 3d
       -0.44245195 -0.18397121 -0.24207759 0.06878003
000220 a2 16 db bd 92 c0 3c bd e7 62 f0 3e d9 93 3c be
       -0.10697676 -0.046082087 0.46950457 -0.18415774
000230 99 f4 bb be b8 2a 9c 3e da af cd bd 08 79 0a 3f
       -0.3671005 0.30501342 -0.10043307 0.5409093
000240 60 bb 0e bf e5 e7 e4 3d 3e 70 80 3d cc dc 33 3e
       -0.5575466 0.11177043 0.062714085 0.17564696
000250 84 e1 d1 3d 05 11 3c 3e 6f 3a 9b bd c1 6a 2c bf
       0.10248092 0.18365867 -0.07579505 -0.67350394
000260 02 45 00 bf d0 f8 d7 bb 07 3e b8 be f8 90 e5 be
       -0.501053 -0.00659094 -0.35984823 -0.44837165
000270 f5 4b 71 bf e6 f2 a5 b9 13 88 99 be 24 46 4a bf
       -0.94256526 -0.00031652226 -0.2998663 -0.79013276
000280 8a 96 d6 be d1 ae 56 bc 8a ca 62 be 92 77 d8 3d
       -0.41911727 -0.013103203 -0.22147575 0.10569681
000290 3f 94 ed 3e e7 07 1a be 8c 82 0a bf 87 4e f1 bc
       0.46402165 -0.15042077 -0.5410545 -0.02945639
0002a0 2a 52 61 be e8 e7 43 3d 19 1e a7 3d aa 8e a0 be
       -0.22004 0.047828585 0.081600375 -0.31358844
0002b0 65 b6 ac 3d ac 9b 8d bc ce 3c 7a 3e 8f 19 86 be
       0.084332265 -0.017286144 0.24437258 -0.26191375
0002c0 aa 88 a3 bd 86 46 12 be 91 8f 8e bd 7d c9 6d be
       -0.07985051 -0.14284715 -0.06960977 -0.23221393
0002d0 8a 42 42 bf 62 33 0d bf eb ff 02 bd c9 71 82 3d
       -0.7588278 -0.5515653 -0.031982344 0.06369359
0002e0 58 4b 9c 3d 18 75 03 3d 20 b0 00 bd 8a c3 d8 bd
       0.07631558 0.03209409 -0.031417966 -0.10584171
0002f0 65 e6 91 bd 66 a2 06 bc 31 d5 8c be 0f 3d 9e 3e
       -0.071240224 -0.00821743 -0.27506402 0.3090596
000300 09 ee eb be 47 2d ec bc c7 fe 08 3e b4 4b 3b 3e
       -0.46080044 -0.028830184 0.1337844 0.18290597
000310 f2 b4 cb be 78 05 3b bf 0f 2d df 3c aa ed 5d be
       -0.39786488 -0.7305522 0.027243165 -0.21672693
000320 0e 0d 03 be eb 51 f5 be 96 8c 2c be e4 ab 0e be
       -0.12797949 -0.4791406 -0.16850504 -0.13932759
000330 ec 31 01 bf 7e 4f d0 be db bd ba 3d 34 3a 63 3e
       -0.504668 -0.40685648 0.09118243 0.22190171
000340 2c 24 93 be f3 84 86 be 62 7d e3 be 16 0b b0 bd
       -0.28738534 -0.26273307 -0.44431597 -0.085958645
000350 f5 00 1f bf 2b 53 71 bf ac 87 29 bf 54 4a 21 3e
       -0.62110835 -0.9426753 -0.66222644 0.1575101
000360 ee df b1 bd 85 fc 13 bf 97 e8 df 3d ef 77 7c 3e
       -0.08685289 -0.5780719 0.10933035 0.24655126
000370 1d a6 09 bf 3b 8c f7 bc 11 f0 10 bf 31 a6 56 be
       -0.53769094 -0.030218234 -0.5661631 -0.20961834
000380 a0 1d 38 bf ac 1b 0e be 9a 7c 26 3c f8 d6 b3 3d
       -0.71920204 -0.13877743 0.010161543 0.087812364
000390 0b d8 2e be 8d aa 9f be ac 74 8c be ed ed e6 be
       -0.17074601 -0.31184807 -0.27432764 -0.45103398
0003a0 8a 22 85 be f5 c4 db bd dc 70 a5 be 9f 6e c1 be
       -0.26002914 -0.10730926 -0.32312667 -0.3777971
0003b0 a6 a5 86 3d b1 4d 23 bd 89 73 bd ba e2 e9 26 bf
       0.06574564 -0.039869014 -0.0014453988 -0.65200627
0003c0 f6 b3 99 3e 8e cf ae be 2e 79 0a bf 1b 6d bb be
       0.30020112 -0.34142727 -0.54091156 -0.36606678
0003d0 f3 ad 5d be f7 7c fa 3d f2 dd 8b be 57 e8 d6 be
       -0.21648388 0.122308664 -0.27317768 -0.41974136
0003e0 b3 a1 e5 bd 6b 83 03 3f b6 95 a1 3e 2a d7 11 bf
       -0.11212482 0.513724 0.31559533 -0.5696894
0003f0 ba 57 ee 3d cd d4 57 be 24 e5 81 be 4e 05 0b be
       0.11637826 -0.21077271 -0.25370133 -0.13576242

weight f4 [256, 512]
000000 67 ef d6 bb 14 ad 27 be 45 4d 7c 3e 52 5c 76 bd
       -0.0065593007 -0.16374618 0.24638851 -0.060146637
000010 35 e8 27 3e 7b b0 3a bc a1 68 b2 be 4b 38 ad 3e
       0.16397174 -0.011394615 -0.3484545 0.3383201
000020 04 29 df 3b d3 35 0a bf 61 ef 82 be 0b 69 a8 3e
       0.0068103094 -0.5398838 -0.25573257 0.3289264
000030 b3 b5 bd 3d 5b 19 8e bd 75 7e 8b be 22 90 e4 3d
       0.09263172 -0.0693843 -0.27244917 0.11160304
000040 de e3 08 be a4 e0 6d be f6 6d 90 3d ba e3 43 3c
       -0.13368174 -0.23230225 0.070522234 0.01195615
000050 26 11 78 bd 84 41 37 3e 28 3d 6f 3d 32 02 9f 3c
       -0.06056323 0.17896086 0.058407933 0.019410226
000060 1a fc 4e be 28 ff 48 3a 6a 80 a2 be 44 d4 e9 3d
       -0.20213357 0.0007667416 -0.31738597 0.114174396
000070 9c 43 7c bd e4 7e 83 be 9e 88 9e 3d 3d dd 42 3e
       -0.061587915 -0.25682747 0.077409014 0.19029708
000080 40 46 b8 be af 12 98 bd f7 be dc 3d 60 69 c1 bc
       -0.35991096 -0.074254386 0.10778611 -0.023609817
000090 ea dd a9 3d af 1d 09 3e 72 2d f7 be f6 75 64 3d
       0.0829428 0.1339023 -0.4827686 0.05577656
0000a0 a0 13 d2 3d da 4f 69 bd 0f f6 8e bd f4 62 a1 bc
       0.102576494 -0.056960918 -0.06980526 -0.019700505
0000b0 e2 7a 85 bd 61 ce 82 be 05 55 86 be e2 77 d3 bc
       -0.06517579 -0.2554808 -0.2623674 -0.025814
0000c0 75 be 88 bc 01 ad 1a be b8 ea 10 bd 20 78 4d 3e
       -0.01669238 -0.15105058 -0.035380095 0.20065355
0000d0 50 25 99 39 74 cf fe bd 17 be 8c bd 53 94 e7 bd
       0.00029210234 -0.12441912 -0.06872194 -0.113075875
0000e0 83 51 ba 3d e4 bb d7 bd b9 1d 29 be 27 56 01 be
       0.090975784 -0.10533884 -0.16515245 -0.12630521
0000f0 09 ad 8c 3d 77 79 11 3e 09 17 2f be 1a 5b ec 3c
       0.06868941 0.14206491 -0.17098631 0.028852034
000100 9a 5f ac be d9 9e 85 bd 52 16 87 3e 3c 0e 9a ba
       -0.33666688 -0.065244384 0.26384217 -0.001175351
000110 47 da b3 be ca 90 58 3d a9 c4 c2 bd a1 23 a7 bd
       -0.3512747 0.052872457 -0.09510166 -0.081610925
000120 29 ec 1d be 4c 6e 92 3d 62 9a a2 be 6e 6d 8c 3c
       -0.15422119 0.07149944 -0.3175841 0.017142024
000130 5d c7 13 be 4c 71 e4 bd dd e9 4b 3e 41 b4 8f 3c
       -0.1443152 -0.11154422 0.1991343 0.017542006
000140 82 c3 87 3d 78 5e 97 bd 3e d5 6d be 49 e2 95 be
       0.06629087 -0.07391065 -0.23225877 -0.29274204
000150 4a 75 81 3d b8 9e 05 be cd c9 1a 3e 8e c4 4c 3e
       0.06321199 -0.13048828 0.15116043 0.19996855
000160 42 bb 87 3d a2 1e 04 bf a8 91 1f be c7 b4 1f 3e
       0.066275135 -0.5160924 -0.15582907 0.15596305
000170 78 08 42 3e 72 69 3d 3e df 7a 04 3c 73 83 2d be
       0.18948543 0.18497255 0.008085935 -0.16944675
000180 c8 5f 8d be c8 70 c0 3d a0 69 98 be 54 64 f0 3d
       -0.27612138 0.09396511 -0.29768085 0.11737886
000190 13 25 2d be 9f 83 e9 3e 50 63 a8 3d f4 1e b0 be
       -0.16908674 0.4560823 0.08222067 -0.34398615
0001a0 d3 47 6f bd 8b 42 73 3e 2a 59 d7 bd 6b cc a1 be
       -0.058418106 0.23755853 -0.105150536 -0.3160127
0001b0 80 b8 ad be 03 20 ca 3d 8a 9f d9 3c 7e bc 8b 3d
       -0.33929825 0.09869387 0.026565332 0.068230614
0001c0 6b 12 9e bd f7 be 46 be 75 75 b0 3d f9 46 aa bd
       -0.07718357 -0.19408785 0.08616153 -0.08314318
0001d0 23 ab 39 3c 78 38 52 be fe 4c 0c be ae 3c 82 3e
       0.011332306 -0.20529354 -0.13701245 0.2543692
0001e0 bc ac 98 3d f7 0c ea bd 6a 17 1f 3e ed 15 fd 3d
       0.074548215 -0.11428254 0.15536276 0.12357698
0001f0 5a 8a 9a 3c 93 43 e3 3d b7 f3 11 be a6 37 c7 bd
       0.0188648 0.11096873 -0.14253126 -0.09727411
000200 26 4e 7b bd c8 27 b6 be 00 c0 be 3e 1d 83 a0 3d
       -0.061353825 -0.35577226 0.3725586 0.07837508
000210 49 41 a3 3d b5 88 2a 3e 62 83 37 3e 7b 65 c6 bd
       0.079714365 0.16653712 0.17921212 -0.096873246
000220 e1 d6 70 3c 15 89 14 bb 5e 17 c5 bd 90 b9 6e be
       0.014699669 -0.0022664715 -0.096235976 -0.23312974
000230 4c c9 ff bd de fd 69 3e c2 bc 81 3e 76 17 e1 bd
       -0.12489566 0.22850749 0.25339323 -0.10990803
000240 89 36 43 3e bf 6f c9 3c 8a 9c 6e be 63 d4 8d be
       0.19063772 0.024589418 -0.23301902 -0.277011
000250 7a f3 8c bd 1a 95 85 be 84 5d ab 3d f5 be 09 3f
       -0.06882377 -0.26090318 0.08367446 0.53807
000260 2e 16 8b 3d da b1 2c be 2c 13 0e 3d ac 82 7b 3e
       0.0679134 -0.1686472 0.034686252 0.24561566
000270 41 39 88 3d f9 4e 14 bd d6 5d 2e 3e bd 1e 3b 3e
       0.06651545 -0.036208127 0.17027983 0.18273444
000280 2e 5e aa 3d b6 7e 52 be 81 6d 87 3d 27 99 c1 3e
       0.083187446 -0.20556149 0.06612683 0.37812158
000290 00 34 de 3d ca 7a 71 be 80 d7 2c bc e2 59 8d 3c
       0.10849762 -0.23581997 -0.010549426 0.017254774
0002a0 0b 5d 14 be 5c 52 32 bd a2 dc a9 bd c6 6d 6a 3e
       -0.14488618 -0.043535575 -0.082940355 0.22893438
0002b0 32 5e 35 be f0 df d1 be 71 4d b5 be db 72 73 3d
       -0.17711714 -0.40991163 -0.35410646 0.059435707
0002c0 c3 fa 97 bd 44 b1 46 3e d7 39 c2 be 85 a7 76 3d
       -0.07420876 0.19403559 -0.37934753 0.060218353
0002d0 16 a2 af 3e 6d 87 bb be 6b 97 0b 3e d9 13 ba be
       0.3430335 -0.3662676 0.1363198 -0.36343268
0002e0 02 44 9f be 22 6a 0f 3d b9 21 2d 3e cd c8 b7 3d
       -0.31106573 0.035013326 0.16907395 0.089738466
0002f0 1f a0 87 3c 99 98 03 bd e0 d0 9a be 85 38 28 be
       0.016555844 -0.03212795 -0.30237484 -0.1642781
000300 a4 27 6d 3d 4f cf ed bd dc 13 aa bd e4 4c eb bc
       0.057899132 -0.116118066 -0.08304569 -0.028723188
000310 d6 1d 19 bd 04 d7 88 3d 9b a9 d8 3c ad 97 e4 bd
       -0.03738197 0.06681636 0.026448062 -0.11161742
000320 3f 40 07 3e f6 7c 6a bc 57 1b 36 ba 25 32 13 3d
       0.13208102 -0.01431202 -0.0006946823 0.035936493
000330 6a ce 09 be 3e 08 c8 3b ba f4 95 be 12 f6 f7 bd
       -0.13457647 0.006104498 -0.29288274 -0.12107481
000340 58 cd ae 3d e1 66 43 be 23 1a d3 bd b3 4d 2e be
       0.0853526 -0.19082214 -0.103077196 -0.17021827
000350 43 c9 a7 bc 24 17 28 3e cd 09 13 3e ae a2 e0 bd
       -0.020481711 0.16415077 0.14359207 -0.10968529
000360 2c 9e 3d 3e 96 60 fa 3d 40 f6 0b bf c8 c0 9e bd
       0.18517369 0.122254536 -0.5467262 -0.07751614
000370 16 d0 f6 bd ae bc 5e be c1 9f 35 3e 54 82 50 be
       -0.12051408 -0.21751663 0.17736723 -0.20362216
000380 dc 02 8d 3b 2d bc c5 bc 3f 51 20 bd 42 41 98 3d
       0.0043033194 -0.02413758 -0.039139982 0.07434322
000390 c4 d6 27 bd f1 89 78 be 98 d1 96 3d 5f 83 94 3d
       -0.0409763 -0.2427137 0.073641956 0.072516195
0003a0 43 1e 1f bd 41 0d a4 3d e7 d7 15 bd 7c d1 22 3e
       -0.03884722 0.080103405 -0.036582854 0.15900224
0003b0 91 e1 97 bd 8f 39 09 3e e9 67 e9 3b bc 6e 6e 3d
       -0.0741607 0.13400863 0.0071229828 0.058211073
0003c0 b6 25 68 be a7 f9 f5 3d 61 e0 3c 3e 89 63 92 be
       -0.22670636 0.12010508 0.18444969 -0.28591564
0003d0 d2 26 58 3e 55 c4 97 3d 0f 3c 2e 3e 44 70 4e be
       0.21108559 0.07410494 0.17015098 -0.20160013
0003e0 d5 8b 3b 3e d2 e8 92 bd 25 f2 ad 3d 18 12 85 be
       0.1831506 -0.07173313 0.08493451 -0.25990367
0003f0 9c 22 6a 3d c3 a0 29 be 8e 15 8c 3d f3 a1 74 bd
       0.057161912 -0.16565232 0.06840049 -0.05972476

bias f4 [256]
000000 e3 b6 2c be 7e 71 26 be a3 00 05 bf f8 7e f1 be
       -0.16866641 -0.16254231 -0.51954097 -0.47167182
000010 5c 35 bd be f1 d7 9b be cd f2 09 be 7a 62 57 be
       -0.36954772 -0.30438188 -0.13471527 -0.2103366
000020 72 fc 8a be 00 93 d5 be 2a e5 9b be 8c 70 a2 be
       -0.27145725 -0.41713715 -0.30448276 -0.3172649
000030 4d 24 ba be 03 bf 00 bf ce 2f 39 be 81 ac 05 bf
       -0.3635582 -0.5029146 -0.18084642 -0.52216345
000040 1f fb 4d be dd 72 69 bd b5 1d 07 be d1 54 30 3e
       -0.20115326 -0.056994308 -0.13194926 0.17219855
000050 46 74 61 bf 1e 36 1a bf a7 b9 24 be 77 04 7c bf
       -0.88068044 -0.60238826 -0.16086446 -0.9844431
000060 81 99 4a 3c e7 c5 ae be b2 3e ab be b2 3d 78 be
       0.0123657 -0.34135363 -0.3344627 -0.24242285
000070 fc 01 71 3b cb 53 fb bc 6d 2a a7 be dd 66 79 be
       0.0036774864 -0.030679604 -0.32649556 -0.24355645
000080 61 1f ac be e9 72 cb bc a7 c6 7c be 81 4c 41 be
       -0.3361769 -0.024835067 -0.24685155 -0.1887684
000090 f9 17 4a bd c3 2d ab be 00 b5 c0 bd e9 1f 99 be
       -0.04933927 -0.3343335 -0.09409523 -0.29907158
0000a0 7c 93 a3 bb 59 f4 51 be 06 c6 c8 be a8 f3 a7 be
       -0.0049919467 -0.20503367 -0.3921358 -0.32803082
0000b0 7d 6d b4 be 92 fc 17 bf 0a df d9 be 39 2d 3d be
       -0.35239783 -0.59369767 -0.42552978 -0.18474282
0000c0 69 0f f7 bd 6a ec 95 be e0 45 8e be 8b 31 be be
       -0.12063486 -0.29281932 -0.27787685 -0.37147173
0000d0 8b 79 c1 be cd e3 67 bf 60 c2 1f be 89 aa 0b bd
       -0.37788042 -0.9058197 -0.15601492 -0.034098182
0000e0 27 2e fb be 9c 32 95 be e5 1b 6b be fe e0 34 bf
       -0.4905865 -0.29140174 -0.2295986 -0.7065581
0000f0 f0 88 04 be df 01 25 be 43 a9 c8 be 8a 07 96 be
       -0.12942863 -0.16113995 -0.39191636 -0.29302627
000100 ee 60 6a be ff b9 4a be f9 6f 2f be 5f 3b 1c be
       -0.22888538 -0.19797514 -0.17132558 -0.15257023
000110 5c 80 a4 be 07 d0 c6 be de 56 f5 bd 72 64 13 bf
       -0.3212918 -0.38830587 -0.11979459 -0.5757514
000120 71 82 59 be 76 48 1b be 20 2e c5 be f3 76 7c be
       -0.21241166 -0.1516436 -0.38511753 -0.2465475
000130 94 0e 68 be f5 d7 02 be e6 46 50 be cd 70 0c be
       -0.22661811 -0.12777694 -0.20339546 -0.13714905
000140 55 72 86 be 9e c0 a0 be 79 25 70 be 56 e6 bf be
       -0.26259103 -0.31396955 -0.23451795 -0.3748042
000150 b2 34 ff be c9 8b d6 bd 3c fb eb be d0 d1 ba be
       -0.4984489 -0.10475881 -0.46090114 -0.364882
000160 bb 85 49 be bb 29 ad be 52 d9 69 be f8 f8 ea 3d
       -0.1967992 -0.338209 -0.22836807 0.11473268
000170 ac a1 93 be 50 39 fa be 01 40 eb be 17 b6 92 bd
       -0.28834283 -0.4887185 -0.4594727 -0.07163637
000180 96 12 43 be 49 2a 35 be f7 d5 83 be 88 46 67 be
       -0.19050059 -0.17691912 -0.2574918 -0.225855
000190 3a a9 9d be 36 22 93 be 05 db 05 bf ac ff a9 be
       -0.30793172 -0.28737038 -0.5228732 -0.33202875
0001a0 1c 7a d1 be c1 5b 13 bf 48 f1 14 be 9f 0e d0 be
       -0.40913475 -0.5756188 -0.14545166 -0.40636155
0001b0 b3 1a 18 be f6 61 50 bd cf 8a e0 be 2c ca 2b bf
       -0.14853935 -0.050874673 -0.43855903 -0.67105365
0001c0 33 b6 ce bd ba 54 51 be 3d 7a 04 3e 40 fb 59 be
       -0.100933455 -0.20442477 0.12937255 -0.2128725
0001d0 3c 96 76 bd 0c bc 31 be 37 df 2b be aa 60 c8 be
       -0.06020187 -0.1735689 -0.16784368 -0.3913625
0001e0 e1 a5 01 3c 3a f6 93 be 2a 06 f9 be d3 a7 15 bf
       0.007913084 -0.28898793 -0.48637515 -0.58459204
0001f0 12 dd e0 bd e3 2e f2 be ae 7f 2f be ba 3c 8b 3d
       -0.10979666 -0.47301397 -0.1713855 0.06798692
000200 f0 f1 e5 bd d4 27 19 be ee d1 a0 be 48 33 06 bf
       -0.112277865 -0.149566 -0.31410164 -0.52422
000210 72 5a a6 be ce 14 4a bc c8 bf 81 bf 4d b4 d1 be
       -0.3249088 -0.012334062 -1.0136652 -0.4095787
000220 34 85 db be 61 c0 41 3e 94 63 df bd 35 f2 8e be
       -0.42875063 0.18921043 -0.10907665 -0.27919164
000230 d4 d2 d9 bd 92 85 55 bd e2 84 a1 be 49 56 ea be
       -0.106359154 -0.052129336 -0.31546694 -0.45768955
000240 30 7c 87 bf 62 06 60 3e 15 ba 74 be 51 24 42 be
       -1.0584774 0.21877435 -0.2389911 -0.18959166
000250 3d a2 8e be fd f0 05 bf 41 f9 3a bd 66 17 33 bf
       -0.27858153 -0.52320844 -0.045647863 -0.6995758
000260 97 72 0e bf 97 c2 74 bf 10 37 87 be 8f fe 84 be
       -0.556436 -0.9560942 -0.26409197 -0.25975463
000270 ca 73 cf be a2 ff 01 bf 21 d1 fe be 5f 66 f5 be
       -0.40518028 -0.5078069 -0.49768928 -0.47929665
000280 ef 66 f1 be 9d 22 d0 be 41 39 2e be 4f e8 d6 bd
       -0.47148845 -0.40651408 -0.17014028 -0.10493528
000290 3f 09 18 bf b9 aa da be 43 18 a7 be d6 7c b6 be
       -0.5938911 -0.42708376 -0.32635698 -0.35642117
0002a0 d4 2f 52 be 36 1e 1e bf 7e ad 4e be ef 7d 9f be
       -0.20526057 -0.6176485 -0.2018337 -0.31150767
0002b0 13 cc 03 bf b6 17 4a be b3 ae 24 be ab 8b 9a be
       -0.5148327 -0.19735608 -0.16082267 -0.30184683
0002c0 81 16 a5 be d3 a0 b9 be c4 ac 06 bf 13 12 b4 be
       -0.32243732 -0.36255512 -0.5260737 -0.3517004
0002d0 95 c4 9e be 67 23 3a be 7f a6 e6 be 5b 40 bc be
       -0.31009355 -0.18177567 -0.450489 -0.3676785
0002e0 98 48 a0 be 5e a0 19 bf b8 7c 3e bd a4 b5 b8 be
       -0.31305385 -0.60010326 -0.04650566 -0.3607608
0002f0 19 50 35 bc f3 6f b2 be 30 3c 2c bb 41 ba 26 bf
       -0.01106646 -0.34851035 -0.0026280992 -0.6512795
000300 d7 79 97 be a6 e8 eb bd e5 f3 a8 bd b4 e9 ec be
       -0.29585144 -0.115189835 -0.08249644 -0.4627205
000310 d4 fa 8c bd d9 48 af 3d 86 06 55 be 85 3a 15 bf
       -0.06883779 0.085588165 -0.2080327 -0.5829242
000320 44 40 59 be 70 b3 57 be b0 4e d9 be d1 d7 86 be
       -0.21215922 -0.21064544 -0.42442846 -0.2633653
000330 38 8a 48 bf a0 ee 17 be a0 0a a4 be c8 7a 5f 3d
       -0.78335905 -0.14837122 -0.32039356 0.054560453
000340 ab b3 3d bf 6e 30 69 be 67 a1 43 bf 56 14 a2 be
       -0.74102277 -0.2277238 -0.76418155 -0.3165614
000350 ff 31 10 be 27 14 1b bf cb 84 25 be 95 bb b4 be
       -0.14081572 -0.60577625 -0.16163938 -0.35299364
000360 0f 02 b5 be cb 9a bb be 07 96 29 be 23 18 90 be
       -0.35353133 -0.36641535 -0.16561137 -0.28143415
000370 30 84 ce be 60 ef d7 be 22 30 89 be d4 f2 1a be
       -0.40335226 -0.42174816 -0.26794535 -0.15131694
000380 88 c0 29 3e 21 a7 31 be f8 0e b0 be b3 10 23 be
       0.16577351 -0.17348911 -0.3438642 -0.15924339
000390 d7 7a 23 be 00 e2 05 bf a0 ab 29 be 5e a3 25 be
       -0.15964828 -0.52297974 -0.16569376 -0.16175601
0003a0 44 45 8b be c6 04 d6 3c ea e7 87 bf 02 13 10 be
       -0.27201283 0.026125323 -1.061765 -0.14069751
0003b0 a4 35 5f 3d ae 3b d2 bd e7 d9 b4 be 45 fa e6 be
       0.054494515 -0.10265289 -0.35322496 -0.45112815
0003c0 b1 ba ad be 2b 13 78 bf 62 ef a1 be 92 63 c4 be
       -0.33931497 -0.9690425 -0.31627947 -0.38357216
0003d0 61 8a ca 3d 95 be d8 be 31 83 36 3e 3d b6 bc bd
       0.09889675 -0.42332903 0.17823483 -0.09214447
0003e0 5b 21 ab be 24 ca a8 be c1 bd 77 3d 80 1b fa bd
       -0.33423886 -0.3296672 0.060483698 -0.122122765
0003f0 d4 8a 96 be 14 ca 8e be 12 88 3b bf 39 e2 df bd
       -0.29402792 -0.27888548 -0.732545 -0.109318204

weight f4 [128, 256]
000000 a0 38 94 3d ac ad c1 be 2a b3 36 3e 9f 57 0c be
       0.07237363 -0.37827814 0.17841783 -0.137053
000010 be bb 82 3e 98 49 42 bd 6c 8c 17 be 00 f4 00 be
       0.2553386 -0.047433466 -0.1479966 -0.12593079
000020 8e 81 16 3e f3 9e b3 3d 37 e7 13 3e 25 73 49 bc
       0.14697859 0.087705515 0.1444367 -0.012295519
000030 65 68 4e be f0 cf ca 3d 74 23 28 bf e2 87 6f be
       -0.20157011 0.09902942 -0.656791 -0.23391679
000040 58 fa 58 be 3b 0a 9e be 9b ec a8 bc c4 cb ce 3c
       -0.21189249 -0.3086718 -0.020620635 0.025243647
000050 f3 70 11 3e 68 24 21 be 6e 1e 2a bd 8b 9b 2f 3e
       0.14203243 -0.15736544 -0.041532926 0.17149179
000060 f3 05 3b be 9c 8b ff bd 0c 54 bf 3c bf da c2 3d
       -0.18263988 -0.124778 0.023355506 0.09514379
000070 fd 0a b4 bd e5 cb 3b 3e a2 bc c6 3e 67 b4 42 3e
       -0.08791158 0.18339498 0.3881579 0.1901413
000080 28 6e 66 3d 93 4e 2b 3d c0 1a 28 3e 8d a0 d3 bd
       0.056257397 0.04182298 0.16416454 -0.10333357
000090 6f 31 91 3e 55 de 50 be 31 79 07 3e 56 c1 90 bc
       0.28358027 -0.20397313 0.13229825 -0.017670315
0000a0 00 34 b2 be 7f c5 9b be 52 24 11 be 70 bd 14 be
       -0.34805298 -0.30424115 -0.14174011 -0.1452539
0000b0 ee 8b 83 be 6a f0 28 be 0f 0d a8 bc 1d 06 5f be
       -0.25692695 -0.1649796 -0.02051404 -0.21779676
0000c0 7c 7a 17 3e 16 3d cf bc 9a 86 e5 bd 9f 26 39 be
       0.14792818 -0.025297683 -0.11207314 -0.18081139
0000d0 cb 14 96 bd a1 b7 0b 3e 47 4f c9 3c 4c c8 72 3d
       -0.07328185 0.13644268 0.024573935 0.05927305
0000e0 54 2b b5 3e 45 6d 67 be ee fe 0e bf 20 d6 11 bd
       0.3538462 -0.22600277 -0.5585774 -0.035604596
0000f0 9e 6b a9 3d 4e 5d c8 bd 5b ce 2e 3d 2f b0 b4 bd
       0.082724795 -0.097834215 0.042677265 -0.08822667
000100 e6 48 1f be 6f 53 8e 3d 5c b3 c8 3d 10 63 17 3e
       -0.15555152 0.069495074 0.09799835 0.14783883
000110 77 49 42 3d 29 fe 10 be 6e 83 c4 bd af 8b 8e 3c
       0.047433343 -0.14159454 -0.09595381 0.01740059
000120 70 fb 26 bf 2a c0 89 be 4e b6 45 be 0a c8 86 be
       -0.65227413 -0.26904422 -0.19307825 -0.26324493
000130 6b 3e c2 3d 94 5f b6 3e ed dd cd be 64 1a 98 be
       0.094845615 0.35619795 -0.40208378 -0.29707634
000140 32 3b 48 be 9b 5b 35 3e 83 7e f7 3d 2d d9 aa 3d
       -0.19553831 0.17710726 0.12084677 0.08342204
000150 78 bd 9b 3e 33 d8 78 be 29 c4 e1 bd 0a c9 98 3d
       0.3041799 -0.24301223 -0.11023743 0.0746022
000160 b2 4b 29 3d f8 fd b8 3d a0 21 95 3e 86 a3 65 be
       0.041331954 0.09032816 0.29127216 -0.2242566
000170 7d 03 18 3e 40 89 08 bf 6e fd 30 be 2d 84 56 3d
       0.1484508 -0.53334427 -0.17284176 0.052372146
000180 cf cc b2 be 09 d3 07 bd 45 78 53 3e 0b 5f f9 bd
       -0.34921882 -0.033160243 0.20651348 -0.12176331
000190 1a 67 08 3e 11 1f b0 bb cd 12 85 3e 98 39 b1 3e
       0.1332058 -0.005374797 0.25990906 0.34614253
0001a0 4a 66 3d 3e 6b eb 82 3e 3d fc 1e bc d0 08 f3 3d
       0.18496051 0.25570235 -0.009703693 0.11866915
0001b0 7e 9f b1 bd 32 c2 d2 3d 6d 4d a0 bd 6e 57 63 bd
       -0.08672999 0.10290946 -0.07827268 -0.0555033
0001c0 d1 fb e3 bd 78 a5 01 be 64 b2 9b be 1f aa 87 be
       -0.111320145 -0.12660778 -0.3040954 -0.2649698
0001d0 19 fd 0a 3e a8 e7 3b be 44 6d ec 3c f7 6f 81 3e
       0.13573112 -0.18350089 0.028860696 0.25280735
0001e0 d5 cb 10 be ff de 2f bc ad bc 33 be 58 89 fe bb
       -0.14140256 -0.010734319 -0.17552443 -0.0077678375
0001f0 81 9f 4a 3e 60 d1 d5 be 2b 57 aa be 1d 18 cd 3d
       0.19787408 -0.41761303 -0.3326963 0.10014365
000200 f6 fd 86 3c 50 f2 1c 3c 5b 20 d7 bd 8e 71 cf bd
       0.01647852 0.009579256 -0.10504218 -0.10129081
000210 42 f9 2e 3e 62 61 f9 bd 60 f1 0d 3e b4 30 c8 be
       0.17087272 -0.121767774 0.13861609 -0.39099658
000220 8c 9b ae bd 4d 09 cf bd 52 88 c6 be b3 a1 3e be
       -0.08525762 -0.10109196 -0.3877588 -0.18616371
000230 03 41 2e bd a2 ca 0c be 87 c5 83 3e 40 8a 83 3d
       -0.04254247 -0.13749173 0.2573664 0.064228535
000240 2c 46 52 3d ac b9 04 be fd b6 16 be dd 27 8a bc
       0.051336452 -0.12961453 -0.14718242 -0.016864711
000250 3c dc de 3d 75 d5 06 be 6d 1b d7 bc b0 96 a5 3e
       0.1088185 -0.13167365 -0.026258195 0.32341528
000260 dc ab 23 bd e9 f3 93 bd e7 97 d6 be f5 f7 ba 3b
       -0.03995882 -0.072242565 -0.41912767 0.0057058283
000270 fd 3c 88 bd ee c8 1f 3e b0 ba 4d 3e 71 bb 6f 3e
       -0.066522576 0.15603992 0.20090747 0.23411347
000280 ce a5 18 bd c6 d0 92 be e8 1a cd bd df e2 70 3d
       -0.0372675 -0.28674906 -0.100148976 0.05881011
000290 8c ca 27 be 07 19 47 be 94 e9 74 3d 6f c1 cc bd
       -0.16385859 -0.19443141 0.05979307 -0.09997832
0002a0 47 79 23 3d a7 f9 28 3e a1 54 f4 bc bf 8a 5d be
       0.03991058 0.16501485 -0.02982551 -0.21634959
0002b0 74 53 74 be 30 e6 65 3e b6 4f d6 3d 10 33 56 be
       -0.2385996 0.22451091 0.104644224 -0.20917916
0002c0 e9 74 43 be 90 6e 04 3e f9 f9 98 3e d7 7d 9f be
       -0.19087566 0.12932801 0.29878214 -0.31150696
0002d0 ac 9e a6 be ac d2 02 3e 91 05 7f ba fd 9d d5 be
       -0.32542932 0.12775677 -0.00097283075 -0.41722098
0002e0 f0 0a 94 3d da 08 b2 3d 55 d6 2c 3d d7 14 90 be
       0.07228649 0.086930946 0.04219659 -0.281409
0002f0 8a 35 8a 3d e9 76 03 3d 9d 80 8a 3d ae 20 0c bb
       0.06748493 0.032095823 0.06762812 -0.0021381783
000300 c0 7b 18 3e 6a 0b 05 be a6 0a e8 3d 7c 19 e8 be
       0.14890957 -0.12992635 0.11330156 -0.45331943
000310 d3 a7 a4 bc cc a0 7d bf 66 70 7f bd d1 6a 81 be
       -0.020099556 -0.9907348 -0.06236305 -0.25276807
000320 55 5a 19 be c1 40 59 bf d3 7e b5 be 8d 0c 76 3e
       -0.14975865 -0.8486443 -0.35448322 0.24028225
000330 0f 18 2b 3e 1e 8d d1 bd 3d 46 80 3e 07 b0 15 be
       0.16708396 -0.10231994 0.25053588 -0.1461793
000340 95 a9 bf bc e2 c3 86 3e 01 88 ba 3d 92 7d 99 3d
       -0.023396293 0.26321322 0.09107972 0.07494654
000350 93 82 8b bd d6 ce 85 3e d7 ed dd be 56 e2 16 3e
       -0.068120144 0.26134366 -0.4334552 0.14734778
000360 10 86 19 3e c9 ed 6c bd df a9 15 bf a3 3a 06 3e
       0.14992547 -0.057843957 -0.5846233 0.13108306
000370 41 62 e8 3e 62 41 74 be 59 23 fc bb a9 2d f1 be
       0.45387462 -0.23853067 -0.0076946435 -0.47105148
000380 0b 47 ad bd 32 60 36 bc f0 00 2f 3e c0 fa b8 bc
       -0.08460816 -0.011131333 0.17090201 -0.022580504
000390 31 b5 9c 3e 6e 75 0a be ee 0f 47 3d 6f a6 9f be
       0.30606988 -0.13521358 0.048599176 -0.31181666
0003a0 16 ee d0 3c 8f 46 42 be 03 5d aa 3e d3 44 56 be
       0.025504153 -0.18972228 0.33274087 -0.20924692
0003b0 7d c4 3d bd f5 f6 88 be 1b 18 0d 3d 40 fd 4a be
       -0.046329964 -0.26750913 0.034446817 -0.1982317
0003c0 59 5f 07 3e 91 0c 06 3e 85 6a be 3e 6b d5 6d bc
       0.13219966 0.13090731 0.37190643 -0.014516215
0003d0 2a 7e f4 bd f9 24 09 3e 7d d3 14 be 79 4e 8d 3d
       -0.119381264 0.1339301 -0.14533801 0.06899733
0003e0 75 19 a3 bb d6 c6 03 be 5e b1 45 bd af 3c 70 bd
       -0.0049774 -0.12868819 -0.048264854 -0.058651622
0003f0 83 94 c5 3d e2 8f 80 3d 41 46 88 bd 43 0b 23 3e
       0.09647467 0.062774435 -0.06654025 0.15922265

bias f4 [128]
000000 ca 94 5b be e9 71 86 be e4 c6 c3 be 86 ce f5 be
       -0.21443477 -0.26258782 -0.3823768 -0.48009127
000010 56 4c 5f be d9 c5 c3 be 86 20 3e be 8b 62 a2 be
       -0.21806464 -0.38236883 -0.18567094 -0.31715807
000020 6e 9c 90 be f0 83 8a be 7f ed df be f5 5b 58 be
       -0.28244346 -0.27053785 -0.43735883 -0.21128829
000030 09 36 34 be 9a 9a 6d be bd 99 2b bf c8 a6 30 be
       -0.17598738 -0.23203507 -0.6703146 -0.17251122
000040 b3 bc c5 be 25 ee 88 be 4f 6f b5 be 7f 73 22 be
       -0.3862053 -0.2674419 -0.35436484 -0.15864371
000050 75 3e 70 be 14 90 4c be 7b b4 8e be b3 12 a9 be
       -0.23461325 -0.19976836 -0.2787207 -0.3302208
000060 f7 c3 ce bd d5 a2 8c be 55 d4 6e be dd 6d a0 bd
       -0.10095971 -0.2746798 -0.23323186 -0.07833455
000070 2c 56 40 bf 21 ba 04 bf 33 4f 9b be 54 e0 de be
       -0.7513149 -0.5184651 -0.30333862 -0.43530524
000080 81 c0 ce be bc 09 2a be c4 62 a2 be ac d3 23 bf
       -0.40381244 -0.16605276 -0.31715977 -0.6399486
000090 8d cf f5 be ae 48 9a be c0 8b 2d be 2c 15 1c be
       -0.4800991 -0.30133575 -0.16947842 -0.15242451
0000a0 60 b6 91 be 91 5d 9f be ce 30 0a be b6 73 86 be
       -0.28459454 -0.31126073 -0.1349518 -0.26260155
0000b0 9e fd 28 be 2f 37 81 be 70 5d 7a be 05 eb 8b 3a
       -0.16502997 -0.25237414 -0.24449706 0.00106749
0000c0 fc 8b 50 be bf c3 07 bf 64 5f aa be ff ca 9e be
       -0.203659 -0.5303306 -0.33275902 -0.3101425
0000d0 1a 10 0f be e8 84 98 bc fb 49 5e bf 37 d5 b6 be
       -0.13970986 -0.018618062 -0.86831635 -0.35709545
0000e0 97 ef 05 be 01 1a b3 be 68 aa 86 be 62 67 8e bd
       -0.13079678 -0.34980777 -0.26301885 -0.069533125
0000f0 a0 34 07 bf f4 06 ac be 4e 6f 39 bf 34 0c 28 be
       -0.52814674 -0.33599055 -0.7243546 -0.16410905
000100 9a 04 78 be 8d 78 14 bb 73 b2 a2 be bc 46 85 be
       -0.24220505 -0.0022654862 -0.3177677 -0.2603053
000110 42 ce 85 be 71 24 82 be 0e 7e 90 be fd 51 f7 bd
       -0.26133925 -0.25418428 -0.28221172 -0.12076185
000120 ab d4 7c be ff 67 ab be 91 de 45 bf 02 90 8e be
       -0.24690501 -0.3347778 -0.77292734 -0.27844244
000130 52 17 0a bf 55 31 bc be 63 3c ba be 7f 6b 8f be
       -0.53941834 -0.36756387 -0.36374196 -0.280117
000140 1e 88 03 bf b9 f7 04 bf b8 ca 0d be a0 b5 f5 be
       -0.51379573 -0.51940495 -0.13846862 -0.4799013
000150 c7 d3 83 be 8a fc 9a be e3 46 90 be 71 ea a0 be
       -0.2574751 -0.30270797 -0.28179082 -0.31428865
000160 a4 1e bf be 8d 35 87 be fe 35 ee be 81 26 80 be
       -0.37328064 -0.26408044 -0.46525568 -0.25029376
000170 aa ff 0d be de bb 03 bf 5a 9f 36 3d 11 71 1b bf
       -0.1386706 -0.5145854 0.044585563 -0.607194
000180 e5 ac 1e bf 2e 42 df be a4 55 87 be d0 21 8a be
       -0.61982566 -0.4360518 -0.26432526 -0.26978922
000190 4f e6 84 be 2c 7d 1d bf 95 ec 26 bf 37 61 89 bd
       -0.25956962 -0.6151912 -0.65204746 -0.067079954
0001a0 36 03 c1 bd 1d c7 bd be 85 c1 10 bf 68 7d ba be
       -0.094244406 -0.37065974 -0.5654529 -0.36423802
0001b0 2a 42 ca be 22 fb 09 bf 5a a8 d5 be 35 55 7e be
       -0.39503604 -0.53898823 -0.41730005 -0.24837191
0001c0 19 65 3f be ec 1e bf bc 6a 30 5e be 77 8b 5f bf
       -0.1869091 -0.023330174 -0.21698156 -0.8732218
0001d0 3d d3 88 be 5a aa ae bd 5e b5 91 be ee 08 be be
       -0.26723662 -0.08528586 -0.28458685 -0.37116188
0001e0 be f0 b9 be 98 65 87 be a4 64 20 be 3f f9 ae 3d
       -0.36316484 -0.26444697 -0.15663391 0.08543634
0001f0 f4 93 7e be 21 1b 47 be 6d 37 7e be ba 29 24 bf
       -0.24861127 -0.19443943 -0.24825831 -0.6412617

weight f4 [12, 128]
000000 66 32 ea 3d 98 7e ac bc 16 96 e2 bc 9b c7 e4 3c
       0.11435394 -0.021056458 -0.027659457 0.02792721
000010 e4 0d d0 bd 1e d1 c3 bb 24 dc e9 ba a6 2c 03 bb
       -0.101588994 -0.0059758564 -0.0017842096 -0.0020015626
000020 49 f1 75 bd e7 f4 08 bc c7 07 eb 3c f2 a7 72 bc
       -0.06004456 -0.0083591705 0.028690232 -0.014810549
000030 a9 61 8c 3b 5a ed a5 bd a7 54 89 3d 77 2f 54 3c
       0.004284103 -0.08101912 0.06705599 0.01295077
000040 d6 c2 54 3d 29 f5 47 bd f6 81 29 3c a7 6e a3 3c
       0.051943623 -0.048817787 0.0103459265 0.019950224
000050 13 40 86 3d 5d 6f 57 bc c5 82 2e bd 65 65 6a 3d
       0.0655519 -0.01314911 -0.04260518 0.057225604
000060 04 b7 cb 3c 02 57 ef 3c 8b bb 17 bd 3f 5b 4f 3c
       0.024867542 0.029216293 -0.03704409 0.012656032
000070 e7 2a 96 bd 0c 0c ae bc c8 1a 6f bc 74 a2 4d bd
       -0.07332402 -0.021245979 -0.0145937875 -0.050203755
000080 93 47 d8 3c f4 17 f3 3a 8a 32 ac bb d2 51 4c 3e
       0.026401317 0.0018546567 -0.005255048 0.19953087
000090 ba 9d 4f bc 92 3a 4f 3d 5a cb a6 bc 73 6d 8e 3b
       -0.012671882 0.050592966 -0.020360637 0.0043465435
0000a0 ee 3b c4 bc 4c 5c 78 be 94 5b ec bc 02 3c 0c 3a
       -0.023954358 -0.24253958 -0.028852262 0.0005349518
0000b0 a0 ac 37 bd 3b fe f7 3c 5e 8d 4a 3d c5 f8 41 bd
       -0.044842362 0.030272594 0.049451225 -0.047356386
0000c0 97 7d 6d bc 77 0a 88 3b 83 d7 43 3d d2 75 8f 3a
       -0.014495275 0.004151638 0.04781295 0.0010945147
0000d0 7f 84 31 3e e2 4b c6 3c 14 10 21 3d 15 b0 d3 3b
       0.173357 0.024206106 0.039321974 0.0064601996
0000e0 ea b9 24 3d 29 10 39 bc 79 b4 a6 3d b1 2a 22 bd
       0.040216364 -0.011295357 0.08139891 -0.039591495
0000f0 12 8c 37 bd bb 84 3a 3a 3a 30 4e 3d 5e da 21 bd
       -0.044811316 0.00071151153 0.05033896 -0.03951489
000100 1b 11 80 3d 2b 6b 53 3d c6 d5 04 3e 5f 79 da 3c
       0.062532626 0.051615875 0.12972173 0.026669202
000110 cd 59 72 bc 48 cc 93 3c a4 8f bb bc ec d6 11 3d
       -0.014791918 0.018041745 -0.022895642 0.035605356
000120 ff e8 47 bd 4d 4b 39 bd 3c 8c 1a 3c 65 95 10 3d
       -0.048806187 -0.045237828 0.009432849 0.035298724
000130 b7 e7 df 3c 7a b0 03 3e 17 9d 19 bd 64 f0 32 bd
       0.02733217 0.12860289 -0.03750333 -0.043686286
000140 b0 d4 b0 bc d0 c4 08 3c 9d 27 0f 3d 61 f4 34 3d
       -0.021585792 0.008347705 0.034949888 0.04417837
000150 fa 28 b2 bd 3a fd 2f 3d 0c 99 0e bd b6 fa 81 3b
       -0.08699222 0.042966105 -0.034813926 0.0039666547
000160 ac d2 ca bb e1 f0 d9 bd 15 52 11 3b d7 66 0d 3c
       -0.006189665 -0.10641647 0.002217417 0.008630476
000170 ac df 44 3e b0 2d 98 3b 67 e8 99 bd ca 45 a0 3c
       0.19225949 0.0046441182 -0.0751503 0.019564528
000180 1c 22 df bb ba 25 3a 3d c1 05 b6 3c 9b 1d 89 bd
       -0.006809486 0.045446135 0.02221954 -0.066951
000190 ac 24 03 bd 61 63 22 3b ee b3 d4 bb 3e f2 25 bd
       -0.032017395 0.0024778473 -0.006491176 -0.040514223
0001a0 0c 13 1c 3d aa da 86 ba 74 ca 09 3e 7a 7f d4 bd
       0.038104102 -0.0010288556 0.13456136 -0.10375877
0001b0 06 46 19 bd e5 6b 82 3d e8 aa c5 3c d7 7d ba bd
       -0.037420295 0.063682355 0.024129346 -0.09106033
0001c0 ef e8 36 3d 4f 1b 13 3d d9 0f 0c 3e dc 4c f2 3d
       0.044655737 0.035914715 0.1367792 0.11831066
0001d0 37 c9 4a 3c 41 d2 4e 3a ea a8 2f bb ba c9 87 3d
       0.012377075 0.00078896066 -0.0026803561 0.06630273
0001e0 ba a0 31 bd 6d 26 6a bc f9 e4 0c bc ee ec 99 3d
       -0.04336617 -0.014291388 -0.008599513 0.07515894
0001f0 66 fc 36 bd 45 46 01 bd 43 5f 86 bc 3d 1a b0 3c
       -0.0446743 -0.031561155 -0.016402846 0.021496886
000200 6a 4b 08 bc 33 82 c3 3c 58 9c cd bc e2 13 c0 bb
       -0.008318761 0.023865795 -0.025098965 -0.005861745
000210 e5 08 7a 3d 9d a9 5b bd 45 b7 56 3b 70 8c 9a 3b
       0.06104364 -0.053628553 0.0032763046 0.0047164485
000220 31 9c fd ba cf f6 df bb 96 79 3a 3c 0c a7 e1 ba
       -0.0019348917 -0.006834842 0.011381527 -0.0017215922
000230 b1 df 21 bc c8 17 53 3d 59 a0 c7 3b 0d 33 e3 3b
       -0.009879992 0.05153635 0.006092113 0.006933576
000240 08 2e 53 bd 86 f6 82 3b d9 63 1c bc a3 90 a8 3c
       -0.05155757 0.003996673 -0.00954529 0.02057678
000250 1c 44 23 3c fd 45 48 bb 93 8e b4 3c 15 19 4d 3d
       0.009964969 -0.0030559294 0.022040641 0.05007275
000260 c9 13 3f 3c 0b 20 1e 3a 04 95 bd bc 09 77 24 bd
       0.011662432 0.00060319965 -0.023142345 -0.040152583
000270 49 9e 9b 3d 60 77 1e 3d 01 5a 42 bc 92 bc 9f ba
       0.0759855 0.038688064 -0.011862279 -0.0012186936
000280 21 50 ed 3c f2 cb e6 bd 24 e8 31 bd 91 e5 8d 3c
       0.028968873 -0.11269368 -0.043434277 0.01732138
000290 cb b5 78 bc 56 59 12 3c b2 5d 49 3c 41 b7 44 3a
       -0.015180062 0.008932432 0.012290405 0.00075041136
0002a0 84 5c aa 3c 8b 3c 1f 3d 2a 96 b6 3b 66 a3 b3 3c
       0.020796068 0.038876098 0.0055721 0.0219285
0002b0 66 b2 c2 bb d7 9c a8 3b e6 6d fa 3c 3a 2f 3d 3b
       -0.005941677 0.00514565 0.030569982 0.002886726
0002c0 40 e8 e6 bd cf 2d 2a bd 86 7c db bc 4b f7 9b 3a
       -0.11274767 -0.041547593 -0.026792776 0.001189926
0002d0 71 56 24 bd 45 55 8c bd 0d 28 37 bd ea dd 98 3a
       -0.0401215 -0.06852201 -0.04471593 0.0011662815
0002e0 a5 a0 25 3c 95 b4 3c bd 3e 8d c2 bb 88 d3 02 bc
       0.010109101 -0.046070654 -0.0059372475 -0.007985003
0002f0 51 15 fc bb cf e4 e2 ba f9 a8 84 3d 82 8e 40 bc
       -0.007692971 -0.0017310622 0.064775415 -0.0117527265
000300 f1 e4 b3 3d 65 f6 59 bb 24 8b 02 bd fa a2 8f bb
       0.087839015 -0.0033258435 -0.031870976 -0.004383442
000310 75 d8 6d 3c cc 3e c1 3a 51 53 f6 bb e7 b7 1d bd
       0.014516939 0.0014743446 -0.0075172563 -0.03850546
000320 2b 2d 88 bd 1e 29 39 3c 72 ba 47 3b c1 c0 b5 3b
       -0.0664924 0.011301307 0.003047612 0.0055466597
000330 bf e3 37 3e a9 81 5a bd 5c 8b 13 3e 56 1f 3d bc
       0.17957972 -0.05334631 0.1440863 -0.011543116
000340 c3 10 04 bd ca 2d 95 bd 3d 4f 53 bc 17 ab 93 bd
       -0.032242548 -0.07284124 -0.01289731 -0.07210367
000350 8c 97 c5 bd a1 cf 0a 3c a4 e2 71 3c 3e 3f 88 bc
       -0.09648046 0.008472354 0.014763508 -0.016631719
000360 0f 5b 93 bc 94 c0 b7 bb f3 f3 86 bd 78 50 d7 bb
       -0.017987756 -0.005607674 -0.06589498 -0.006570872
000370 b8 1f 06 39 c4 e7 d4 bc 1b 24 ae 3c 40 53 8b 3c
       0.00012791052 -0.02598942 0.02125745 0.01700747
000380 29 d5 8e bb 57 6e 6b 3c e0 50 29 ba ad 3a 0f bd
       -0.0043589068 0.014369569 -0.00064588897 -0.034968067
000390 0b b0 ab 3b 53 72 19 bc 41 8c 31 3d e1 ea 60 3b
       0.005239492 -0.009365636 0.043346647 0.0034319686
0003a0 38 09 d3 3c 0b 65 d3 3d 87 8e 70 bd 09 f3 64 3b
       0.025761232 0.10322007 -0.058729675 0.00349349
0003b0 63 ea 71 bc 95 0f b5 bd 94 28 3f 3c fa 5e 2b 3d
       -0.014765355 -0.08840863 0.011667389 0.041838624
0003c0 c6 5f 66 bc bd 4f 2c 3c fd 1d 97 3b bd d5 e2 3c
       -0.01406092 0.010517058 0.004611729 0.027689809
0003d0 7f 20 29 bc 93 89 eb bd 5c a9 8f bb 5e fd 98 3d
       -0.010322689 -0.115008496 -0.004384203 0.07470201
0003e0 ba ff d2 bc 13 15 71 3b ae e5 c9 3c 9b 9f 93 bc
       -0.025756706 0.0036786243 0.024645653 -0.018020442
0003f0 a4 30 01 3d 3a 29 b7 bd 67 21 94 bb 72 08 cb bc
       0.031540528 -0.0894341 -0.0045205834 -0.0247843

bias f4 [12]
000000 36 99 b4 bd f2 ef 19 be 27 1b 2a be 78 7a 4f 3e
       -0.08818285 -0.15032938 -0.1661192 0.20261562
000010 21 b0 a6 bc d3 8d 98 be 7f 3e d5 bd 4a 32 8e 3d
       -0.020347657 -0.29795703 -0.10412311 0.069431856
000020 84 8a 02 be 7a 8b 24 3e 1f dd c0 3c 0b e1 67 be
       -0.12748152 0.16068831 0.023542939 -0.22644441
