policy/go2w/robot_lab/policy.pt (torch, 796064 bytes, 8 tensors)

weight f4 [512, 57]
0	0x3edc0f8e	0.42980617
1	0xbce6025f	-0.028077303
2	0x3f65ec88	0.89814043
3	0x3dc207df	0.094741575
4	0x3e0741c4	0.13208681
5	0xbd18c4cd	-0.03729706
6	0xbeada8f3	-0.3391796
7	0x3f3338ce	0.7000855
8	0x3b1fb969	0.0024371988
9	0xbc8bfd06	-0.017088424
10	0x3e7a7e20	0.24462175
11	0x3f39cabb	0.7257497
12	0x3e35a0db	0.17737143
13	0x3f13ab40	0.5768318
14	0x3f079618	0.529634
15	0xbec059ae	-0.3756842
16	0x3db4b680	0.088238716
17	0x3edefab2	0.4355064
18	0x3e1cd30b	0.15314882
19	0x3f0d6264	0.5522826
20	0xbd4bb6cf	-0.049734887
21	0xbec1c972	-0.37849003
22	0xbf2b54f8	-0.6692653
23	0xbe3dd4bd	-0.18538184
24	0x3c2e3f4b	0.010635207
25	0x3e16c550	0.14723706
26	0xbc73ca29	-0.014879742
27	0xbd9cfc7a	-0.076653436
28	0x3da71978	0.08159155
29	0x3f2dc82b	0.6788356
30	0x3ed3479b	0.41265568
31	0xbe940f95	-0.28918138
32	0x3d24b941	0.040215734
33	0x3ee65d2e	0.44992965
34	0x3f73880b	0.9512946
35	0xbd62875e	-0.055304877
36	0x3fc57d87	1.5428933
37	0x3d2e71b4	0.042588905
38	0x3c30ee92	0.010799067
39	0x3d9dd6a9	0.07706959
40	0x3f1cf32f	0.6130857
41	0xbbf26767	-0.0073975804
42	0xbcee721d	-0.029107148
43	0x3c7ae159	0.015312516
44	0x3d2c5bde	0.0420798
45	0x3d21a0a3	0.039459836
46	0x3da01b21	0.078176744
47	0xbd0b5c89	-0.034023795
48	0x3d89f08b	0.06735333
49	0xbcb4ee45	-0.022086272
50	0x3dc56e38	0.09640163
51	0xbda22d03	-0.079187416
52	0x3e79a2c2	0.24378493
53	0x39a273a7	0.00030985216
54	0xbca2ec43	-0.019888049
55	0xbc3014a4	-0.010747109
56	0xbda6e13e	-0.0814843
57	0x3d0d4c3b	0.034496527
58	0xbe94df7f	-0.29076764
59	0xbf97eda4	-1.1869397
60	0x3f65f2ca	0.8982359
61	0xbea53367	-0.3226578
62	0x3cbb37b7	0.022853715
63	0x3de5154d	0.111857034
64	0x3d021a75	0.031763513
65	0x3e615fe1	0.22009231
66	0x3f12f2cb	0.5740172
67	0x3ea048b1	0.3130546
68	0x3ec7cd7f	0.3902397
69	0x3cc4bc26	0.024015497
70	0x3d811dd0	0.063045144
71	0x3e91316c	0.28358018
72	0x3e7e16c1	0.24813367
73	0x3ed934c7	0.42423078
74	0x3e3b63bd	0.18299766
75	0xbf3eb5de	-0.7449626
76	0x3d097c19	0.033565614
77	0x3eebaeaf	0.4603171
78	0xbdb1dfe7	-0.08685284
79	0x3f3f7416	0.7478651
80	0x3ea14e60	0.31505108
81	0xbd93c4f4	-0.072153
82	0xbf307bae	-0.6893872
83	0xbbd2b0c2	-0.0064297626
84	0xbc9f8909	-0.019474523
85	0x3d775de9	0.060392294
86	0x3ec23489	0.37930706
87	0xbcafcfa0	-0.021461308
88	0x3da0ec88	0.07857615
89	0x3e55df91	0.20886065
90	0x3ec49a73	0.38399085
91	0xbd73b923	-0.059502732
92	0xbeebf415	-0.46084657
93	0xbe9c5a7c	-0.30537784
94	0xbe08490a	-0.13309112
95	0xbcd6cf9c	-0.026222043
96	0xbabf603d	-0.0014600825
97	0xbd8400a4	-0.06445435
98	0x3dc2bd71	0.09508789
99	0xbd9d39fd	-0.07677076
100	0x3dedc99b	0.11610719
101	0xbc993ee5	-0.018706748
102	0xbd0d1bfc	-0.034450516
103	0xbcb0ea2d	-0.021596039
104	0x3c73a986	0.0148719605
105	0xbcac8850	-0.021061093
106	0x3d68db07	0.056849506
107	0x3d8dcac2	0.069234386
108	0x3cdc6c46	0.026907098
109	0x3d5718f4	0.05251403
110	0x3e14b420	0.14521837
111	0x3c2675a5	0.010159885
112	0xbd065025	-0.032791276
113	0x3c6c2359	0.014412724
114	0x3e83d909	0.25751522
115	0xbe9358a9	-0.2877858
116	0xbf535d9b	-0.82564706
117	0xbf65360a	-0.8953558
118	0xbea2d4dd	-0.31803027
119	0xbe960dcc	-0.293074
120	0x3e490dd0	0.19634175
121	0xbe5c16dc	-0.21493095
122	0x3eeb7e15	0.4599463
123	0x3d99d695	0.075116314
124	0x3eb16d2b	0.346536
125	0x3e828cd4	0.25498068
126	0x3dfc6559	0.12324018
127	0xbda7ea9c	-0.08199045
128	0xbe88f1a2	-0.2674685
129	0xbe8f6c74	-0.2801243
130	0xbe709693	-0.2349494
131	0x3ea3a5b5	0.31962362
132	0x3f0c0138	0.5468936
133	0xbeb93932	-0.3617645
134	0xbe9da5f9	-0.3079069
135	0x3ece7d23	0.40329847
136	0xbe8e2631	-0.27763513
137	0xbcc55e59	-0.02409284
138	0xbe8dd49e	-0.27701277
139	0x3f3087f8	0.6895747
140	0x3db95499	0.09049339
141	0xbf2c5399	-0.6731506
142	0x3e5b904f	0.21441768
143	0x3f14d7f2	0.58142006
144	0xbf1ba194	-0.60793424
145	0xbe7b5618	-0.24544561
146	0xbda99717	-0.08280771
147	0x3dd3f076	0.10348599
148	0xbd891aa8	-0.066945374
149	0xbf82bc24	-1.0213666
150	0xbea608fe	-0.32428735
151	0xbe06e7e9	-0.13174404
152	0x3da4f8a8	0.0805524
153	0xbdc61199	-0.09671325
154	0x3e392a52	0.1808255
155	0x3d011dbb	0.031522494
156	0xbd42b6f6	-0.047537766
157	0xbbda0ec9	-0.0066545946
158	0x3d1d212d	0.038361717
159	0xbd2a9e5d	-0.041654933
160	0x3bd1c3b8	0.0064015053
161	0xbbbfe399	-0.005855989
162	0xbccd3020	-0.025047362
163	0x3cde6d92	0.027151857
164	0x3ca06957	0.01958148
165	0xbd6dfd2d	-0.058102775
166	0x3d0f7cbb	0.03503106
167	0xbc9baf8b	-0.019004604
168	0xbc96848f	-0.018373756
169	0x3c8f6757	0.017505331
170	0x3b43ae84	0.0029858658
171	0x3d29bb08	0.041438133
172	0x3e693afa	0.22776404
173	0xbe1155da	-0.14192906
174	0x3e9a16ab	0.3009542
175	0xbf139dbb	-0.5766255
176	0x3e593d4d	0.2121479
177	0x3eba243b	0.36355767
178	0x3ceffce9	0.029295402
179	0x3dd07b8f	0.10179817
180	0xbf239e12	-0.6391307
181	0x3ebb11ec	0.3653711
182	0x3ed90b1c	0.42391288
183	0xbe8c0d05	-0.27353683
184	0xbe800963	-0.25007161
185	0x3d2a9734	0.041648105
186	0x3f146b3e	0.5797614
187	0xbef52c62	-0.47885424
188	0xbe9dab26	-0.30794638
189	0x3f1ef3c9	0.62090737
190	0x3dfd69c2	0.12373687
191	0xbe08bfac	-0.13354367
192	0x3ea3cc0a	0.31991607
193	0xbecd03f3	-0.40042076
194	0x3e964f5c	0.2935742
195	0xbe8b4fbb	-0.27209267
196	0xbe9a9f8c	-0.3019985
197	0x3f1cebfd	0.6129759
198	0x3ecea264	0.4035827
199	0xbe3f7aa8	-0.18699133
200	0x3d3fc2cd	0.046816636
201	0x3ef222f5	0.47292295
202	0x3ea4af51	0.32165006
203	0xbf485905	-0.78260833
204	0xbe5b3e19	-0.21410407
205	0x3e9176d8	0.28410983
206	0xbef39b7d	-0.47579566
207	0xbf6adc66	-0.9174255
208	0x3d8d00d8	0.068849266
209	0xbd1c5bab	-0.03817336
210	0xbe280981	-0.16409875
211	0x3e511a79	0.20420255
212	0xbd89402b	-0.06701692
213	0xbd1d73f1	-0.03844065
214	0xbd6874ad	-0.056751896
215	0xbd200471	-0.039066736
216	0x3d8d6d52	0.06905617
217	0xbdaff6b7	-0.08591979
218	0x3b024677	0.0019878426
219	0xbc1d171d	-0.00958803
220	0x3c834f88	0.016029134
221	0x3c2af669	0.010434725
222	0xbc51d6a4	-0.012807522
223	0x3daf8cab	0.08571752
224	0xbc855832	-0.016277406
225	0x3c85b883	0.016323334
226	0xbd34ade9	-0.044111166
227	0xbd026a50	-0.03183967
228	0xbe366e03	-0.17815404
229	0x3d7d0272	0.06176991
230	0xbeb6b689	-0.35686138
231	0xbf0a9957	-0.5414023
232	0x3ead6e30	0.3387313
233	0x3e6926c6	0.22768697
234	0x3ead6bb5	0.33871236
235	0x3e7a6519	0.24452628
236	0x3e137682	0.14400676
237	0xbe422927	-0.18961011
238	0xbe453a22	-0.19260457
239	0xbe765760	-0.24056768
240	0x3f3d013f	0.73830026
241	0x3ea51ccb	0.3224853
242	0x3e4e0c68	0.2012192
243	0xbf8c124a	-1.0943081
244	0x3dd91f92	0.10601725
245	0x3ebcf72b	0.36907324
246	0xbd1d47d6	-0.038398586
247	0xbd35cb9d	-0.044383634
248	0x3f30d823	0.690798
249	0x3e8f64a6	0.28006476
250	0x3e804cfc	0.25058734
251	0xbeea75ba	-0.45792943
252	0x3caac294	0.020844735
253	0xbeaddc90	-0.33957338
254	0xbf2e53a4	-0.68096375
255	0x3d781c08	0.060573608

bias f4 [512]
0	0x3d492e53	0.049116444
1	0x3e79feb2	0.24413565
2	0x3e3616d9	0.17782153
3	0x3e3749e7	0.17899285
4	0xbc035bb8	-0.008017473
5	0x3e79572f	0.24349664
6	0x3de1b81d	0.11021445
7	0x3e61ec3a	0.2206277
8	0xbdbeb00b	-0.09310921
9	0xbe44407f	-0.19165228
10	0xbcf6ffb3	-0.030151224
11	0x3ebd6733	0.36992797
12	0xbf22214a	-0.63332045
13	0xbe70d72b	-0.2351958
14	0x3e70ac4c	0.23503226
15	0xbf20d971	-0.6283179
16	0x3e314d2f	0.173146
17	0xbf0f7c82	-0.5604936
18	0xbd9f5dc7	-0.077815585
19	0xbea5f135	-0.3241059
20	0xbeadf8cd	-0.33978882
21	0x3e1a3202	0.15058139
22	0xbe874c1f	-0.26425263
23	0xbceac208	-0.028656974
24	0xbd0b53cc	-0.03401546
25	0xbe334e71	-0.17510392
26	0xbec0b57b	-0.3763846
27	0xbeff727a	-0.49892026
28	0x3d7b3580	0.06133032
29	0x3e51f00c	0.20501727
30	0xbe9af172	-0.30262333
31	0xbec517bc	-0.3849467
32	0xbe740e6b	-0.23833625
33	0x3e1919fb	0.14951317
34	0xbe4610d4	-0.19342357
35	0xbee83157	-0.45350143
36	0xbf44e745	-0.7691539
37	0x3d403369	0.04692403
38	0x3ed4fb6c	0.4159807
39	0xbe21dfaf	-0.15807985
40	0xbe6ca9b7	-0.23111616
41	0xbec01827	-0.37518427
42	0xbe04a7fb	-0.12954704
43	0x3ebec3d7	0.3725879
44	0x3dbc778b	0.092024885
45	0xbd11519a	-0.035478212
46	0x3ead6f8e	0.33874172
47	0xbf3495d3	-0.70541114
48	0x3e0a14b8	0.13484466
49	0xbe31e343	-0.1737185
50	0xbf34fcf3	-0.7069847
51	0x3e4274a8	0.18989813
52	0x3e1facb7	0.15593229
53	0x3d97d662	0.07413937
54	0xbefb244c	-0.4905113
55	0x3add17a8	0.0016868012
56	0x3de257e7	0.11051922
57	0x3ed204b2	0.41019207
58	0xbe3fc79c	-0.18728489
59	0xbde80795	-0.11329571
60	0xbe75a9d0	-0.2399056
61	0x3df4684f	0.11933958
62	0xbe368218	-0.17823064
63	0xbec56bbe	-0.38558763
64	0x3dc700e7	0.09716969
65	0xbf11e0ef	-0.56983846
66	0xbe3de1d3	-0.18543176
67	0xbe4e7cb5	-0.2016476
68	0xbeb025f5	-0.3440396
69	0xbe451eb3	-0.19249992
70	0xbe70690b	-0.2347757
71	0x3e208f0d	0.1567957
72	0x3d6b0092	0.05737359
73	0x3ea875ab	0.32902274
74	0x3c9712d5	0.018441597
75	0xbe2c4684	-0.16823775
76	0xbf2f0ebe	-0.6838187
77	0x3d7487b7	0.05969974
78	0x3e0468a6	0.12930545
79	0x3b885359	0.0041603264
80	0xbeb42051	-0.35180905
81	0x3eccc4ea	0.39993984
82	0x3e80d738	0.251642
83	0xbe18c829	-0.14920105
84	0x3e877015	0.264527
85	0x3da16c58	0.07881993
86	0x3e8a1a0b	0.26972994
87	0x3dd3868e	0.10328399
88	0xbe43fbd3	-0.19139032
89	0xbf4be3f0	-0.7964468
90	0x3e1ad63b	0.15120785
91	0x3eaf08c6	0.3418638
92	0x3c84b23c	0.01619827
93	0xbe9bc85c	-0.304263
94	0xbe6d0a1b	-0.23148386
95	0xbef90403	-0.48635873
96	0x3db5aba5	0.08870629
97	0xbe07b684	-0.13253218
98	0xbdbb1d15	-0.09136406
99	0xbd7d22c6	-0.06180074
100	0x3bab6adf	0.005231246
101	0xbc9d9b35	-0.019239048
102	0xbecf98b1	-0.40546182
103	0x3d278c68	0.040905386
104	0x3e153bea	0.14573637
105	0xbf29770b	-0.6619727
106	0x3eb9bee2	0.36278445
107	0xbdd28083	-0.10278418
108	0xbd94f033	-0.07272377
109	0xbe732cce	-0.2374756
110	0x3e7144be	0.2356138
111	0x3e80b406	0.25137347
112	0x3e8311b4	0.25599444
113	0xbe7db176	-0.24774727
114	0xbea14c05	-0.3150331
115	0x3ece4777	0.40288898
116	0x3d6032ef	0.054736074
117	0xbe88a572	-0.26688725
118	0xbf089ed0	-0.5336733
119	0xbba44eba	-0.0050142678
120	0xbf18303e	-0.5944861
121	0xbe9d4688	-0.30717874
122	0x3de6080a	0.11232002
123	0x3d30dfbc	0.04318212
124	0x3e58cc6d	0.21171732
125	0xbb130ccb	-0.0022438045
126	0xbee578b6	-0.44818658
127	0xbe5dc213	-0.21656065
128	0x3d815faa	0.063170746
129	0x3e8ead60	0.2786665
130	0xbe794934	-0.24344331
131	0x3d8ce7c4	0.06880143
132	0xbe464b25	-0.19364603
133	0x3de2845f	0.11060404
134	0xbdac4e6d	-0.08413396
135	0xbed5a0d2	-0.4172426
136	0x3d5eddef	0.05441087
137	0xbe5fdd1f	-0.21861695
138	0x3cc35b36	0.023847204
139	0xbead8a28	-0.33894467
140	0xbe6c8213	-0.23096494
141	0x3e93891e	0.2881555
142	0x3dd07172	0.10177888
143	0x3e01122f	0.12604593
144	0xbe0c6a00	-0.13712311
145	0xbe119110	-0.14215493
146	0xbe20ad1c	-0.15691036
147	0xbee1e7b8	-0.441221
148	0x3cf7a393	0.030229365
149	0x3e2185be	0.15773675
150	0x3e80910d	0.25110665
151	0x3e617468	0.22017062
152	0xbe883cfa	-0.2660902
153	0xbe9bb9f8	-0.3041532
154	0x3e63ba6c	0.22239083
155	0xbe2a9611	-0.16658808
156	0x3d923a98	0.07140082
157	0x3e61f129	0.22064652
158	0x3dd35f46	0.10320906
159	0x3ed8bf4b	0.42333445
160	0xbe01beaf	-0.12670396
161	0x3c5a684d	0.013330531
162	0xbd833337	-0.06406253
163	0xbe37718d	-0.1791441
164	0xbeee179e	-0.46502393
165	0x3d04e20b	0.032442134
166	0xbeda870b	-0.42681155
167	0xbf381842	-0.71912014
168	0xbeae79b1	-0.34077218
169	0x3e44c51e	0.19215819
170	0x3ea801d2	0.3281389
171	0xbdb1777e	-0.086653695
172	0xbcd99fb0	-0.026565403
173	0xbe783a1f	-0.24240921
174	0x3e088084	0.13330275
175	0x3e01649d	0.12636037
176	0x3d85ebb1	0.06539095
177	0xbee6ff46	-0.45116633
178	0xbdc90dbe	-0.09817074
179	0xbf0e56ef	-0.556014
180	0x3aac5ae9	0.0013149652
181	0xbe8d32a1	-0.2757769
182	0xbf0239ae	-0.5086926
183	0xbb234c23	-0.0024917207
184	0xbec2e4e3	-0.38065252
185	0xbe0da38f	-0.13831924
186	0x3e9e7072	0.30945164
187	0x3db4ee38	0.08834499
188	0xbef9af19	-0.487664
189	0xbee9cad8	-0.4566257
190	0xbe9c2630	-0.30497885
191	0x3ee00a4c	0.43757856
192	0x3bdca561	0.006733582
193	0xbe643e21	-0.22289325
194	0xbf09eb05	-0.53874236
195	0x3db8b17a	0.09018226
196	0xbe351f6a	-0.17687765
197	0xbe33d8d8	-0.17563188
198	0x3e472d2f	0.1945083
199	0xbf7824a2	-0.969309
200	0xbcd64144	-0.026154168
201	0xbf0a9aa6	-0.54142225
202	0xbe324200	-0.1740799
203	0xbe2abad4	-0.16672832
204	0xbeb9fd7f	-0.36326215
205	0x3e805756	0.25066632
206	0x3e8091fc	0.25111377
207	0x3de25aac	0.110524505
208	0xbe423b2c	-0.18967885
209	0x3dd991e8	0.106235325
210	0x3e5f6fe0	0.2182002
211	0xbf1d81a5	-0.61525947
212	0xbe0aae07	-0.13542949
213	0x3e82825f	0.2549009
214	0xbe4726d8	-0.19448411
215	0x3e8eca57	0.27888748
216	0x3ea33f17	0.3188407
217	0xbeb9857d	-0.36234656
218	0xbe7d967b	-0.24764435
219	0x3e4c170c	0.19930667
220	0x3db6ee0b	0.08932122
221	0xbe3ea4c7	-0.18617545
222	0xbe02a424	-0.12757927
223	0xbe53a186	-0.20667085
224	0x3e0dcbe8	0.13847315
225	0xbf1fa7e6	-0.6236557
226	0x3ec1290a	0.37726623
227	0x3eea2db7	0.45738003
228	0x3e233537	0.15938269
229	0xbd35dbda	-0.04439912
230	0xbd9162db	-0.07098933
231	0xbc702ba4	-0.014658842
232	0x3e429721	0.19002964
233	0x3e65aece	0.22429964
234	0x3db7b1fb	0.08969494
235	0xbea91f88	-0.3303187
236	0x3e33128e	0.17487547
237	0xbde0233b	-0.1094422
238	0xbea63b68	-0.32467198
239	0xbee926d6	-0.45537442
240	0xbea3e431	-0.32010034
241	0xbdb14f86	-0.08657746
242	0xbe04f838	-0.12985313
243	0xbe14166c	-0.14461678
244	0xbf17ce28	-0.59298944
245	0xbe4a72f6	-0.19770417
246	0x3e933922	0.28754526
247	0xbe53d2d9	-0.20685901
248	0xbe0ac2a2	-0.13550809
249	0xbf17ec80	-0.59345245
250	0x3e256ad2	0.1615403
251	0x3d04f498	0.032459825
252	0xbe871605	-0.26383987
253	0xbeb3c99d	-0.35114756
254	0xbe268034	-0.16259843
255	0x3eb2ad4a	0.34897834

weight f4 [256, 512]
0	0xbe6bae03	-0.23015599
1	0xbe94b10b	-0.29041323
2	0x3d2336e4	0.03984727
3	0xbeadd342	-0.3395024
4	0x3d53caaf	0.051706966
5	0xbb72608d	-0.0036983818
6	0xbc7de0be	-0.015495477
7	0xbe99d9de	-0.30049032
8	0x3e0e747e	0.13911626
9	0xbea8aac9	-0.329428
10	0x3e2e7140	0.17035389
11	0xbe9d514d	-0.3072609
12	0x3eced0a1	0.40393546
13	0xbdb74a16	-0.08949678
14	0xbe49751a	-0.19673577
15	0xbd216e83	-0.039412033
16	0x3d5fea36	0.05466672
17	0xbca7941e	-0.02045637
18	0x3cfeca38	0.031102285
19	0xbdcd95ee	-0.100383624
20	0x3e9819a0	0.2970705
21	0x3df2c60f	0.11854183
22	0x3e080829	0.13284363
23	0xbd09b0fd	-0.033616055
24	0xbe0573f8	-0.1303252
25	0xbdc8555c	-0.09781906
26	0x3d916300	0.07098961
27	0xbe74bb44	-0.23899561
28	0xbe5e7c2c	-0.21727055
29	0xbda1f6bb	-0.07908388
30	0x3e0d0ea4	0.13775116
31	0x3eb71106	0.35755175
32	0xbe8f3cfd	-0.27976218
33	0xbd9c702e	-0.07638584
34	0xbe47fb8b	-0.1952955
35	0x3e2bfab5	0.16794856
36	0xbd3994e2	-0.045308
37	0x3ebf9637	0.37419292
38	0x3e1e872b	0.1548125
39	0xbe26f45d	-0.16304155
40	0xbd6c20ce	-0.057648472
41	0x3cf55ccb	0.029951474
42	0xbe1ba4c7	-0.15199576
43	0xbe8e1099	-0.27747038
44	0x3e1b9663	0.15194087
45	0xbe458a9b	-0.19291155
46	0xbddf34b3	-0.108987235
47	0x3d3d0fdb	0.0461577
48	0xbe768371	-0.24073578
49	0xbd278e7b	-0.040907364
50	0x3d9e58c4	0.077317744
51	0xbbef9510	-0.007311471
52	0x3dd35175	0.10318271
53	0xbda3bf75	-0.07995502
54	0x3ec09d0c	0.37619817
55	0x3e32aba8	0.17448294
56	0xbeafc423	-0.34329328
57	0xbe88a1de	-0.26685995
58	0xbe71dea5	-0.23620088
59	0x3d6e3982	0.058160312
60	0x3ec16fa9	0.37780502
61	0x3e43112a	0.19049516
62	0x3e04d1b5	0.12970622
63	0x3d5bd954	0.053674057
64	0xbe0c079d	-0.13674779
65	0xbde26c71	-0.1105584
66	0x3e4c96b1	0.19979359
67	0x3dbe6345	0.09296278
68	0xbe078498	-0.13234174
69	0x3e5b5fb9	0.21423234
70	0x3e44ce9b	0.19219439
71	0xbaf27d19	-0.0018500417
72	0x3b4b4a2b	0.003101955
73	0x3e9e2f41	0.30895427
74	0xbe32fb14	-0.17478591
75	0x3e1337d3	0.14376764
76	0xbdf3782d	-0.11888156
77	0x3cf79a8b	0.030225059
78	0xbda1a6e7	-0.07893162
79	0xbe39164d	-0.18074913
80	0xbe8a64ef	-0.2703013
81	0xbe88ab46	-0.2669317
82	0xbe600637	-0.21877371
83	0xbd4a4afe	-0.049387924
84	0x3deee633	0.11665001
85	0xbedb066b	-0.42778334
86	0xbe10876d	-0.14114161
87	0xbec8e2a3	-0.3923541
88	0xbe861d0d	-0.2619404
89	0x3e63df28	0.22253096
90	0xbe75538e	-0.23957655
91	0x3d982a27	0.07429915
92	0xbdcf5c8a	-0.10125072
93	0xbea38d2b	-0.3194364
94	0x3d136b48	0.035990983
95	0xbdd4375e	-0.10362123
96	0xbea4a4a8	-0.32156873
97	0xbe8ff9f9	-0.28120402
98	0x3e4a9749	0.19784273
99	0xbd3720e7	-0.044709112
100	0xbeea2f99	-0.4573944
101	0x3ded7bb7	0.11595862
102	0x3e64df73	0.22350864
103	0xbd1e0650	-0.03858024
104	0x3d82fc2d	0.06395755
105	0xbcb7dec7	-0.022445096
106	0xbe1e2ed0	-0.15447545
107	0x3e655b62	0.22398141
108	0x3da7a23f	0.08185243
109	0xbd8708c4	-0.06593469
110	0xbd8c58ff	-0.06852912
111	0xbd65653e	-0.056004755
112	0x3e772186	0.24133882
113	0x3eb88e31	0.36045983
114	0xbdd0d4eb	-0.10196861
115	0x3b90a6a2	0.0044143954
116	0xbea0cf54	-0.3140818
117	0x3e533ec2	0.20629409
118	0x3e35df6c	0.1776101
119	0x3e134e09	0.14385237
120	0x3ebda132	0.37037045
121	0x3e2bbd3a	0.16771403
122	0xbd0404b0	-0.032231033
123	0x3e024f54	0.12725574
124	0xbf0ffcfc	-0.562454
125	0xbd1f5d92	-0.038907595
126	0xbd1930b4	-0.037399963
127	0xbe326477	-0.17421137
128	0x3d99c964	0.07509115
129	0x3d179180	0.037003994
130	0xbe3a02f6	-0.18165192
131	0x3ac9af9f	0.0015387422
132	0xbc762d0e	-0.01502539
133	0xbde69c0e	-0.11260234
134	0xbe2fd86a	-0.17172399
135	0x3c283d94	0.010268588
136	0xbe6fbd8c	-0.2341215
137	0xbeba9e2d	-0.36448804
138	0x3d8e9791	0.06962503
139	0x3e64d8f3	0.22348385
140	0xbec115c4	-0.37711918
141	0xbd583e5f	-0.052793857
142	0xbd4a716d	-0.049424578
143	0xbe3085b3	-0.17238502
144	0x3cc7aa93	0.024373328
145	0x3dfde55e	0.12397264
146	0x3e876be9	0.26449516
147	0xbe6c3276	-0.23066124
148	0xbd58cf73	-0.052932214
149	0xbdaf2720	-0.085523844
150	0xbe859232	-0.260881
151	0xbf02bd2c	-0.51069903
152	0xbeb4d3da	-0.3531788
153	0xbc6cc004	-0.014450077
154	0x3d2dcfcf	0.04243451
155	0x3ddba32e	0.107244834
156	0xbe0ba801	-0.13638307
157	0xbd906cfd	-0.07052038
158	0xbe754bb7	-0.23954664
159	0x3d0cee5e	0.034407012
160	0x3e428506	0.18996057
161	0x3daa21b4	0.083072096
162	0xbde35734	-0.11100617
163	0xbe7c3366	-0.24628982
164	0x3c56f9af	0.013121053
165	0xbec8204e	-0.39087147
166	0x3dce086f	0.10060202
167	0xbcaad53b	-0.02085363
168	0x3e5122e7	0.2042347
169	0xbe3378e3	-0.17526583
170	0xbd903edf	-0.07043242
171	0x3d4c3f7b	0.049865227
172	0x3d902ac2	0.070394054
173	0xbe1ed40a	-0.15510574
174	0xbe6b7a17	-0.22995792
175	0x3e231de0	0.15929365
176	0xbd70da5b	-0.05880199
177	0x3e81bee7	0.2534096
178	0xbe5b4f9d	-0.21417089
179	0x3e6146c8	0.21999657
180	0xbd57aa07	-0.052652385
181	0xbe54ccf2	-0.20781305
182	0x3dbb1d4c	0.09136447
183	0x3da2071e	0.07911514
184	0x3e8d8731	0.27642205
185	0xbd6963fb	-0.056980114
186	0xbd69fe0b	-0.05712704
187	0xbdb99faa	-0.09063657
188	0xbcb6c79a	-0.022311974
189	0x3eb9712d	0.3621916
190	0x3ce9c560	0.028536499
191	0xbd826e5e	-0.06368707
192	0xbe8ac141	-0.27100566
193	0xbd518e07	-0.05116084
194	0x3e6a4d9c	0.22881168
195	0xbf29ece5	-0.663771
196	0xbe3f460d	-0.18679066
197	0xbdfa0fbb	-0.122100316
198	0x3d55e187	0.052217033
199	0xbe9f674f	-0.31133506
200	0x3e331175	0.17487128
201	0xbd0049c8	-0.031320363
202	0x3e45d9ae	0.1932132
203	0xbc884e6d	-0.016638959
204	0x3e4d50aa	0.20050302
205	0x3d34f59e	0.04417955
206	0x3e2c8d5a	0.16850796
207	0xbe41a0c9	-0.18908991
208	0x3e3fa24c	0.18714255
209	0xbe20c608	-0.15700543
210	0x3da1e6a4	0.07905319
211	0x3e25b5ea	0.16182676
212	0xbed0c1f4	-0.40772974
213	0xbe4c4589	-0.199484
214	0x3d873ad2	0.06603016
215	0xbe9e7505	-0.30948654
216	0xbd9b0c84	-0.075707465
217	0x3e0ad570	0.13557982
218	0xbd8e6102	-0.069520965
219	0x3d66ecd1	0.05637819
220	0x3e64c991	0.22342516
221	0x3d807a68	0.06273347
222	0xbd43de6d	-0.047819544
223	0xbe3a5416	-0.18196139
224	0xbd8d2f46	-0.06893782
225	0x3df530c6	0.119721934
226	0x3e44ab2e	0.19205925
227	0xbe486aa6	-0.19571933
228	0xbd520a23	-0.0512792
229	0x3ec08f75	0.3760945
230	0xbde9470c	-0.11390504
231	0xbda1155f	-0.07865404
232	0xbc60767c	-0.013700124
233	0xbdc17c23	-0.09447505
234	0xbe1cad8f	-0.15300582
235	0x3d767023	0.060165536
236	0xbe82f46a	-0.25577098
237	0x3d948057	0.072510414
238	0xbd9e007e	-0.077149376
239	0x3dbda5e7	0.09260159
240	0x3dbdf21c	0.09274694
241	0x3e3b5a92	0.18296269
242	0x3dd2ce7a	0.102932885
243	0xbd56afe6	-0.052413844
244	0xbdddc6fc	-0.10828969
245	0xbc2fcf03	-0.010730508
246	0xbdf8a511	-0.12140859
247	0xbe84cb9e	-0.25936598
248	0x3e1d2269	0.15345158
249	0x3e2c6cb3	0.1683834
250	0xbecd48ce	-0.40094608
251	0x3d6898f2	0.056786485
252	0x3e3509d3	0.17679529
253	0x3d40e259	0.047090862
254	0xbea5d572	-0.32389408
255	0xbe4ad349	-0.19807161

bias f4 [256]
0	0xbed56e9a	-0.41685945
1	0xbec46adf	-0.38362786
2	0xbc3e32b6	-0.01160877
3	0xbe808359	-0.2510021
4	0xbe860748	-0.2617743
5	0xbe4e1d34	-0.20128328
6	0xbd6a43cc	-0.057193562
7	0xbe6fcbc3	-0.23417573
8	0xbf021a4b	-0.5082137
9	0xbe36a416	-0.17836031
10	0xbf360e45	-0.71115524
11	0xbe4dbee6	-0.20092353
12	0xbe5f6583	-0.21816067
13	0xbe9b8787	-0.30376837
14	0xbe35daf3	-0.17759304
15	0xbe0a285e	-0.13491961
16	0xbeb3602c	-0.3503431
17	0x3ddd1732	0.1079544
18	0xbdaa8162	-0.08325459
19	0xbd6a389d	-0.057182897
20	0xbe388d32	-0.18022612
21	0xbdc53af5	-0.09630386
22	0xbd9c287d	-0.0762491
23	0xbd886de1	-0.06661583
24	0xbe8b4760	-0.27202892
25	0xbe7820f6	-0.24231324
26	0xbe0523e4	-0.13001972
27	0xbef028bf	-0.46906087
28	0xbe2df376	-0.16987404
29	0xbcdda1fc	-0.02705478
30	0xbe8fa2c4	-0.28053868
31	0xbeb66efb	-0.35631546
32	0xbe21d5bc	-0.1580419
33	0xbefe7a42	-0.4970265
34	0xbeac2677	-0.33623096
35	0x3d4369fd	0.0477085
36	0xbdc1dbb2	-0.09465732
37	0xbe968b8b	-0.29403338
38	0xbdc3e2f0	-0.09564769
39	0xbedf0144	-0.43555653
40	0xbec4fe53	-0.38475284
41	0xbea23fb9	-0.31689242
42	0xbe38dc28	-0.18052733
43	0xbe182355	-0.14857228
44	0xbdb1081d	-0.086441256
45	0xbe05e10d	-0.13074131
46	0xbdef5267	-0.11685639
47	0xbd8ee217	-0.06976717
48	0xbea1626e	-0.31520408
49	0xbe0e53b6	-0.1389912
50	0xbe6700b3	-0.2255886
51	0xbe868372	-0.2627216
52	0xbe41495e	-0.18875644
53	0xbe9c9777	-0.30584309
54	0xbe15b977	-0.1462153
55	0xbedd466a	-0.43217784
56	0xbeb8e585	-0.3611261
57	0xbdf9ab46	-0.12190871
58	0xbdc591fa	-0.096469834
59	0xbda64594	-0.0811874
60	0x3d7cdf4f	0.0617364
61	0x3d089108	0.033341438
62	0xbed5b77d	-0.41741553
63	0xbe1dbf45	-0.15404995
64	0xbdafa895	-0.08577076
65	0xbe3360ba	-0.17517367
66	0xbe838424	-0.25686753
67	0xbe525ac5	-0.20542438
68	0xbf018efd	-0.5060881
69	0xbd8145a2	-0.063121095
70	0xbd4d066f	-0.050054964
71	0xbe8d9bbf	-0.27657887
72	0xbe186641	-0.14882757
73	0xbecc435d	-0.39895144
74	0xbeb3d422	-0.35122782
75	0xbe733703	-0.23751454
76	0xbea70221	-0.32618812
77	0xbea75249	-0.32679966
78	0xbe3ee608	-0.18642437
79	0xbeda7356	-0.4266612
80	0xbd9815d7	-0.074260406
81	0xbec755ef	-0.3893275
82	0xbe043cd1	-0.12913825
83	0xbed0658b	-0.4070247
84	0xbecb33f3	-0.39688072
85	0xb91cf71b	-0.00014969373
86	0xbe8c7dfe	-0.27439874
87	0xbe33ea82	-0.17569926
88	0xbe80ee75	-0.25181928
89	0xbdc5026f	-0.09619605
90	0x3df90f26	0.121610925
91	0xbef41cad	-0.47678128
92	0xbde06f3d	-0.10958717
93	0xbe621d41	-0.22081472
94	0xba3bbbbf	-0.000716146
95	0xbe090fc4	-0.1338492
96	0x3cd39056	0.02582566
97	0xbe6b68a5	-0.22989137
98	0xbd920624	-0.071300775
99	0xbed98f28	-0.42492032
100	0xbe145d5f	-0.14488743
101	0xbe1c094a	-0.15237918
102	0xbeaf2062	-0.34204394
103	0xbea9e86a	-0.3318513
104	0xbe96ec15	-0.2947699
105	0xbe933105	-0.28748336
106	0xbe663d92	-0.22484425
107	0xbf266686	-0.6500019
108	0xbe49bee6	-0.19701728
109	0xbe623716	-0.22091326
110	0xbdb0abc5	-0.086265124
111	0xbe3dc88e	-0.18533537
112	0xbdd410c6	-0.10354762
113	0xbeb51636	-0.35368508
114	0xbf0b0100	-0.542984
115	0xbeae5b27	-0.3405392
116	0xbe60f0e9	-0.219669
117	0xbea2f21b	-0.31825337
118	0x3db557d4	0.088546425
119	0xbe7c2d50	-0.2462666
120	0xbe3503c6	-0.1767722
121	0xbe2202f7	-0.15821443
122	0xbd8e104c	-0.06936702
123	0xbefa9409	-0.48941067
124	0xbec13415	-0.37735048
125	0xbee8e137	-0.45484325
126	0xbe4f1ee3	-0.20226626
127	0xbe1da361	-0.15394355
128	0xbe84dda8	-0.2595036
129	0xbe2f6fcf	-0.17132495
130	0xbe76c159	-0.24097194
131	0xbe555664	-0.20833737
132	0xbe1b0428	-0.15138304
133	0xbdf2ba4c	-0.118519396
134	0xbeb6e95b	-0.3572491
135	0xbdea8b45	-0.11452345
136	0xbdc1403d	-0.094360806
137	0xbee51f10	-0.4475026
138	0xbd2cf1fa	-0.042222954
139	0xbe05cced	-0.13066454
140	0x3db017a9	0.08598263
141	0xbe40ddda	-0.1883463
142	0xbc10910d	-0.008823645
143	0xbea868ad	-0.3289236
144	0x3cd0799f	0.025448618
145	0xbdc84561	-0.09778858
146	0xbeb87e3c	-0.3603381
147	0xbdc2c6e0	-0.09510589
148	0xbe13c63b	-0.14431088
149	0xbf0a83ea	-0.54107535
150	0xbdaedcb7	-0.08538192
151	0xbd2e79c6	-0.0425966
152	0xbd701637	-0.058614936
153	0xbec9cb50	-0.39412928
154	0xbe9976d1	-0.29973462
155	0xbebb1f1c	-0.36547172
156	0x3cf6e876	0.030140143
157	0xbe816d98	-0.25278926
158	0xbdf8bbce	-0.12145196
159	0xbd996795	-0.0749046
160	0xbe33c7a9	-0.17556633
161	0xbd848444	-0.0647054
162	0xbecaee5d	-0.39634982
163	0xbeb80d8d	-0.35947838
164	0xbdb6e139	-0.089296766
165	0xbe1f1b04	-0.1553765
166	0xbea1e2b7	-0.31618282
167	0xbf051840	-0.5199013
168	0xbe89d7bf	-0.26922414
169	0xbe56a2d5	-0.20960553
170	0xbe733bc3	-0.23753266
171	0xbd637945	-0.055535574
172	0xbe4f357c	-0.20235246
173	0xbd7d55e9	-0.06184951
174	0xbecc7946	-0.39936274
175	0xbea8781c	-0.32904136
176	0xbde7f309	-0.11325652
177	0xbe3960f6	-0.18103394
178	0xbe2ab0ea	-0.1666905
179	0xbded4b04	-0.11586574
180	0xbe167282	-0.14692119
181	0xbe6febb0	-0.23429751
182	0xbe8e37b1	-0.27776864
183	0xbe73baf5	-0.23801787
184	0xbe8a0dc3	-0.26963624
185	0xbe4e167e	-0.20125768
186	0xbe9cdda6	-0.30637854
187	0xbec58870	-0.38580656
188	0xbd3442d5	-0.04400905
189	0xbe376b64	-0.1791206
190	0xbe93c217	-0.28859016
191	0xbece508e	-0.40295833
192	0xbd86da52	-0.0658461
193	0xbe2d51eb	-0.1692578
194	0xbf048643	-0.5176737
195	0xbe8767b3	-0.26446304
196	0xbe87900e	-0.26477093
197	0xbeb0356f	-0.34415767
198	0xbdec8cd6	-0.115503
199	0x3e3991d2	0.18122032
200	0xbe5ed1e7	-0.21759759
201	0xbdc449dd	-0.09584401
202	0xbe21f0b7	-0.15814482
203	0xbee3c64b	-0.44487223
204	0xbdaab697	-0.083356075
205	0xbe1a3963	-0.15060954
206	0xbe1ca023	-0.15295462
207	0xbea0af77	-0.3138387
208	0xbd59f0e9	-0.053208265
209	0xbe765538	-0.24055946
210	0xbe274289	-0.16333975
211	0xbd9c8b52	-0.07643761
212	0xbe4660b7	-0.19372831
213	0xbe1e879a	-0.15481415
214	0xbe981910	-0.2970662
215	0xbe4cfe4b	-0.2001888
216	0xbe3a3cfe	-0.18187329
217	0xbeb2fb9c	-0.34957588
218	0xbe24eae2	-0.16105226
219	0xbe81125f	-0.2520933
220	0xbe8f7185	-0.28016296
221	0xbea224bf	-0.3166866
222	0xbe960666	-0.29301757
223	0x3b748ea3	0.0037316463
224	0xbedc7c79	-0.43063715
225	0xbda57574	-0.08079043
226	0xbe6b5ecc	-0.22985381
227	0xbe96b3b2	-0.29433972
228	0xbf26c836	-0.6514925
229	0xbe54da52	-0.20786408
230	0xbec0441f	-0.37551972
231	0xbf1257ba	-0.5716511
232	0xbe7e9076	-0.24859795
233	0xbe8565e5	-0.26054302
234	0x3e843753	0.2582346
235	0xbc2a14cc	-0.010380935
236	0xbe505de4	-0.20348316
237	0xbdd8365d	-0.10557244
238	0x3cfd81e5	0.030945728
239	0xbdf14a28	-0.11781722
240	0xbe3b679f	-0.18301247
241	0xbf0484fe	-0.5176543
242	0xbec3c332	-0.3823486
243	0xbe2ed5a1	-0.1707368
244	0xbe002a86	-0.12516221
245	0xbe2d6a67	-0.1693512
246	0xbe2b969d	-0.16756673
247	0xbe79f7f9	-0.24411
248	0xbe29c4c8	-0.16578972
249	0xbef26357	-0.47341415
250	0xbe8bc319	-0.27297285
251	0xbd46059e	-0.0483452
252	0xbe2140df	-0.15747403
253	0xbdcd6f7b	-0.10031029
254	0xbe2b44bc	-0.16725439
255	0xbe52a23d	-0.20569701

weight f4 [128, 256]
0	0x3c999162	0.018746082
1	0xbe398943	-0.18118767
2	0xbe4f2dd9	-0.20232333
3	0x3e0cff54	0.13769275
4	0xbeb5e27f	-0.35524365
5	0xbd38498e	-0.044992022
6	0xbe77ddec	-0.2420575
7	0x3d8fedd6	0.070277855
8	0x3c927528	0.01787813
9	0xbc76e851	-0.015070037
10	0x3da6c508	0.081430495
11	0x3e0b6e15	0.13616212
12	0xbe82633a	-0.2546633
13	0x3c356c76	0.011073222
14	0xbd8c9e6e	-0.068661556
15	0x3c3587fc	0.0110797845
16	0xbe29ef16	-0.1659511
17	0xbe64dfa8	-0.22350943
18	0x3db0c661	0.08631588
19	0x3d2a4bfb	0.041576367
20	0x3df4009a	0.11914177
21	0xbd78365f	-0.060598727
22	0x3e00e608	0.1258775
23	0x3dba401c	0.09094259
24	0x3e029ff8	0.12756336
25	0xbd3d6bb7	-0.046245303
26	0xbe187739	-0.1488923
27	0x3de26181	0.11053754
28	0xbc4a598a	-0.012350449
29	0x3e3d4bd4	0.18485957
30	0x3d9fa2e3	0.0779474
31	0x3eb2a622	0.34892374
32	0x3e624dfa	0.22100058
33	0x3e26550e	0.16243383
34	0xbe83aaf3	-0.2571636
35	0x3d2aaf56	0.04167112
36	0x3de166a8	0.11005908
37	0xbebf9906	-0.37421435
38	0x3ce1e83f	0.027576564
39	0x3e690bac	0.22758359
40	0xbd4c52bc	-0.04988359
41	0xbdbe5ff9	-0.09295649
42	0x3cbe06ae	0.023196544
43	0x3e202774	0.1564005
44	0x3d8a16d3	0.067426346
45	0x3d00f25b	0.03148113
46	0xbe53bfd9	-0.20678653
47	0xbd8db6f9	-0.06919665
48	0xbdfa130d	-0.12210665
49	0xbc601186	-0.013676053
50	0xbd113efd	-0.03546046
51	0xbc22e5b9	-0.009942465
52	0x3d0756f9	0.033041928
53	0x3e53e050	0.20691037
54	0xbe2cdc76	-0.16880974
55	0x3cfea1b9	0.031082975
56	0x3cb141fa	0.021637905
57	0x3cdaab42	0.02669299
58	0xbcaab975	-0.020840386
59	0xbbaeecbe	-0.0053382805
60	0xbd8a4272	-0.06750955
61	0xbdc7f928	-0.0976432
62	0xbcb73614	-0.022364654
63	0xbc86e1f2	-0.016465161
64	0x3e14162c	0.14461583
65	0x3e278c04	0.16362005
66	0x3ddc27a8	0.10749751
67	0x3c9cc13a	0.019135106
68	0xbb6a2dbc	-0.0035732826
69	0x3e0f5198	0.1399597
70	0xbdc170b8	-0.094453275
71	0x3ce1d599	0.027567672
72	0x3d5134bb	0.05107568
73	0xbd7ac8e7	-0.06122675
74	0xbcd4e6b7	-0.02598892
75	0x3d10639f	0.035251256
76	0xbe27d373	-0.16389255
77	0x3d1b77c3	0.03795601
78	0xbdf124ec	-0.117746204
79	0xbd784309	-0.060610805
80	0xbe13c833	-0.14431839
81	0xbdae437d	-0.08508966
82	0xbe2d82e9	-0.1694447
83	0xbd7c0288	-0.06152585
84	0xbd8b7d7c	-0.068110436
85	0x3e103d5a	0.14085904
86	0xbe18a617	-0.14907108
87	0xbc3ffb71	-0.011717663
88	0x3d5ebfcf	0.05438214
89	0xbc11b114	-0.008892316
90	0xbd22213d	-0.03958248
91	0xbd4064ff	-0.046971317
92	0x3d584655	0.05280145
93	0xbe591960	-0.21201086
94	0xbc39ab1f	-0.011332302
95	0x3e45fcbd	0.19334693
96	0x3dfa4c68	0.122216046
97	0x3cf740d0	0.030182272
98	0x3da62242	0.08112003
99	0xbdf65c89	-0.120293684
100	0xbe89008d	-0.26758233
101	0x3de2dd86	0.110774085
102	0xbe004767	-0.12527238
103	0xbc9bf787	-0.019038929
104	0xbd6b5a25	-0.057459015
105	0xbddef792	-0.10887064
106	0x3d9875de	0.074443564
107	0x3da33c8f	0.07970535
108	0x3dba99bf	0.09111356
109	0xbcfbc8e5	-0.030735442
110	0xbe753009	-0.23944105
111	0xbdb24e08	-0.087062895
112	0x3d7755a1	0.060384396
113	0x3e8894b7	0.2667596
114	0x3e121e06	0.14269266
115	0xbd9e9a32	-0.07744254
116	0xbd0d7cae	-0.034542732
117	0xbdf5d6a4	-0.1200383
118	0x3dd7b21f	0.10532021
119	0xbdb08869	-0.08619768
120	0x3e0d14cc	0.13777465
121	0xbe60a496	-0.21937785
122	0xbe266e78	-0.16253078
123	0xbe36904d	-0.17828484
124	0xbc500a12	-0.012697713
125	0x3e817331	0.25283197
126	0x3cc739fd	0.024319643
127	0x3e088b28	0.13334334
128	0x3e3936fc	0.18087381
129	0xbb4b64e1	-0.003103547
130	0x3dfa6bfe	0.12227629
131	0x3e2c1c22	0.16807607
132	0xbd3a7c92	-0.045528956
133	0xbe761dbd	-0.24034782
134	0xbcff71ac	-0.031182133
135	0xbdcca1e1	-0.099918135
136	0x3c837841	0.016048552
137	0xbcb2b0c4	-0.021812804
138	0xbd5c9994	-0.0538574
139	0x3cc36a3b	0.023854366
140	0x3e4a3b3f	0.19749163
141	0xbe7b1860	-0.24521017
142	0x3d693708	0.056937248
143	0x3c43f038	0.011959128
144	0xbd3280d4	-0.04357989
145	0xbdbc67e3	-0.09199502
146	0x3d227128	0.039658695
147	0xbce26dbe	-0.02764022
148	0xba69f897	-0.00089252874
149	0x3d003d4e	0.031308465
150	0x3dc61036	0.09671061
151	0x3e7148f3	0.23562984
152	0x3de3031e	0.11084579
153	0x3d1af956	0.03783544
154	0xbda2315e	-0.07919572
155	0x3e55f49b	0.20894091
156	0xbc7730db	-0.015087332
157	0xbdcb6725	-0.09931783
158	0x3d3454d2	0.044026203
159	0x3d4ce470	0.050022542
160	0x3d047ad7	0.03234371
161	0x3d58d896	0.052940927
162	0xbdc6ffb5	-0.09716741
163	0xbb4ce8b2	-0.0031266627
164	0xbc107bef	-0.008818611
165	0x3e316266	0.17322692
166	0xbe1e9166	-0.15485153
167	0xbd32bd07	-0.0436373
168	0xbc613cd7	-0.0137474155
169	0x3e209050	0.15680051
170	0x3dd54fb7	0.10415595
171	0x3c80f1de	0.015740331
172	0xbd6007c9	-0.054694925
173	0x3e74bdf3	0.23900585
174	0x3d4f841c	0.0506631
175	0x3e178652	0.14797333
176	0xbe0d832a	-0.13819566
177	0xbb836c18	-0.0040106885
178	0x3c886c60	0.01665324
179	0xbd0e6229	-0.03476158
180	0xbdfcf46e	-0.12351309
181	0x3dbe37cc	0.09287986
182	0x3d955522	0.072916284
183	0x3e976130	0.29566336
184	0xbcd79289	-0.02631499
185	0xbe99963d	-0.29997435
186	0x3e29451b	0.16530268
187	0x3d332fed	0.043746877
188	0xbe2d6155	-0.1693166
189	0xbdb5556c	-0.088541836
190	0x3dbea2fe	0.09308432
191	0x3e1ee31a	0.1551632
192	0xbe0e7dae	-0.1391513
193	0xbcac0b49	-0.021001475
194	0x3d1622eb	0.036654394
195	0x3daf6b8e	0.08565436
196	0x3d929d50	0.07158911
197	0xbdb1bbd3	-0.08678403
198	0x3ec03174	0.3753773
199	0xbe020eaf	-0.12700914
200	0x3dfde16c	0.123965114
201	0xbdeb10d6	-0.114778206
202	0x3d771d09	0.060330424
203	0xbdc5427a	-0.0963182
204	0xbdebfbfe	-0.11522673
205	0x3d91d8f0	0.07121456
206	0xbe1daab2	-0.15397146
207	0xbda66c78	-0.081261575
208	0x3c65ef41	0.014034093
209	0xbe34e707	-0.17666255
210	0xbe29bf8a	-0.16576973
211	0xbd7ed628	-0.062215954
212	0x3e8e254f	0.2776284
213	0x3e0403be	0.12892053
214	0x3d162472	0.03665585
215	0x3da02267	0.07819062
216	0x3d4ce295	0.050020773
217	0x3e20d663	0.15706782
218	0xbe39c903	-0.18143086
219	0x3d0b67b0	0.03403443
220	0xbe2d7fae	-0.16943237
221	0x3e195a18	0.14975774
222	0x3cf4b837	0.029872997
223	0xbdd035ea	-0.10166533
224	0xbea0d5f1	-0.31413224
225	0x3dd1be50	0.10241377
226	0x3ddd2e2b	0.107998215
227	0xbdbc2f4f	-0.09188711
228	0x3cbc4d94	0.02298621
229	0x3e141b91	0.14463641
230	0x3df51809	0.11967475
231	0x3d744ab4	0.059641555
232	0x3dea6ae0	0.11446166
233	0xbd9579ac	-0.07298598
234	0xbc100f6b	-0.008792738
235	0x3e514123	0.20435004
236	0xbe814638	-0.25248885
237	0xbdd3c855	-0.10340945
238	0x3dd7e761	0.10542179
239	0x3d13c697	0.036078062
240	0x3e310b3d	0.17289443
241	0x3e9bfead	0.3046774
242	0xbe0f0b20	-0.13969088
243	0xbe334999	-0.17508544
244	0x3e0ba7d7	0.13638245
245	0x3ddb4fb6	0.10708563
246	0xbd52740f	-0.051380213
247	0xbc80939d	-0.015695387
248	0x3d8724b1	0.06598795
249	0xbcab02ac	-0.020875297
250	0x3e2ca8f7	0.1686133
251	0xbe8e16b0	-0.27751684
252	0xbd2c7030	-0.042099178
253	0x3df7c2d6	0.12097709
254	0xbe44e596	-0.19228205
255	0x3db999e6	0.09062557

bias f4 [128]
0	0xbd96b412	-0.073585644
1	0xbe1108c8	-0.14163506
2	0xbe4f88c4	-0.20267016
3	0xbe85401e	-0.2602548
4	0xbb236d8e	-0.0024937126
5	0xbda6ba4b	-0.08141001
6	0xbe58baad	-0.21164961
7	0xbe0b9536	-0.13631138
8	0xbda592a7	-0.08084612
9	0xbe20bb88	-0.15696537
10	0xbeacaed6	-0.3372714
11	0xbe75a922	-0.239903
12	0xbdad22ac	-0.08453879
13	0xbe2a6522	-0.16640142
14	0xbe528f3f	-0.20562457
15	0xbd84ae2f	-0.064785354
16	0xbe30a340	-0.17249775
17	0xbec8e88c	-0.3923992
18	0xbe09302b	-0.13397281
19	0xbe8558ff	-0.2604446
20	0x3d598c64	0.053112403
21	0xbd4addec	-0.049528047
22	0xbe0ee5ca	-0.13954845
23	0xbe3a284f	-0.18179439
24	0xbe5b6f98	-0.21429288
25	0xbe84b20c	-0.2591709
26	0xbdc9d7cd	-0.09855614
27	0xbe1fe880	-0.15616035
28	0xbe423ac3	-0.18967728
29	0xbdd69bc3	-0.10478928
30	0x3dc4a16d	0.09601102
31	0xbdcf38e0	-0.1011827
32	0xbeabe820	-0.33575535
33	0x3c87fb5e	0.016599353
34	0xbe2aa011	-0.16662623
35	0xbe17d954	-0.14828998
36	0xbc911d93	-0.017714297
37	0xbdbbdfcc	-0.09173545
38	0xbefa3d97	-0.48875114
39	0xbe267144	-0.16254145
40	0xbe27626f	-0.16346143
41	0xbda6c942	-0.08143856
42	0xbdbf8c23	-0.09352901
43	0xbe5d42d5	-0.21607526
44	0xbedd28ed	-0.43195286
45	0xbed27bf6	-0.411102
46	0xbe1bdf62	-0.15221933
47	0x3c868050	0.016418606
48	0x3c9f8fa9	0.019477682
49	0xbe3143b4	-0.17310983
50	0xbd315f25	-0.043303628
51	0xbdc066e8	-0.09394628
52	0xbe1476f1	-0.14498498
53	0xbeb77e93	-0.35838756
54	0xbe027d93	-0.12743215
55	0xbe90ae35	-0.2825791
56	0xbe4a9cef	-0.19786428
57	0xbe15e697	-0.14638744
58	0xbee348b7	-0.44391415
59	0xbdec7576	-0.115458414
60	0xbe1c5dee	-0.15270206
61	0xbda3d18f	-0.079989545
62	0xbd001a8e	-0.031275325
63	0xbde1b781	-0.11021329
64	0xbe1e48bd	-0.15457435
65	0xbee0fc9e	-0.43942732
66	0xbd4dfa18	-0.050287336
67	0xbc340d76	-0.010989537
68	0xbeee8c02	-0.46591192
69	0xbf0712c0	-0.52762985
70	0xbe7087a3	-0.23489241
71	0xbe466549	-0.19374575
72	0xbea3205a	-0.3186062
73	0xbda76a5e	-0.08174585
74	0xbe317378	-0.17329204
75	0xbe54bac8	-0.20774376
76	0xbe82cb37	-0.25545666
77	0xbe843571	-0.25822023
78	0xbdbf2aca	-0.09334333
79	0xbce7b314	-0.028283633
80	0xbe2f252c	-0.17104024
81	0xbe2aee35	-0.16692431
82	0xbe3c65a1	-0.18398143
83	0xbea1068e	-0.31450313
84	0xbe163a13	-0.14670591
85	0xbe9a4479	-0.30130365
86	0xbe64280d	-0.22280903
87	0xbe808557	-0.2510173
88	0xbe1588e6	-0.14603004
89	0xbd91c7dc	-0.07118198
90	0xbe805965	-0.25068203
91	0xbdf8876a	-0.12135203
92	0xbd9f75d2	-0.07786144
93	0xbe415f15	-0.18883927
94	0xbd87f2e5	-0.06638125
95	0xbe45ba0e	-0.19309255
96	0xbdd6ce79	-0.104886
97	0xbe9833ef	-0.29727122
98	0xbe03dee9	-0.12878002
99	0xbe2e9682	-0.17049602
100	0xbef1a130	-0.4719329
101	0xbeacdd0d	-0.33762398
102	0xbe35be88	-0.17748463
103	0xbebe1d44	-0.37131703
104	0xbedd5fed	-0.43237248
105	0xbe238b39	-0.15971078
106	0xbde24f1a	-0.11050244
107	0xbf192244	-0.5981791
108	0xbe410571	-0.18849732
109	0xbe156aed	-0.1459157
110	0xbdcd9731	-0.10038603
111	0xbe25ce05	-0.16191871
112	0xbca1087a	-0.019657362
113	0xbd98af00	-0.074552536
114	0x3d29e694	0.041479662
115	0xbde6df0f	-0.11273014
116	0xbdd04594	-0.10169521
117	0xbea9f2ee	-0.33193153
118	0xbd2072f2	-0.03917212
119	0xbe605566	-0.21907577
120	0xbe28f1ae	-0.16498443
121	0xbe5b6891	-0.21426608
122	0xbd1351d6	-0.035966717
123	0xbe145384	-0.14484984
124	0xbddccb57	-0.107809715
125	0xbe8d51a5	-0.27601352
126	0xbed193bc	-0.40933025
127	0xbe28b1c6	-0.16474065

weight f4 [16, 128]
0	0xbd1f0666	-0.03882446
1	0xbd35220c	-0.044221923
2	0x3cacbeb3	0.021087026
3	0x3dc7b229	0.09750778
4	0x3c3bfc1a	0.01147368
5	0x3e4832a5	0.1955057
6	0xbd3f091a	-0.04663954
7	0x3cfddf55	0.030990282
8	0x3d836530	0.06415784
9	0x3de2af72	0.1106862
10	0xbd1fac7f	-0.038982864
11	0x3ce5e2cf	0.028062252
12	0xbca2ba8d	-0.019864345
13	0x3b99c90d	0.0046931566
14	0xbcc87b73	-0.024472928
15	0x3cd42700	0.025897503
16	0xbc89fce4	-0.01684422
17	0xbd1bf590	-0.038075984
18	0x3c824637	0.015902622
19	0x3cc16bf0	0.023611039
20	0x3d1b6c32	0.03794498
21	0x3d5b8305	0.053591747
22	0x3c49f4a4	0.012326393
23	0xbc9b98d5	-0.018993774
24	0xbdcdaf71	-0.100432284
25	0x3d4e6801	0.050392155
26	0xbe13c886	-0.14431962
27	0x3da5dc07	0.080986075
28	0x3c477a4f	0.012175157
29	0xbd862bb4	-0.065513045
30	0xbcb17857	-0.021663828
31	0xbd323077	-0.04350325
32	0x3df2de68	0.11858827
33	0xba69d9ac	-0.000892068
34	0xbd2a169f	-0.04152548
35	0xbce06209	-0.027390497
36	0x3dfd9db4	0.12383595
37	0xbda10812	-0.078628674
38	0x3cc45068	0.023964122
39	0xbcf5c8dc	-0.030003004
40	0x3d9d9251	0.07693923
41	0x3c57a529	0.013161936
42	0xbce27ab6	-0.027646404
43	0x3e1b22f4	0.15150052
44	0xbd5352b3	-0.05159254
45	0xbd93a953	-0.072100304
46	0xbd10c392	-0.03534276
47	0x3c18ef32	0.009334372
48	0x3c98f632	0.018672083
49	0x3d73f85b	0.059563022
50	0xbc9a38c1	-0.01882589
51	0x3c52d4d2	0.012868123
52	0xbca52b50	-0.020162255
53	0xbdcbd684	-0.09953025
54	0x3c8f9468	0.01752682
55	0x3d4e2c9e	0.05033552
56	0x3c881f84	0.01661659
57	0x3c3ad67f	0.011403679
58	0x3c5c442c	0.013443988
59	0xbc4d8e21	-0.012546093
60	0x3d1b719b	0.03795014
61	0x3c6b48f5	0.014360656
62	0xbd5a760e	-0.053335242
63	0xbd107073	-0.03526349
64	0x3d66b217	0.056322183
65	0xbc4d8d5a	-0.012545908
66	0x3d0da36a	0.034579672
67	0x3c05483a	0.008134896
68	0xbd952701	-0.0728283
69	0x3d1f264e	0.03885489
70	0x3cc6fc0e	0.02429011
71	0xbbab7344	-0.0052322466
72	0xbdb546c9	-0.08851392
73	0xba375a5b	-0.000699436
74	0xbd2d3986	-0.042291187
75	0x3cdae017	0.026718182
76	0x3d94764b	0.07249125
77	0xbd57b5f4	-0.05266376
78	0xbc931ed7	-0.017959042
79	0x3bca821c	0.006180061
80	0x3de4776c	0.111555904
81	0xbc2af73b	-0.010434921
82	0xbcbe6dd2	-0.023245726
83	0x3da2f8c6	0.07957606
84	0xbdafe640	-0.085888386
85	0xbd368bb6	-0.044566832
86	0x3d3157bb	0.043296557
87	0x3b91db0e	0.004451162
88	0x3cd29246	0.025704514
89	0xbd62b750	-0.0553506
90	0xbceb4b32	-0.02872238
91	0xbcedfc1f	-0.029050885
92	0xbc896b3b	-0.016774764
93	0xbcb09633	-0.021555996
94	0x3c6b3a17	0.014357111
95	0xbd28a645	-0.041174192
96	0x3d735e1d	0.059415925
97	0x3dfb511a	0.12271328
98	0xbcef59fd	-0.029217714
99	0xbd2bbead	-0.04192989
100	0xbd93b6b8	-0.07212585
101	0xbc17475a	-0.00923332
102	0xbe0674e6	-0.1313053
103	0x3d97a6b6	0.074048445
104	0x3a572043	0.00082064065
105	0x3d4d93b2	0.05018968
106	0xbc60f70d	-0.0137307765
107	0x3d08475a	0.03327117
108	0xbd2bb998	-0.041925043
109	0x3c095f64	0.008384559
110	0x3d407163	0.046983134
111	0x3d140d1d	0.03614532
112	0x3bd2f8c9	0.006438349
113	0x3ccf2e15	0.025290528
114	0xbb1e4553	-0.0024150207
115	0xbd6b9267	-0.057512667
116	0xbcda5d3b	-0.026655784
117	0xbc9e1c40	-0.01930058
118	0xbd51d939	-0.05123255
119	0xbc41bd6e	-0.011824949
120	0xbd325072	-0.04353375
121	0x3ca9d107	0.020729555
122	0xbc7d6c5a	-0.015467728
123	0xbdfc6e79	-0.123257585
124	0x3d6f8ea4	0.058485642
125	0x3b9f246c	0.0048566367
126	0x3d57ad2f	0.052655395
127	0xbd49c817	-0.049263086
128	0xbd0e40cf	-0.034729775
129	0xbd22def4	-0.039763406
130	0x3d3fedc9	0.04685763
131	0xbdc0c678	-0.09412855
132	0xbd02c190	-0.031922877
133	0xbce82830	-0.028339475
134	0xbb7be91a	-0.00384385
135	0x3cb40419	0.02197461
136	0xbd57a648	-0.052648813
137	0x3d1d815a	0.038453437
138	0xbbc0edba	-0.005887714
139	0x3d23e3a1	0.040012006
140	0x3b357aa6	0.0027691512
141	0xba30374d	-0.00067221076
142	0xbd7b4a7c	-0.06135033
143	0xbd7507b0	-0.059821784
144	0xbd3992cf	-0.045306023
145	0xbd7fc087	-0.062439468
146	0xbb620664	-0.0034488672
147	0xbd95e3eb	-0.073188625
148	0xbd835f49	-0.064146586
149	0x3cc51072	0.024055693
150	0x3d7ac1f1	0.061220113
151	0x3b37e575	0.002806035
152	0xbda15fb0	-0.07879579
153	0x3c4dc839	0.012559944
154	0xbdf947ec	-0.12171921
155	0xbe04bca6	-0.12962589
156	0xbc7bcb70	-0.0153683275
157	0xbc7119a8	-0.01471559
158	0x3c73d8cc	0.014883231
159	0xbcc899e5	-0.024487445
160	0x3cb9430b	0.022614976
161	0x3ddfce86	0.10928063
162	0x3df668ce	0.12031709
163	0x3daf7082	0.08566381
164	0x3c01a8fc	0.007913824
165	0x3a85255d	0.001015823
166	0xbd02e54b	-0.031956952
167	0xbc6efcaa	-0.014586607
168	0x3e079743	0.13241296
169	0x3d721cef	0.059109624
170	0xbd1b96c6	-0.037985586
171	0xbc831a01	-0.01600361
172	0x3d80b888	0.062851965
173	0xbd25d2cb	-0.04048423
174	0xbc9c8c66	-0.019109916
175	0x3c57a55c	0.013161983
176	0x3ca67231	0.020318123
177	0xbc06ee59	-0.008235537
178	0xbc6f9bac	-0.014624517
179	0xbd2ec484	-0.04266788
180	0x3d05f4a0	0.032703996
181	0x3d1902ec	0.037356302
182	0xbd4556a3	-0.048178326
183	0x3cd67c11	0.026182206
184	0x3c2619f5	0.010138025
185	0x3d0bf114	0.034165457
186	0x3d4ab04d	0.04948454
187	0xbc193246	-0.009350365
188	0x3c215dbc	0.009849008
189	0x3d2d8568	0.042363554
190	0x3ccceab0	0.025014251
191	0x3b43f0bf	0.0029898135
192	0xbc3e864b	-0.011628698
193	0x3d4b77ac	0.049674675
194	0xbd6c85ea	-0.057744898
195	0xbc2ec453	-0.0106669245
196	0x3db3e22b	0.087833725
197	0x3dbdd5c3	0.092692874
198	0x3d634734	0.055487826
199	0xbc821ca6	-0.015882801
200	0x3cba11c0	0.022713542
201	0x3ac34283	0.0014897141
202	0x3d1b2a7c	0.037882313
203	0x3cdd6074	0.027023531
204	0xbd2d0bc5	-0.042247552
205	0x3d939b0c	0.07207307
206	0xba765106	-0.00093962287
207	0xbc7bf59f	-0.015378385
208	0xbe031d97	-0.12804256
209	0xbd2f7f0c	-0.04284577
210	0xbccc7999	-0.024960326
211	0xbd422194	-0.047395304
212	0x3bd5371f	0.006506815
213	0x3cdeb311	0.027184995
214	0xbd08f9c0	-0.033441305
215	0x3d7ac022	0.06121839
216	0xbb9a1661	-0.004702375
217	0xbd6412e1	-0.055682067
218	0xbcf1dd64	-0.029524513
219	0xba847766	-0.0010106384
220	0x3bba8eec	0.005693307
221	0x3d10767e	0.035269253
222	0x3c1a6133	0.009422588
223	0x3d4306a7	0.047613766
224	0x3d5975a5	0.05309071
225	0xbcb6b2cf	-0.02230206
226	0x3c33958f	0.0109609505
227	0x3c62a7d4	0.013833959
228	0x3dffdc3c	0.12493178
229	0xbc8c83d9	-0.017152714
230	0xbcc91666	-0.024546813
231	0x3d2d888c	0.04236655
232	0xbc68edc8	-0.014216848
233	0xbcfad189	-0.030617492
234	0x3be5ccbd	0.007012932
235	0x3d7405bb	0.059575778
236	0x3c4a52b5	0.01234882
237	0xbd859f40	-0.06524515
238	0xbb5250f4	-0.003209171
239	0xbd79ef4b	-0.061019223
240	0x3c2fc1d7	0.010727367
241	0xbd8ada9a	-0.06779976
242	0x3c82c067	0.015960885
243	0xbcafacbe	-0.021444675
244	0x3bc686b0	0.0060585365
245	0x3d1e41a4	0.03863682
246	0xbcca3623	-0.024684018
247	0xbd42360e	-0.04741483
248	0x3c9daca2	0.019247357
249	0x3bdc6294	0.0067256186
250	0xbe0ceadb	-0.13761465
251	0x3e6c87e3	0.23098712
252	0xbd4ec8f9	-0.05048463
253	0x3e1ff8a1	0.15622188
254	0x3d329168	0.0435957
255	0x3d064822	0.032783635

bias f4 [16]
0	0x3dee3595	0.11631314
1	0xbddcecaa	-0.107873276
2	0xbd10fcb5	-0.03539725
3	0xbdfd2938	-0.123613775
4	0xbdde089b	-0.10841485
5	0x3d69d792	0.05709035
6	0x3d956ef1	0.07296551
7	0x3e485c54	0.1956647
8	0xbe04f025	-0.12982233
9	0xbcf6009b	-0.030029586
10	0x3dc7ffc8	0.09765583
11	0xbdbb7d56	-0.09154765
12	0x3d33c002	0.043884285
13	0x3e4d3d1e	0.20042846
14	0x3d5fea91	0.05466706
15	0x3d8b0ce0	0.06789565
