policy/go2w/robot_lab/policy.pt (torch, 796120 bytes, 8 tensors)

weight f4 [512, 57]
0	0x3e374686	0.17897996
1	0xbecb6e5d	-0.39732638
2	0xbed94d7a	-0.42441922
3	0x3e224090	0.15844941
4	0xbf02ae89	-0.5104757
5	0xbda27eee	-0.07934366
6	0xbeea39c9	-0.45747212
7	0xbda64fd2	-0.08120693
8	0xbd0b0d1c	-0.03394805
9	0x3ea3d4a8	0.3199818
10	0xbefd335a	-0.4945324
11	0xbd6557e4	-0.055992022
12	0xbe3701ca	-0.17871776
13	0x3f5c984c	0.86169887
14	0x3e6df16d	0.23236628
15	0xbddbb84c	-0.10728511
16	0xbea58bc9	-0.3233321
17	0xbc8bcb76	-0.017064791
18	0xbeb6e90e	-0.35724682
19	0xbe0ba294	-0.13636237
20	0xbe9953ae	-0.29946655
21	0x3e6177d0	0.22018361
22	0xbd7aae5b	-0.061201435
23	0xbf04f83a	-0.51941264
24	0xbd46e982	-0.048562534
25	0x3d43e768	0.047828108
26	0x3e75e835	0.24014361
27	0xbeafc4a4	-0.34329712
28	0x3e5081b0	0.20361972
29	0x3e3ab856	0.18234381
30	0x3e812f43	0.2523137
31	0x3ea3132f	0.31850573
32	0x3ec7d438	0.39029098
33	0x3f73636c	0.9507358
34	0x3dde1cf6	0.108453676
35	0xbfc0eb5c	-1.5071826
36	0xbeae747c	-0.34073246
37	0x3e9ed736	0.31023568
38	0x3d6d41bd	0.05792402
39	0x3dcdad3a	0.10042806
40	0xbecca1f5	-0.39967313
41	0xbc305e11	-0.010764615
42	0x3da63338	0.08115238
43	0x3dd6bec3	0.10485604
44	0x3e0808cd	0.13284607
45	0x3db86daa	0.09005292
46	0xbd3812cd	-0.044939805
47	0x38b9bcce	8.856655e-05
48	0x3d574a35	0.052561004
49	0xbd6340cd	-0.05548172
50	0xbbc71f83	-0.0060767545
51	0x3c0c8d5b	0.008578624
52	0x3d399da5	0.045316357
53	0xbcb20e69	-0.021735387
54	0x3d1bb1ba	0.03801129
55	0x3d15ea51	0.036600415
56	0xbd184628	-0.03717628
57	0x3ea109e3	0.31452855
58	0x3eb079f4	0.34468043
59	0xbd745619	-0.05965242
60	0x3fae72ee	1.3628824
61	0xbf78083c	-0.96887565
62	0xbf1a3e2b	-0.6025111
63	0xbdc38860	-0.09547496
64	0xbefab5f6	-0.4896695
65	0xbe0c5df9	-0.13707723
66	0xbd5aa74c	-0.053382203
67	0x3e2ff0cc	0.171817
68	0x3dccd07e	0.10000704
69	0xbc2d5de2	-0.010581465
70	0xbe8d8689	-0.27641705
71	0xbea5f79f	-0.32415482
72	0x3dae4e8f	0.085110776
73	0x3f2b0459	0.6680351
74	0x3e8e1d66	0.27756804
75	0x3f655e39	0.895969
76	0x3f52437f	0.8213424
77	0x3ebc65f3	0.3679653
78	0xbe360c5e	-0.17778155
79	0x3e2d1668	0.16903079
80	0x3e81e962	0.2537337
81	0xbcdede64	-0.027205653
82	0x3eafbe4b	0.3432487
83	0xbd70b41f	-0.058765527
84	0xbef37c07	-0.47555563
85	0x3e96fd73	0.2949024
86	0xbe7db7e0	-0.24777174
87	0xbe3ce1fa	-0.18445578
88	0x3d23f452	0.040027924
89	0x3e9e5366	0.30923003
90	0xbe296373	-0.16541843
91	0x3ec26165	0.3796493
92	0x3f870965	1.0549742
93	0x3ec2624f	0.37965629
94	0xbd26bd4c	-0.04070787
95	0x3e087bd2	0.13328484
96	0xbe4499b4	-0.19199258
97	0xbdb456fd	-0.08805654
98	0x3dea2559	0.11432905
99	0x3c9527f5	0.01820753
100	0x3e1d1d07	0.15343104
101	0xbd213f55	-0.03936704
102	0x3d0713f4	0.032978013
103	0x3de4187c	0.111374825
104	0x3e2ba850	0.16763425
105	0xbb440741	-0.002991155
106	0x3da0c236	0.07849543
107	0x3cf16b9a	0.029470254
108	0xbccea9a0	-0.025227368
109	0x3d1bcc04	0.03803636
110	0x3cc8093b	0.024418464
111	0x3d5c48d6	0.0537804
112	0x3de8ccef	0.11367213
113	0x3db68b76	0.08913319
114	0x3eb4c7af	0.35308596
115	0x3f4019f8	0.75039625
116	0xbee0788f	-0.4384198
117	0x3e80943c	0.25113094
118	0xbc78912d	-0.015171331
119	0x3dc3aa9c	0.095540255
120	0xbecf1419	-0.4044502
121	0xbea39b57	-0.31954452
122	0xbe7131a0	-0.23554087
123	0xbc9ffc3c	-0.019529454
124	0x3de8466b	0.11341556
125	0xbd8e3805	-0.06944279
126	0xbfa21a6c	-1.2664313
127	0xbe655066	-0.22393951
128	0xbee1f694	-0.44133437
129	0x3ed3052b	0.4121488
130	0xbebb3a90	-0.36568117
131	0xbde01224	-0.1094096
132	0xbeb3dfd0	-0.35131693
133	0x3c9ea896	0.019367497
134	0x3df78396	0.12085645
135	0x3f11e2ab	0.5698649
136	0xbe971914	-0.2951132
137	0xbdffe189	-0.12494189
138	0x3e6192cf	0.2202866
139	0x3f83199e	1.0242193
140	0x3f330dcb	0.6994292
141	0x3f0d2494	0.5513394
142	0xbe84ef90	-0.25964022
143	0x3f0ba64a	0.5455061
144	0x3f5094bc	0.8147695
145	0x3f0dbf50	0.55370045
146	0x3f02a6ec	0.5103595
147	0x3e224eed	0.1585042
148	0x3d5cc424	0.05389799
149	0x3f56a6cc	0.8384826
150	0x3ee958f8	0.4557569
151	0x3e27ec08	0.16398633
152	0x3c8d97d7	0.017284317
153	0xbdc9d458	-0.098549545
154	0x3e7055cb	0.23470227
155	0xbd371916	-0.04470166
156	0x3c9d98f3	0.019237971
157	0x3d8011b8	0.062533796
158	0x3da2eccf	0.07955324
159	0xbde1590a	-0.11003311
160	0xbb8b32be	-0.0042479923
161	0xbd22cfca	-0.039748944
162	0xbcc5941a	-0.024118472
163	0x3d110c05	0.035411853
164	0x3bd34d60	0.006448433
165	0xbdb7abb9	-0.089683
166	0x3acd56c1	0.0015666113
167	0x3b919f23	0.0044440194
168	0x3d002056	0.031280838
169	0x3d764c23	0.060131203
170	0xbbd751b0	-0.006571017
171	0x3da1ee45	0.079067744
172	0xbbeca983	-0.007222356
173	0xbe429dcc	-0.19005507
174	0x3e8c361c	0.27385032
175	0xbf0ce2da	-0.5503365
176	0x3e5af586	0.21382722
177	0x3ebf5700	0.37371063
178	0xbebba0d6	-0.36646146
179	0x3f8c338d	1.0953232
180	0x3efdcf76	0.49572343
181	0xbf41da24	-0.7572348
182	0x3ebdfe0c	0.37107885
183	0xbf854e14	-1.0414453
184	0x3e8b030d	0.27150765
185	0x3eb4995d	0.35273257
186	0x3ecd54fb	0.40103897
187	0x3ebe896e	0.37214226
188	0x3e7064e4	0.23475987
189	0x3ea1f425	0.3163158
190	0xbf41cb59	-0.7570091
191	0x3eb694a5	0.35660282
192	0xbdac095e	-0.08400224
193	0x3ba9b5c2	0.005179138
194	0xbdaf2ab9	-0.085530706
195	0x3e25db80	0.16197014
196	0xbdb6de94	-0.08929172
197	0xbf3a9f44	-0.7289927
198	0xbd3972c2	-0.045275457
199	0xbf11904f	-0.5686082
200	0x3e462e7a	0.19353667
201	0x3eb1db9c	0.3473786
202	0xbe6a96b0	-0.22909045
203	0x3ec98f2e	0.3936705
204	0x3f1f69d8	0.6227088
205	0x3f2cb628	0.6746545
206	0xbf5dd58e	-0.86653984
207	0x3ee24188	0.4419062
208	0x3d87de8c	0.06634244
209	0xbda36fb2	-0.079802886
210	0x3c8e4b23	0.017369812
211	0xbc8d3565	-0.017237375
212	0x3cc33af2	0.023831818
213	0x3d872224	0.06598309
214	0x3d616788	0.055030376
215	0x3d19b298	0.037523836
216	0xbcfa953e	-0.030588742
217	0x3dc1eab3	0.094685934
218	0x3cbcb5bb	0.023035875
219	0xbd4d8a8b	-0.050180953
220	0xbc8ca43a	-0.017168153
221	0x3d0b2c07	0.033977535
222	0x3cca0543	0.024660712
223	0xbc835d41	-0.016035678
224	0xbd417a36	-0.04723569
225	0xbc7b5f84	-0.015342597
226	0xbc30c4b0	-0.010789081
227	0xbd099573	-0.03358979
228	0xbc60cd53	-0.013720828
229	0xbe713d6f	-0.23558591
230	0xbd64547e	-0.05574464
231	0x3f5f2b88	0.871758
232	0xbe9fe4db	-0.3122929
233	0x3d4ef242	0.050524004
234	0x3ea0b118	0.31385112
235	0xbe3a4202	-0.18189242
236	0x3dc4c7ac	0.09608397
237	0x3f7db867	0.991095
238	0xbe0b83e8	-0.13624537
239	0x3f388ed1	0.7209292
240	0x3ea6bc88	0.32565713
241	0xbee1b1fa	-0.44081098
242	0x3eb974f6	0.36222047
243	0x3f0c0d12	0.54707444
244	0x3ce45e78	0.027877077
245	0x3e8211f4	0.25404322
246	0xbf9819a2	-1.1882823
247	0x3da5cbf9	0.08095545
248	0x3df5df59	0.12005491
249	0x3ee25712	0.44207054
250	0xbeec82e8	-0.46193624
251	0xbf078345	-0.52934676
252	0xbf5128be	-0.8170279
253	0x3f0f0cd1	0.5587893
254	0x3eeec69a	0.46635896
255	0x3efbbcd7	0.4916751

bias f4 [512]
0	0xbf009f16	-0.50242746
1	0x3ec6dde0	0.38841152
2	0xbea1f541	-0.31632426
3	0x3ea1c9e5	0.31599346
4	0xbee2252e	-0.4416899
5	0xbee662dc	-0.449973
6	0xbe7cb079	-0.24676694
7	0x3ea1bf68	0.31591344
8	0x3e09a913	0.13443403
9	0xbd948a0a	-0.07252891
10	0x3ce7c5e7	0.02829261
11	0x3d866742	0.065626636
12	0x3df97097	0.12179678
13	0xbf109ef3	-0.5649254
14	0xbf276198	-0.6538329
15	0xbe6716fd	-0.22567363
16	0x3ec05b78	0.37569785
17	0x3da377b0	0.07981813
18	0xbf28c3a3	-0.6592352
19	0x3d1740f1	0.036927167
20	0x3e004249	0.12525286
21	0xbe6cf435	-0.23140033
22	0xbeaa73ac	-0.33291376
23	0xbe975c06	-0.29562396
24	0x3e8b9ecd	0.27269593
25	0xbd5648c6	-0.052315496
26	0xbef9c99b	-0.48786625
27	0xbe2981b7	-0.16553389
28	0xbc1c91d4	-0.0095562525
29	0x3e497a32	0.1967552
30	0xbe939df8	-0.28831458
31	0xbc352cc1	-0.011058033
32	0xbe13ae2f	-0.14421915
33	0x3e767205	0.24066932
34	0xbd8abedb	-0.06774684
35	0x3e63f7cd	0.22262497
36	0xbda3e765	-0.080031194
37	0x3e8a3b75	0.26998487
38	0x3e241ff7	0.16027819
39	0xbecae06d	-0.39624348
40	0x3e0c298b	0.13687722
41	0xbf007d14	-0.50190854
42	0xbda7fc94	-0.08202472
43	0xbe411005	-0.18853767
44	0x3dc13ce9	0.09435446
45	0x3dd5f4e1	0.104470976
46	0x3e880a63	0.26570424
47	0x3e8eeef5	0.27916685
48	0xbc968c7e	-0.018377539
49	0xbf8b415b	-1.087932
50	0xbdadaef8	-0.08480638
51	0x3e95bec1	0.29247096
52	0x3e339445	0.17537029
53	0x3e21eafc	0.15812296
54	0xbe9ccf37	-0.30626842
55	0xbb1b7fed	-0.0023727373
56	0xbe5307f7	-0.20608507
57	0xbe91a404	-0.28445446
58	0x3de3801f	0.111084215
59	0xbe801bf4	-0.25021327
60	0xbe64d0f1	-0.2234533
61	0xbe100092	-0.14062718
62	0x3e603a19	0.21897162
63	0x3e64ad6b	0.22331779
64	0x3dd31d5c	0.10308334
65	0xbe56744a	-0.20942798
66	0xbefb88c4	-0.4912778
67	0xbef559f6	-0.47920197
68	0x3e99284d	0.2991356
69	0xbe27737d	-0.16352649
70	0x3e257a71	0.16159989
71	0xbf50ae33	-0.81515807
72	0xbed78318	-0.42092204
73	0xbf20c99b	-0.62807626
74	0x3e7e6be3	0.24845843
75	0x3c4a4aef	0.012346967
76	0x3e8d8ad3	0.27644977
77	0xbef4ea66	-0.47835082
78	0x3e82e1c0	0.2556286
79	0xbec4bc4d	-0.38424912
80	0xbde878a8	-0.11351138
81	0x3eda41c5	0.42628303
82	0xbeb9eaaf	-0.36311862
83	0x3e41cefe	0.18926618
84	0xbda00864	-0.078141004
85	0x3d1b0f5f	0.037856456
86	0xbef14a73	-0.47127113
87	0xbe814c7a	-0.2525366
88	0xbf33cf9d	-0.7023867
89	0xbe6c4023	-0.23071341
90	0x3e8fede5	0.28111187
91	0xbe82ec29	-0.255708
92	0xbebbc298	-0.366719
93	0x3e5d672c	0.21621388
94	0xbeccda2f	-0.4001021
95	0xbf6cc5da	-0.924894
96	0x3e096c27	0.13420163
97	0xbed252da	-0.41078836
98	0x3d634137	0.055482116
99	0xbe948cc4	-0.29013646
100	0xbd6525fc	-0.055944428
101	0xbf0e1138	-0.55495024
102	0x3cbff301	0.023431303
103	0xbe3d75d6	-0.18501982
104	0xbf1f797c	-0.62294745
105	0xbe23fdb1	-0.16014744
106	0xbf0635b6	-0.52425706
107	0xbf102df5	-0.56320125
108	0x3db75e20	0.089535
109	0xbdbc1d22	-0.09185244
110	0x3e926418	0.2859199
111	0x3dd1401f	0.10217308
112	0xbd2b3247	-0.041795995
113	0x3df027ca	0.11726339
114	0xbdbfc194	-0.09363094
115	0xbe0ca783	-0.13735776
116	0x3e95675e	0.29180425
117	0x3d3f9434	0.046772197
118	0xbea03a17	-0.3129432
119	0x3cd22451	0.025652083
120	0xbf728d24	-0.94746614
121	0xbf008c43	-0.5021402
122	0xbea5600f	-0.3229985
123	0xbe60416c	-0.21899956
124	0xbdd24706	-0.10267453
125	0xbebe16fe	-0.37126917
126	0xbf08ae06	-0.5339054
127	0x3eac4e70	0.33653593
128	0xbe4f3fd4	-0.20239192
129	0xbf0039da	-0.50088274
130	0xbedc80c9	-0.43067005
131	0xbf7a5f1a	-0.97801363
132	0x3e6fd0df	0.23419522
133	0xbf026d56	-0.50948083
134	0xbe86ca06	-0.26326007
135	0x3ea841b6	0.32862633
136	0xbea8dd1f	-0.32981202
137	0xbf57780a	-0.8416754
138	0xbeafcda4	-0.3433658
139	0xbd993aa7	-0.0748189
140	0xbe64389a	-0.22287217
141	0x3de30a31	0.11085928
142	0x3d25c82e	0.04047411
143	0xbd994070	-0.074829936
144	0xbe4fb394	-0.20283347
145	0x3e8e4c9c	0.27792823
146	0xbcb30a26	-0.021855425
147	0xbbfd1297	-0.0077231633
148	0xbe71069c	-0.23537678
149	0xbdca273c	-0.098707646
150	0xbdf4ed75	-0.11959354
151	0xbeb98b38	-0.36239028
152	0x3cf24d13	0.029577767
153	0xbf02747e	-0.50959
154	0xbe2df4a5	-0.16987856
155	0x3e4f9345	0.20271023
156	0xbe927780	-0.28606796
157	0xbe5b6018	-0.21423376
158	0xbf958962	-1.1682551
159	0x3dbafe38	0.0913052
160	0xbe140820	-0.14456224
161	0xbeb84105	-0.35987106
162	0xbec7dd46	-0.39036006
163	0x3e74465d	0.23854966
164	0xbec1243d	-0.3772296
165	0x3e21d73a	0.15804759
166	0x3e0add99	0.13561095
167	0xbdc9224c	-0.09820995
168	0xbefda680	-0.49541092
169	0x3d793d32	0.060849376
170	0xbcffada2	-0.031210724
171	0xbe5f9e3a	-0.21837702
172	0x3d86dde3	0.0658529
173	0xbf54df1c	-0.8315294
174	0xbe5665de	-0.20937297
175	0xbf0c5ee1	-0.54832274
176	0x3e412905	0.18863304
177	0xbe4855dc	-0.19564003
178	0xbebb6cff	-0.36606595
179	0x3daaef4c	0.083464235
180	0xbe955cd5	-0.29172388
181	0x3dbc7d74	0.09203616
182	0xbe000d15	-0.1250499
183	0x3e998b28	0.2998898
184	0xbe4489fe	-0.19193265
185	0x3dd3dd76	0.10344975
186	0xbf52e2a0	-0.8237705
187	0x3e8e2f1d	0.2777032
188	0xbd856a4e	-0.06514417
189	0xbe81f561	-0.25382522
190	0xbed9662b	-0.4246076
191	0x3e13cde2	0.14434007
192	0x3e5e789e	0.217257
193	0xbf06bd3d	-0.52632505
194	0x3eaa8a2d	0.33308545
195	0xbf15c9e6	-0.585112
196	0x3e70415a	0.2346243
197	0x3e8e7e5b	0.27830777
198	0xbe9c07b3	-0.30474624
199	0x3e045e1b	0.12926523
200	0x3cbb4940	0.022862077
201	0xbedf516a	-0.43616802
202	0x3e5ebd76	0.21751961
203	0xbf1be3e9	-0.6089464
204	0x3e35539f	0.1770768
205	0xbf047c97	-0.5175261
206	0xbec6b10d	-0.38806954
207	0xbe8a4dab	-0.2701238
208	0x3e8c5b67	0.27413484
209	0xbf2d4245	-0.67679244
210	0x3e13bc05	0.14427193
211	0xbd302ddc	-0.043012485
212	0xbcd7d64e	-0.026347306
213	0xbc750621	-0.0149550745
214	0x3ea6f025	0.3260509
215	0xbec1d462	-0.37857348
216	0xbdc34615	-0.095348515
217	0x3cece2f8	0.02891682
218	0x3e1cb9cb	0.1530525
219	0xbf6f41a7	-0.9345955
220	0x3e35be94	0.17748481
221	0xbedcce88	-0.4312632
222	0xbe77c8aa	-0.24197641
223	0xbe14be2b	-0.14525668
224	0x3e4d00b9	0.20019807
225	0xbf56a34a	-0.8384291
226	0x3e842735	0.25811163
227	0xbf0b64dc	-0.54450774
228	0xbec20d04	-0.37900555
229	0xbea2fa5d	-0.31831637
230	0x3eede6cc	0.46465147
231	0xbe5f8808	-0.21829236
232	0x3e652d2b	0.22380511
233	0xbe5d14ae	-0.2158992
234	0xbe734c8b	-0.23759668
235	0xbee6c3f5	-0.45071378
236	0xbe995f93	-0.2995573
237	0x3bb13df7	0.005408998
238	0x3e65e173	0.22449283
239	0x3e63f5a5	0.22261675
240	0xbf020415	-0.5078748
241	0x3e5f319c	0.21796268
242	0xbe001cbc	-0.12510961
243	0xbe4dc7f5	-0.20095809
244	0xbd82f66b	-0.06394657
245	0x3e15f318	0.14643514
246	0xbf1bafe5	-0.6081527
247	0x3e589d79	0.21153821
248	0x3db873d2	0.09006466
249	0x3e3d2cf3	0.18474178
250	0xbee35198	-0.4439819
251	0x3ee73fc3	0.45165834
252	0x3e83df65	0.25756374
253	0xbe5988c9	-0.21243586
254	0xbe76fde4	-0.24120289
255	0xbf489aee	-0.78361404

weight f4 [256, 512]
0	0x3dc814e0	0.097696066
1	0xbd89589f	-0.06706356
2	0x3de325bf	0.11091184
3	0xbe01fc62	-0.12693933
4	0x3e210af2	0.15726832
5	0xbe0f89ba	-0.14017382
6	0x3e5837e8	0.21115077
7	0xbe353a09	-0.1769792
8	0x3d8a8050	0.06762755
9	0xbeae5558	-0.34049487
10	0xbe4d2938	-0.20035255
11	0xbd2ad1b4	-0.041703895
12	0xbed77b09	-0.42086056
13	0x3dede16d	0.11615262
14	0x3e213d89	0.1574613
15	0xbdee92dd	-0.11649106
16	0x3c5d2603	0.013497832
17	0x3df1344b	0.11777552
18	0x3cb11618	0.02161698
19	0xbecc55d2	-0.39909226
20	0x3e74ac52	0.2389386
21	0x3b44268e	0.0029930207
22	0xbed55325	-0.41664997
23	0xbd18e4c5	-0.037327547
24	0xbeb56dea	-0.3543542
25	0xbc9174d0	-0.017755896
26	0xbcad8e13	-0.02118591
27	0x3e22bc5c	0.15892166
28	0xbd53d650	-0.051718056
29	0xbc87ae70	-0.01656267
30	0x3e532fc1	0.20623685
31	0x3e2d6c53	0.16935854
32	0x3e953e58	0.29149127
33	0x3d403e12	0.046934195
34	0x3e8d1580	0.27555466
35	0xbe5a54dc	-0.21321434
36	0xbebaa426	-0.3645336
37	0xbe9fb162	-0.3119002
38	0xbe3196f5	-0.17342742
39	0x3e20cd27	0.1570326
40	0x3d983ee9	0.07433874
41	0x3db94d12	0.09047903
42	0x3e2b8d44	0.16753107
43	0x3dad2e7f	0.08456134
44	0xbe6dcdcf	-0.23223041
45	0xbda3eb14	-0.08003822
46	0xbe41f86a	-0.18942419
47	0xbe6f05ed	-0.23342104
48	0x3ec5c3a3	0.3862582
49	0x3e147dc6	0.14501104
50	0xbed558bb	-0.41669258
51	0x3e1aa847	0.15103255
52	0x3b366cd3	0.002783586
53	0xbe4a0fc7	-0.19732581
54	0xbea30582	-0.3184014
55	0x3e5f5102	0.21808246
56	0x3dc8d13a	0.09805532
57	0xbd668ccb	-0.056286614
58	0xbe22d381	-0.15900995
59	0x3e444ef4	0.19170743
60	0x3e92e6f8	0.2869184
61	0x3dae3220	0.08505654
62	0x3ba6f305	0.005094888
63	0xbf734538	-0.95027494
64	0xbf0ec11d	-0.5576342
65	0xbf2009e5	-0.625151
66	0x3e1d76ee	0.153774
67	0x3d24cf23	0.040236603
68	0xbb55c124	-0.0032616341
69	0xbe90a78c	-0.28252828
70	0xbdc49cd1	-0.09600223
71	0x3decd4e3	0.115640424
72	0x3e2ba7e7	0.16763268
73	0x3e2811e4	0.16413075
74	0xbdf4c5d4	-0.11951795
75	0xbe115b9e	-0.14195105
76	0xbdf16ea4	-0.11788681
77	0x3dd324e4	0.10309771
78	0x3e39be5c	0.18139023
79	0x3d995ac1	0.07488013
80	0xbc4572cd	-0.012051296
81	0xbf1dee15	-0.6169141
82	0xbc253180	-0.0100826025
83	0x3e073da5	0.1320711
84	0xbef1b1a4	-0.47205842
85	0xbd986882	-0.07441808
86	0x3e4a3cef	0.19749807
87	0xbd2d7496	-0.042347513
88	0x3d78c6aa	0.060736336
89	0x3c91bf6b	0.01779147
90	0xbe156de1	-0.14592697
91	0xbd43e15d	-0.047822345
92	0xbe2e60c6	-0.17029104
93	0x3dc6bfa5	0.09704522
94	0xbe6d098e	-0.23148176
95	0x3d668aa6	0.05628457
96	0x3d8b14c0	0.06791067
97	0x3edf81ae	0.43653625
98	0x3e335c8b	0.17515771
99	0xbea618aa	-0.32440692
100	0x3ca62c51	0.020284804
101	0x3e34436d	0.17603846
102	0xbe8437f0	-0.25823927
103	0xbe46fcaa	-0.19432321
104	0x3df86852	0.121292725
105	0x3e7ded8a	0.24797645
106	0xbd94402c	-0.07238802
107	0x3cca743b	0.024713626
108	0xbd8840bd	-0.06652973
109	0xbdc8a5d0	-0.09797251
110	0x3d187af7	0.037226643
111	0xbe7c3790	-0.2463057
112	0xbb152b46	-0.0022761389
113	0xbdc589bd	-0.09645412
114	0x3ea8a2f3	0.3293682
115	0xbd41f172	-0.0473494
116	0xbd622131	-0.055207435
117	0xbe822ad6	-0.25423306
118	0x3e881790	0.26580477
119	0x3d9c3351	0.07626975
120	0x3e7b41cb	0.24536817
121	0x3e00a69c	0.12563556
122	0x3e50854e	0.20363352
123	0xbe7c81f1	-0.24658944
124	0xbe381d95	-0.17980035
125	0xbe1991f1	-0.14997078
126	0xbcb4f239	-0.022088157
127	0xbdbadd72	-0.091242686
128	0x3eb282c6	0.34865397
129	0x3d8e5aa4	0.06950882
130	0x3d53126b	0.051531237
131	0x3dbd42b1	0.09241236
132	0xbeee8b03	-0.46590433
133	0x3ebafb98	0.36520076
134	0xbd452089	-0.04812673
135	0xbe03629c	-0.12830585
136	0x3e4acfe6	0.1980587
137	0x3dd278e6	0.10276966
138	0x3cf26154	0.029587425
139	0x3da5564c	0.080731004
140	0x3ef0142d	0.46890393
141	0xbded43b1	-0.11585177
142	0xbd009cad	-0.031399418
143	0x3dbe496d	0.092913486
144	0xbd2ce8f0	-0.042214334
145	0xbd142dc5	-0.03617646
146	0x3dd25c2e	0.10271488
147	0x3d810122	0.06299044
148	0x3e01e9b2	0.12686804
149	0xbe0e79ca	-0.13913646
150	0xbdbc0355	-0.09180323
151	0x3d90a515	0.07062737
152	0x3e060d46	0.13091001
153	0x3d4ace9f	0.049513455
154	0xbe16653a	-0.14687052
155	0xbe59588e	-0.21225187
156	0xbca08eb3	-0.019599294
157	0x3ed6b469	0.41934517
158	0x3d3de129	0.046357308
159	0x3e4bed84	0.19914824
160	0x3de66ee0	0.112516165
161	0x3d827da9	0.06371624
162	0xbe8dfbe7	-0.2773125
163	0xbe3b57e2	-0.18295243
164	0x3eb83a6f	0.3598208
165	0xbceae1f7	-0.028672202
166	0x3e51f902	0.20505145
167	0xbe5b9c60	-0.21446371
168	0xbc8b895d	-0.017033273
169	0x3c576d0d	0.013148558
170	0xbcfff6f4	-0.031245686
171	0xbe2f1f0c	-0.17101687
172	0xbdfc59e9	-0.123218365
173	0x3dedad33	0.11605301
174	0x3c894033	0.016754245
175	0x3e1b501d	0.1516728
176	0x3d90c66b	0.07069095
177	0x3dfd0812	0.12355055
178	0x3e57c60b	0.21071641
179	0xbe68325d	-0.22675462
180	0xbddca360	-0.10773349
181	0xbc85d630	-0.016337484
182	0x3c31af14	0.0108449645
183	0xbecabdac	-0.39597833
184	0xbe51764e	-0.20455286
185	0xbea3f409	-0.32022122
186	0x3ebc78c4	0.36810887
187	0x3d9a01c7	0.0751987
188	0x3e737cf3	0.23778133
189	0xbdc4f132	-0.09616317
190	0x3dbe87de	0.09303258
191	0x3e121d76	0.14269051
192	0xbf027c05	-0.5097049
193	0x3e9d3207	0.3070223
194	0x3e031295	0.12800057
195	0x3df890c8	0.1213699
196	0xbe22574d	-0.15853615
197	0xbe61b0f3	-0.22040157
198	0xbe1e35b3	-0.15450172
199	0x3d4cffa8	0.0500485
200	0x3e9b33fb	0.30313095
201	0x3e83e856	0.25763196
202	0xbd0f7478	-0.035023183
203	0x3d2493f3	0.040180158
204	0x3d69cb3a	0.057078578
205	0x3e52e452	0.2059491
206	0x3cf94343	0.03042758
207	0x3db8cfb2	0.0902399
208	0x3d111a17	0.03542527
209	0x3dfb7c50	0.1227957
210	0xbecbd02d	-0.39807263
211	0xbee082cd	-0.43849793
212	0x3d92483d	0.071426846
213	0x3e4bb33b	0.1989259
214	0x3c511185	0.012760525
215	0xbd7269ea	-0.05918304
216	0xbe79a0be	-0.24377725
217	0xbe96368f	-0.293385
218	0xbc89579c	-0.016765408
219	0x3dc02cf6	0.093835756
220	0xbf0a6a10	-0.5406809
221	0xbeaa1302	-0.33217627
222	0xbdfd6aca	-0.12373884
223	0x3d1976ed	0.037466932
224	0xbe49a065	-0.19690092
225	0xbd55920d	-0.052141238
226	0xbdd01f83	-0.101622604
227	0xbe3ab278	-0.18232143
228	0xbdde280f	-0.10847484
229	0x3ebbf862	0.3671294
230	0xbdb639f8	-0.088977754
231	0x3e9312bc	0.2872523
232	0xbe24d0f5	-0.16095336
233	0xbd4bb5f6	-0.04973408
234	0x3e96e4f8	0.29471564
235	0x3d260dd9	0.04054055
236	0x3ccc0cbc	0.024908416
237	0xbe26f6cd	-0.16305085
238	0xbe0c0c55	-0.1367658
239	0xbd772cf0	-0.06034559
240	0x3e1cb3dd	0.15302987
241	0xbdc1b2f2	-0.09457959
242	0x3dbebf58	0.0931384
243	0xbdca2dcf	-0.098720185
244	0xbcd4e9eb	-0.025990447
245	0xbd5589d8	-0.05213341
246	0x3e438612	0.19094113
247	0xbb622635	-0.0034507636
248	0x3d5872c8	0.05284384
249	0xbcd38dc8	-0.025824443
250	0xbcf9d478	-0.03049682
251	0xbe9464f9	-0.28983286
252	0x3dc343cd	0.09534416
253	0x3e22d1f8	0.15900409
254	0xbe5af6ec	-0.21383256
255	0x3d9545b6	0.07288687

bias f4 [256]
0	0xbec1d64a	-0.37858802
1	0x3d390edb	0.045180183
2	0xbefdc1b7	-0.49561855
3	0xbeb429e3	-0.35188207
4	0xbe8a917b	-0.27064118
5	0xbe0ea434	-0.13929826
6	0xbe1bab87	-0.15202151
7	0xbe87698e	-0.2644772
8	0xbed9aae3	-0.4251319
9	0x3e6edd5a	0.23326626
10	0x3d738da7	0.059461262
11	0xbd397279	-0.045275185
12	0xbde2220b	-0.110416494
13	0x3d3665b3	0.04453058
14	0xbb091f68	-0.002092326
15	0xbe61b33b	-0.22041027
16	0xbdfe2445	-0.124092616
17	0xbdc489e8	-0.09596616
18	0xbec99e2e	-0.39378494
19	0xbdb48c03	-0.088157676
20	0xbf674d46	-0.90352285
21	0xbe20bb2d	-0.15696402
22	0xbe43338e	-0.19062635
23	0x3e3181d2	0.17334679
24	0xbe8c3c04	-0.27389538
25	0xbed558dd	-0.4166936
26	0xbea19068	-0.31555486
27	0xbeedfde0	-0.46482754
28	0xbe56356a	-0.20918813
29	0xbde640c5	-0.112428226
30	0xbc9daffc	-0.019248955
31	0xbeaf52d7	-0.3424289
32	0x3e276540	0.16347218
33	0xbea46384	-0.32107174
34	0xbe823d1c	-0.25437248
35	0xbe28cb40	-0.16483784
36	0xbf2d7516	-0.67756784
37	0xbe8886f7	-0.2666547
38	0xbe885fa6	-0.26635474
39	0xbe030b04	-0.12797171
40	0xbf3815c9	-0.7190824
41	0xbe8f6269	-0.28004768
42	0xbe8817fb	-0.26580796
43	0xbe1fd338	-0.15607917
44	0xbddf873b	-0.10914465
45	0x3dd643f5	0.104621805
46	0xbed26f99	-0.41100767
47	0xbee6dbf3	-0.45089683
48	0xbea69d74	-0.32542002
49	0xbd91231a	-0.07086773
50	0xbeb5ca22	-0.35505778
51	0xbf1ab2d6	-0.6042913
52	0xbe8fc0b7	-0.28076717
53	0xbcb035bf	-0.021510003
54	0xbf5061d3	-0.8139927
55	0xbec2690d	-0.37970772
56	0xbec2fefb	-0.3808516
57	0xbeb97125	-0.36219135
58	0xbeb870f8	-0.36023688
59	0xbeb7d986	-0.35908145
60	0xbf3152d6	-0.6926702
61	0xbd46a626	-0.048498295
62	0xbeef3502	-0.4672013
63	0xbe119042	-0.14215186
64	0xbecd0dfb	-0.4004973
65	0xbe2d876a	-0.16946188
66	0xbee697f9	-0.4503782
67	0xbd99ab52	-0.0750338
68	0xbef5f15c	-0.48035705
69	0xbf29283d	-0.66077024
70	0xbeb0d65d	-0.34538546
71	0xbec26fff	-0.3797607
72	0xbe9828b0	-0.29718542
73	0xbe3f40b4	-0.18677026
74	0xbf3c70b5	-0.7360948
75	0xbe335cbc	-0.17515844
76	0xbeb7d73f	-0.35906407
77	0x3e9af2cd	0.30263367
78	0xbe850b96	-0.25985402
79	0xbe921baa	-0.2853673
80	0xbe4523b8	-0.19251907
81	0xbed47196	-0.4149291
82	0xbde7645f	-0.11298441
83	0xbdb3d0a9	-0.08780033
84	0xbe2a6ff6	-0.16644272
85	0xbc6973ab	-0.014248769
86	0xbee2dd87	-0.44309637
87	0xbee28c86	-0.44247836
88	0xbec01dec	-0.3752283
89	0xbf208320	-0.6270008
90	0xbee5678f	-0.4480557
91	0xbee89d0c	-0.45432317
92	0xbe9b115f	-0.3028669
93	0xbe4f7d26	-0.20262584
94	0xbeb2d582	-0.3492852
95	0xbc816806	-0.015796673
96	0xbee21aef	-0.44161174
97	0xbe914bf4	-0.2837826
98	0xbeabb8e5	-0.335395
99	0xbe093b63	-0.1340156
100	0xbe31706e	-0.17328045
101	0xbe36caab	-0.17850749
102	0xbeb248a3	-0.34821042
103	0xbf1ebe74	-0.6200936
104	0xbeadb3cf	-0.33926246
105	0x3e6a72da	0.22895375
106	0xbe2f5261	-0.17121269
107	0xbde8f068	-0.11373979
108	0xbf015cdd	-0.50532323
109	0x3e7e0821	0.24807788
110	0xbe6d6659	-0.23183574
111	0xbf4e3255	-0.8054555
112	0xbec34b86	-0.38143557
113	0xbe6b63af	-0.22987245
114	0xbdd1b2a5	-0.10239152
115	0xbe69dcae	-0.22838089
116	0xbf1589ec	-0.5841358
117	0xbe546472	-0.20741442
118	0xbe8f946b	-0.2804292
119	0xbec0d7ec	-0.37664735
120	0xbe7a9197	-0.244696
121	0xbe0f0e1d	-0.13970228
122	0x3e0b2c82	0.13591197
123	0xbe6a4005	-0.22875984
124	0xbdb638d3	-0.08897557
125	0xbee577e8	-0.44818044
126	0xbe1d1262	-0.15339044
127	0xbe0cb20b	-0.13739793
128	0xbe897942	-0.26850325
129	0xbea8440d	-0.3286442
130	0x3dfa1019	0.12210102
131	0xbcbd03ec	-0.02307316
132	0xbe2d2568	-0.169088
133	0xbea3b777	-0.3197591
134	0xbeda26ba	-0.4260767
135	0xbeac7d05	-0.33689132
136	0xbe2ac3ac	-0.16676205
137	0xbefb83b8	-0.4912393
138	0xbf004117	-0.5009932
139	0xbe966871	-0.29376557
140	0xbedd9ab7	-0.432821
141	0xbe8abeb4	-0.2709862
142	0xbf39a8c1	-0.72523123
143	0xbde1b97f	-0.11021709
144	0xbe35220f	-0.17688774
145	0xbe919fe1	-0.2844229
146	0xbeb10440	-0.34573555
147	0xbebd3860	-0.36957073
148	0xbe985caa	-0.29758197
149	0xbe070888	-0.13186848
150	0xbeaeefb6	-0.3416726
151	0xbebd19b1	-0.36933663
152	0xbf2222ef	-0.63334554
153	0xbf2ee9f5	-0.6832574
154	0xbea022b0	-0.31276464
155	0xbef5bab9	-0.4799402
156	0xbe74c37f	-0.23902701
157	0x3d084b13	0.03327472
158	0xbdef3b1d	-0.11681197
159	0xbc9f3eaf	-0.01943907
160	0xbe2a2e84	-0.16619307
161	0xbba58a12	-0.0050518597
162	0xbd8a1d4d	-0.0674387
163	0xbe880aa0	-0.26570606
164	0xbe840666	-0.25786132
165	0xbf0ab418	-0.5418105
166	0xbd89bad6	-0.06725089
167	0xbd9744a5	-0.0738614
168	0xbef02fe3	-0.46911535
169	0xbe12a40f	-0.14320396
170	0xbef1f236	-0.47255105
171	0x3df9d241	0.12198306
172	0x3df39bc7	0.118949465
173	0xbef5f052	-0.48034912
174	0xbcec48e6	-0.028843354
175	0xbe7b02d2	-0.24512795
176	0xbee2f065	-0.4432403
177	0xbf0cbbcb	-0.5497405
178	0xbeeebd15	-0.46628633
179	0xbe6d2255	-0.23157628
180	0xbd37d818	-0.044883817
181	0xbe64b090	-0.22332978
182	0xbf075cb8	-0.5287585
183	0xbefbad7c	-0.49155796
184	0x3e496e19	0.19670905
185	0xbe4a49c6	-0.19754705
186	0xbeacf9a2	-0.33784205
187	0xbee8610f	-0.4538655
188	0xbe975e41	-0.29564098
189	0x3d258f29	0.04041973
190	0xbdccc1cc	-0.09997901
191	0xbd58d5ad	-0.052938152
192	0xbecc80b1	-0.39941934
193	0xbe0d1a3a	-0.13779536
194	0xbe596d7a	-0.21233168
195	0xbd381b21	-0.044947747
196	0xbe9d9ab2	-0.30782086
197	0xbe522594	-0.20522147
198	0xbe30a115	-0.17248948
199	0xbee8f53f	-0.45499608
200	0xbee4b12e	-0.44666427
201	0xbeb18037	-0.34668133
202	0xbddd1532	-0.10795058
203	0xbedaf303	-0.42763528
204	0x3d663371	0.056201402
205	0xbe69e7f0	-0.22842383
206	0x3d9cf82a	0.07664521
207	0xbe6832d7	-0.22675644
208	0xbec84f9d	-0.3912324
209	0xbe719659	-0.2359251
210	0xbde4f65f	-0.11179804
211	0xbef6c315	-0.4819571
212	0xbee8fde3	-0.455062
213	0xbeb2a07c	-0.34888065
214	0xbf3641df	-0.7119426
215	0x3dbb6f91	0.09152139
216	0xbe7d7bf7	-0.2475432
217	0xbdae51e5	-0.08511714
218	0xbef0e1f5	-0.47047392
219	0xbec46792	-0.38360268
220	0xbe66d64f	-0.2254269
221	0xbee3de04	-0.44505322
222	0xbeadd178	-0.33948874
223	0x3c9ed245	0.019387374
224	0xbf51dea8	-0.8198037
225	0xbe8c3b18	-0.27388835
226	0xbefcb956	-0.4936015
227	0xbe84e127	-0.25953028
228	0xbe96d228	-0.29457211
229	0xbdb4f4c3	-0.08835747
230	0xbeab555e	-0.33463567
231	0xbec5ec3b	-0.38656792
232	0x3d836fdb	0.06417819
233	0xbeeab7a9	-0.45843247
234	0xbe61326c	-0.2199189
235	0x3e216bb3	0.1576374
236	0xbe4df9d7	-0.20114838
237	0x3c8fbc1a	0.017545749
238	0xbe72076b	-0.23635642
239	0xbea49c5c	-0.32150543
240	0x3e412e5c	0.18865341
241	0xbe3c58eb	-0.18393295
242	0xbf1a2671	-0.60214907
243	0xbed1f92a	-0.4101041
244	0xbed7ab9c	-0.42123115
245	0xbea05a5d	-0.31318942
246	0xbef5de9b	-0.48021397
247	0xbea5df98	-0.3239715
248	0xbe6239b2	-0.22092322
249	0xbd5ce793	-0.053931784
250	0xbe5c3825	-0.21505792
251	0xbf321377	-0.6956095
252	0xbe4187ab	-0.1889941
253	0xbe5ae177	-0.2137507
254	0xbede2ab1	-0.43391946
255	0xbe962345	-0.29323784

weight f4 [128, 256]
0	0x3ebfbf7e	0.37450784
1	0x3d9d8e25	0.076931275
2	0x3ddc0de9	0.10744841
3	0x3db148c5	0.08656458
4	0xbe38463b	-0.17995541
5	0xbed66264	-0.4187194
6	0x3dfeddf9	0.12444682
7	0x3e2d43dc	0.16920418
8	0x3e7ae7bc	0.24502462
9	0xbe857034	-0.26062167
10	0xbeabaa8a	-0.33528548
11	0x3e979a78	0.29610038
12	0xbd8d7f86	-0.06909089
13	0xbddb7842	-0.10716297
14	0x3ddee87e	0.10884188
15	0xbe7ebdc0	-0.24877071
16	0xbcb6a9c3	-0.022297746
17	0xbe1f3282	-0.15546611
18	0x3da8be6c	0.08239445
19	0xbdb74964	-0.08949545
20	0xbe0bfff0	-0.13671851
21	0xbd040e96	-0.032240473
22	0xbd3931c5	-0.04521348
23	0xbc8cd3b1	-0.017190786
24	0x3d5c24ea	0.05374614
25	0xbcbe3d8d	-0.02322271
26	0xbd3f5105	-0.046708126
27	0x3ee54022	0.44775492
28	0x3dff97d8	0.12480134
29	0x3e2c4c57	0.16825996
30	0x3e0a7876	0.13522515
31	0x3e992927	0.2991421
32	0xbd88ef2a	-0.06686242
33	0xbd863165	-0.0655239
34	0xbd93b457	-0.072121315
35	0x3ec273b0	0.37978888
36	0xbcbb9b60	-0.022901237
37	0x3e5d12a8	0.21589148
38	0xbc2fe91b	-0.010736729
39	0xbcfe5372	-0.03104565
40	0x3e60b864	0.2194534
41	0xbde85695	-0.11344639
42	0x3ceaec9e	0.028677281
43	0x3ea9819b	0.33106694
44	0x3d02954b	0.031880658
45	0xbdcedc10	-0.10100567
46	0x3e2ea12f	0.17053674
47	0xbe69e1e0	-0.2284007
48	0xbe7c5a65	-0.24643858
49	0x3e2a11aa	0.16608301
50	0x3d7c5853	0.06160767
51	0x3eadd2b0	0.33949804
52	0x3d52ff17	0.051512804
53	0xbe4c98ce	-0.19980165
54	0xbe8e990b	-0.27851138
55	0xbd1efe6b	-0.03881685
56	0x3d0161ee	0.031587534
57	0x3e98371f	0.29729554
58	0x3ee35d8c	0.44407308
59	0xbe10c1c2	-0.14136413
60	0x3e35759d	0.17720647
61	0xbd186eb3	-0.037214946
62	0xbe0b83fd	-0.13624568
63	0xbe5b904b	-0.21441762
64	0x3e95682a	0.29181033
65	0xbd8f44a0	-0.06995511
66	0xbde58bcb	-0.11208304
67	0x3d3e92e1	0.046526793
68	0x3c687612	0.014188306
69	0x3e0c352d	0.1369216
70	0x3d938b34	0.07204285
71	0xbdecf808	-0.11570746
72	0xbe1979c9	-0.14987864
73	0xbe74e1e7	-0.239143
74	0x3ec1423d	0.37745848
75	0x3d7ba36b	0.061435144
76	0x3e2eb782	0.1706219
77	0xbb836501	-0.0040098433
78	0xbe48f794	-0.19625694
79	0x3e8fec92	0.28110176
80	0xbd6807a8	-0.056647927
81	0x3e2797d8	0.16366518
82	0xbdd3a62b	-0.103344284
83	0x3d72190f	0.05910593
84	0x3eace4f3	0.33768424
85	0xbef20135	-0.47266546
86	0xbe89c395	-0.2690703
87	0xbe2ad443	-0.16682534
88	0xbe8f98d5	-0.2804629
89	0xbde71a78	-0.112843454
90	0xbcb545f9	-0.022128092
91	0x3dd6e023	0.104919694
92	0xbe9bf4bd	-0.30460158
93	0xbe1b4729	-0.15163864
94	0x3de1baa7	0.11021929
95	0xbd905277	-0.07046979
96	0x3de47793	0.111556195
97	0xbd2a8f24	-0.041640416
98	0x3f10af26	0.56517255
99	0x3e3afbb3	0.18260078
100	0x3e5cd6c2	0.21566299
101	0xbdc75c66	-0.097344205
102	0x3dd3b772	0.10337724
103	0x3ded192b	0.11577066
104	0xbe2048ce	-0.15652773
105	0xbe706eec	-0.23479813
106	0xbeb379ec	-0.35053957
107	0xbca249f1	-0.019810649
108	0xbe5262ad	-0.20545454
109	0xbe2b2c11	-0.16716029
110	0xbd8bf4e5	-0.06833819
111	0x3e295ac6	0.16538534
112	0x3dce4b96	0.100730106
113	0x3dc7ecbb	0.0976195
114	0x3e4f41e8	0.20239985
115	0x3dccb146	0.0999475
116	0x3dc5afb5	0.09652654
117	0x3d8005fd	0.06251142
118	0x3ec51cfe	0.38498682
119	0xbb17d33f	-0.0023166684
120	0x3d9cdd6f	0.076594226
121	0x3e04e33a	0.12977305
122	0xbea8701a	-0.32898027
123	0xbe22ef7f	-0.15911673
124	0xbce22515	-0.027605573
125	0xbe0f288e	-0.13980314
126	0xbd88449d	-0.06653712
127	0x3da87911	0.082262166
128	0xbe83d2d1	-0.25746778
129	0xbe8ddd36	-0.27707833
130	0xbe5e526a	-0.21711126
131	0xbe401ab8	-0.18760192
132	0x3d331124	0.04371752
133	0x3de95b4f	0.11394369
134	0xbe7da4bc	-0.24769872
135	0xbe0dceaf	-0.13848375
136	0xbd2ea8f0	-0.04264158
137	0xbd939a6f	-0.0720719
138	0x3e0a466e	0.1350343
139	0xbe1b7eb2	-0.15185049
140	0x3dca08d1	0.09864963
141	0xbea3433d	-0.31887236
142	0x3e1da60f	0.15395378
143	0xbea67345	-0.3250982
144	0xbeb059ca	-0.34443504
145	0x3de25530	0.110514045
146	0x3dce1c52	0.100639954
147	0xbce6ed75	-0.0281894
148	0x3c841a62	0.016125862
149	0x3ec92e01	0.3929291
150	0xbe9975d5	-0.2997271
151	0xbea9605e	-0.33081335
152	0x3e65b580	0.22432518
153	0xbd84d790	-0.06486428
154	0xbdcacffd	-0.09902952
155	0xbea8a693	-0.32939586
156	0xbe9d97f1	-0.30779985
157	0xbe7ace2c	-0.24492711
158	0xbf3cfbf7	-0.7382197
159	0x3e5d6af6	0.21622834
160	0xbd84164d	-0.06449566
161	0xbdbb786c	-0.09153828
162	0xbdec178a	-0.11527927
163	0xbe5f2ccc	-0.21794432
164	0xbe7d1d1b	-0.24718134
165	0x3dd390c3	0.103303455
166	0xbe4f7298	-0.20258558
167	0xbebf8737	-0.37407848
168	0xbe88912b	-0.26673254
169	0x3e5d7761	0.2162757
170	0x3d0765df	0.033056136
171	0xbd80e82f	-0.062942855
172	0xbd805490	-0.06266129
173	0x3dda8b93	0.10671153
174	0xbb42ca39	-0.0029722585
175	0xbe4fd875	-0.20297416
176	0xbe209273	-0.15680866
177	0xbd5be20a	-0.053682365
178	0xbf00ad3f	-0.5026435
179	0x3ed63dd2	0.4184404
180	0x3e9cb957	0.30610153
181	0xbd39577d	-0.04524945
182	0xbec3aa1b	-0.38215718
183	0x3d263b6a	0.040584005
184	0x3d06d7cd	0.032920647
185	0x3d5ae494	0.053440645
186	0x3dd5d1cf	0.104404084
187	0x3d97b4cf	0.074075334
188	0x3ce3a864	0.027790256
189	0xbb121286	-0.0022288873
190	0xbdd8e898	-0.10591239
191	0xbe7248e2	-0.23660615
192	0xbeb72ba1	-0.35775474
193	0x3da27b0d	0.07933626
194	0x3e8fb4b5	0.28067556
195	0x3e981ff8	0.2971189
196	0xbd8cfca4	-0.06884125
197	0xbd4892be	-0.04896807
198	0xbcdaba31	-0.026700111
199	0x3ec7b64e	0.39006275
200	0x3db688fe	0.08912848
201	0x3cf6ce55	0.030127684
202	0x3cfbcf8c	0.030738614
203	0xbdbc2b2a	-0.091879204
204	0xbdd21bc5	-0.10259203
205	0x3e85d06d	0.2613558
206	0x3ce536a7	0.027980162
207	0xbdc19374	-0.094519526
208	0xbe2135d3	-0.15743189
209	0x3dcc8be2	0.09987618
210	0x3dce333c	0.10068366
211	0x3e4c908e	0.19977018
212	0x3dd3be2a	0.10339005
213	0xbd9a2c7f	-0.07528018
214	0xbcb9b06d	-0.022667134
215	0xbdd96d2c	-0.10616526
216	0x3d643dcc	0.055722997
217	0xbd013d7f	-0.031552788
218	0x3cabe569	0.020983415
219	0x3eeb04a4	0.45901978
220	0x3c91fd42	0.017820958
221	0x3d87f2b5	0.066380896
222	0xbe7349ad	-0.23758574
223	0xbc342921	-0.010996134
224	0x3e05111f	0.12994812
225	0xbe2ed78a	-0.17074409
226	0xbd493f69	-0.04913274
227	0xbe6fb2bf	-0.2340803
228	0xbc946d05	-0.01811839
229	0xbe90c238	-0.28273177
230	0xbcc0aeca	-0.023520846
231	0x3da57a1e	0.08079933
232	0xbe89ba07	-0.2689974
233	0x3e9847bc	0.2974223
234	0x3dec81b1	0.11548174
235	0x3b08570a	0.0020803832
236	0x3e7cf27d	0.24701877
237	0x3ce48498	0.027895257
238	0xbe825b65	-0.25460353
239	0xbc3b92a3	-0.011448535
240	0xbd69e38b	-0.057101768
241	0x3c793072	0.015209304
242	0x3b81b164	0.003957914
243	0x3d9cb1aa	0.07651074
244	0x3dc53a2d	0.09630237
245	0xbef33334	-0.47500002
246	0x3e983c14	0.29733336
247	0xbda9ec93	-0.08297076
248	0xbec6911a	-0.3878258
249	0x3dba63fe	0.09101103
250	0x3ded9a6b	0.116017185
251	0x3dfa86f7	0.12232774
252	0xbd2f19a6	-0.04274907
253	0x3d1a1d46	0.037625574
254	0x3deecc46	0.11660056
255	0x3dcfc0b9	0.10144181

bias f4 [128]
0	0xbdedc3b3	-0.11609592
1	0xbdcf9b93	-0.10137095
2	0xbe92336f	-0.28554866
3	0xbe7688b3	-0.24075584
4	0xbdff31ca	-0.124606684
5	0xbe0e7af5	-0.13914092
6	0xbf298829	-0.6622339
7	0xbebb6aed	-0.36605015
8	0xbd24e963	-0.040261637
9	0xbebe67a5	-0.3718845
10	0xbeb40247	-0.35157987
11	0xbec24c33	-0.3794876
12	0xbe6d2efa	-0.23162451
13	0xbe5c9b45	-0.21543606
14	0xbe563220	-0.20917559
15	0x3daaa5e8	0.08332425
16	0xbde960b3	-0.11395397
17	0xbf25b693	-0.6473171
18	0xbec6c8d8	-0.38825107
19	0xbe713049	-0.23553576
20	0xbe280468	-0.16407931
21	0xbec22eaf	-0.37926242
22	0xbe5fb1b9	-0.2184514
23	0xbeb9d055	-0.36291757
24	0xbef63fd2	-0.48095566
25	0xbdca3001	-0.09872437
26	0x3cb86bfe	0.022512432
27	0xbf14b401	-0.58087164
28	0x3d0827ca	0.03324107
29	0xbf3e1372	-0.7424842
30	0xbd9c0037	-0.076172285
31	0xbea5140f	-0.32241866
32	0xbe997c67	-0.29977724
33	0xbeec8da2	-0.46201807
34	0xbe49b34d	-0.19697304
35	0x3c2baa7c	0.010477658
36	0xbb422be3	-0.002962821
37	0xbed51625	-0.41618457
38	0xbf230df0	-0.6369314
39	0xbe92f94a	-0.28705817
40	0xbef1415b	-0.47120175
41	0xbebecf4c	-0.3726753
42	0xbea931c2	-0.33045775
43	0xbe5f7337	-0.21821295
44	0xbee6992b	-0.45038733
45	0xbf0d0b97	-0.5509581
46	0x3c853ba7	0.016263796
47	0xbe370b55	-0.17875417
48	0xbec778a4	-0.3895923
49	0xbeabf7f9	-0.33587626
50	0xbe4c953e	-0.19978806
51	0xbe650caf	-0.2236812
52	0xbed4fb0b	-0.4159778
53	0xbeb4c1e9	-0.35304192
54	0xbeb8efa4	-0.3612033
55	0x3d992082	0.074769035
56	0xbe8b3f4c	-0.2719673
57	0xbe8caf7c	-0.27477634
58	0xbeec7cda	-0.46189004
59	0xbee01804	-0.43768322
60	0xbe5852a4	-0.21125275
61	0xbf0af8b6	-0.5428575
62	0xbe036f76	-0.12835488
63	0xbda71941	-0.08159114
64	0xbd9c89e5	-0.07643489
65	0xbe204cde	-0.15654323
66	0xbe8fbeea	-0.28075343
67	0xbebb013f	-0.36524388
68	0xbebbc920	-0.36676884
69	0xbf21d6a0	-0.63218117
70	0xbdd45d06	-0.10369305
71	0xbe283219	-0.1642536
72	0x3d20bc9f	0.039242383
73	0xbe972b5b	-0.29525265
74	0xbe8b7774	-0.27239573
75	0xbe42341a	-0.18965188
76	0xbe21ec95	-0.15812905
77	0xbe53e631	-0.2069328
78	0xbe2b0c92	-0.16704014
79	0xbde19413	-0.11014571
80	0xbe936f99	-0.2879608
81	0xbeb4da53	-0.35322818
82	0xbf554358	-0.83305883
83	0xbeb25021	-0.34826759
84	0xbe91e941	-0.2849827
85	0xbed81943	-0.42206773
86	0xbe992b7d	-0.2991599
87	0xbd9da7fb	-0.07698055
88	0xbe16f79c	-0.14742893
89	0xbdeadd5f	-0.114680044
90	0xbe8f1b62	-0.2795058
91	0xbe53cbd0	-0.20683217
92	0xbf02a86f	-0.5103826
93	0xbf12a49b	-0.5728242
94	0xbe934fb4	-0.28771746
95	0xbe8f716b	-0.2801622
96	0xbf5f35c3	-0.8719141
97	0xbe0e489f	-0.1389489
98	0xbed91323	-0.42397413
99	0xbddf8a9c	-0.109151095
100	0xbe651f5c	-0.22375244
101	0xbe5f709d	-0.21820302
102	0xbe6b4c77	-0.22978388
103	0xbe7024e4	-0.23451573
104	0xbf1f33ec	-0.621886
105	0xbe93df3b	-0.2888125
106	0xbec42a9a	-0.38313752
107	0xbe7a1fe6	-0.24426231
108	0x3c866622	0.016406123
109	0xbebfe5d0	-0.3748002
110	0xbe654109	-0.2238809
111	0xbf0f65c5	-0.56014663
112	0xbe230906	-0.15921411
113	0xbec1d8a8	-0.37860608
114	0xbe216651	-0.15761687
115	0xbe08fcc2	-0.1337767
116	0xbe6c3fbb	-0.23071186
117	0xbe9c1323	-0.3048335
118	0xbf102028	-0.56299067
119	0xbea3c8c4	-0.3198911
120	0xbe2a8a33	-0.16654281
121	0xbe6bce93	-0.2302802
122	0xbeb24681	-0.34819415
123	0xbede3653	-0.4340082
124	0xbeaf4841	-0.34234813
125	0xbe6f2e7c	-0.23357576
126	0xbf09136a	-0.5354525
127	0xbe95ddc5	-0.2927076

weight f4 [16, 128]
0	0xbd77e4b0	-0.060520828
1	0x3c31e87d	0.010858652
2	0x3d27b34a	0.040942468
3	0xbc9f7ae3	-0.019467777
4	0x3c00d405	0.007863049
5	0xbd2aab21	-0.041667107
6	0xbcda230c	-0.02662804
7	0x3cba5fdf	0.022750793
8	0x3b699485	0.0035641503
9	0x3d11dbeb	0.03561012
10	0x3c9e00f3	0.019287562
11	0x3c376f40	0.011195958
12	0x3c6ae5a2	0.014336975
13	0x3d1e9bc2	0.03872276
14	0xbd4d938c	-0.05018954
15	0xbd187018	-0.037216276
16	0xbc23e8da	-0.010004247
17	0xbdb2348c	-0.08701429
18	0xbd10d9e2	-0.03536404
19	0xbd5ec86d	-0.05439036
20	0x3cb8fcab	0.022581419
21	0x3d16e3b0	0.036838233
22	0xbd4fbdfc	-0.050718293
23	0x3cead783	0.028667217
24	0x3cbe685d	0.023243124
25	0x3c91a5a8	0.017779186
26	0xbb8a357b	-0.004217801
27	0xbddaf60c	-0.10691461
28	0xb9ba0591	-0.00035480832
29	0x3da3c3be	0.07996319
30	0xbd4f2c4d	-0.050579358
31	0xbce84a3d	-0.028355712
32	0xbc12ac19	-0.008952164
33	0x3d01d525	0.03169741
34	0xbdc7b905	-0.097520865
35	0x3d5561a4	0.05209507
36	0xbc26f8ca	-0.010191152
37	0xbbfa2842	-0.0076341936
38	0x3d4c3922	0.049859174
39	0x3cbb638b	0.022874614
40	0xbb8de305	-0.0043300414
41	0x3da0254c	0.07819614
42	0xbdd98a1b	-0.10622045
43	0x3cd62eb3	0.026145315
44	0x3c16459e	0.0091718715
45	0xbbafcd94	-0.005365083
46	0x3cdc9e25	0.026930878
47	0xbd1e8ef5	-0.038710553
48	0x3c8455c6	0.016154181
49	0x3b72e63c	0.00370635
50	0xbcd5a3fe	-0.026079174
51	0x39926cb8	0.00027928292
52	0xbc9e486b	-0.019321641
53	0xbd100381	-0.03515959
54	0x3c4f6470	0.0126582235
55	0x3df2c8d1	0.11854709
56	0x3d7f52a3	0.062334668
57	0x3d1d0fc1	0.038345102
58	0x3db74bc0	0.08949995
59	0x3df82a5d	0.12117455
60	0x3cbb4456	0.022859734
61	0x3d6a5393	0.05720861
62	0xbce0b235	-0.027428726
63	0x3db88a75	0.090107836
64	0x3bddcee0	0.006769046
65	0x3c939cb1	0.018019052
66	0xbc5dc76b	-0.0135363145
67	0x3e132ae4	0.1437183
68	0xbc84f1bd	-0.016228551
69	0x3d229fc6	0.039703153
70	0xbba1e1fb	-0.004940269
71	0x3dabb48b	0.08384045
72	0xbd03cc26	-0.032177113
73	0xbad23ae9	-0.0016039285
74	0x3c3d43b3	0.011551785
75	0x3cd15565	0.025553415
76	0x3d27020b	0.040773433
77	0xbcf5a2c2	-0.029984836
78	0x3d56b971	0.052422944
79	0xbc6dc89c	-0.014513161
80	0xbdae4672	-0.0850953
81	0xbcbad9ee	-0.022808995
82	0xbd7002f5	-0.05859657
83	0xbd1987d7	-0.037483063
84	0xbd707388	-0.05870393
85	0x3d8489d1	0.06471599
86	0xbc88e447	-0.016710414
87	0xbce5a1c1	-0.028031232
88	0xbdb6f853	-0.08934083
89	0xbd2147c5	-0.039375085
90	0xbd814ce5	-0.063134946
91	0x3ba6f575	0.0050951787
92	0xbc7137b8	-0.014722757
93	0x3c41895a	0.011812532
94	0xbd3515f0	-0.044210374
95	0x3dde06f6	0.108411714
96	0x3d349e77	0.044096436
97	0x3d82b463	0.06382062
98	0x3d3c6592	0.045995302
99	0x3e5310c4	0.20611864
100	0x3dc8f90b	0.09813126
101	0x3c09c5d8	0.008408986
102	0xbdcdfda2	-0.10058142
103	0x3c53a141	0.012916864
104	0xbc80af15	-0.015708486
105	0xbcf4d2ed	-0.029885734
106	0xbd6e488e	-0.058174662
107	0x39894594	0.00026182516
108	0x3ce86993	0.028370654
109	0xbd02686c	-0.031837866
110	0xbd1d5d8f	-0.038419303
111	0xba93049a	-0.0011216581
112	0xbcf3033c	-0.029664628
113	0xbcbc2f4d	-0.022971774
114	0x3d495685	0.049154777
115	0x3c797cef	0.01522754
116	0x3c1fa9e5	0.009745096
117	0x3da9927a	0.08279891
118	0x3e1025cf	0.14076923
119	0xbc2b2852	-0.010446625
120	0x3c8dadd2	0.017294798
121	0x3a8823e8	0.0010386677
122	0x3d70f94b	0.058831494
123	0xbd83f22f	-0.06442677
124	0xbdf243d8	-0.118293464
125	0xbdbb1f88	-0.091368735
126	0x3df3adbc	0.118983716
127	0x3d1e0d7f	0.03858709
128	0xbd60daec	-0.05489628
129	0x3d60e521	0.054906014
130	0xbc12a989	-0.008951553
131	0x3d4a0f22	0.049330838
132	0xbc257166	-0.010097837
133	0xbe107817	-0.1410831
134	0x3c801c00	0.015638351
135	0x3db06456	0.086128876
136	0xbc1636a3	-0.0091683
137	0x3cbe550f	0.023233918
138	0xbdb3bae5	-0.08775882
139	0xbd12eccd	-0.035870362
140	0xbcff3670	-0.031153888
141	0x3c880ae8	0.016606763
142	0xbb8043d0	-0.003914334
143	0x3d45476b	0.048163813
144	0xbb6a21c5	-0.0035725695
145	0x3d5ea524	0.05435671
146	0xbd192e81	-0.037397865
147	0x3cba9ca7	0.022779776
148	0xbbe30c95	-0.00692899
149	0x3c9dfb35	0.019284824
150	0xba190ab9	-0.00058380846
151	0x3d111931	0.035424415
152	0x3b88072e	0.0041512465
153	0xbce2067a	-0.027590979
154	0xbba86140	-0.005138546
155	0xbc67ab1b	-0.014139916
156	0x3c81f6f2	0.015864823
157	0x3da70004	0.081543
158	0xbca68e7c	-0.020331614
159	0x3c9110ea	0.01770826
160	0xbc000943	-0.007814708
161	0x3d7f557f	0.062337395
162	0xbba3e3a6	-0.005001503
163	0x3c931d4e	0.01795831
164	0x3caaaec3	0.020835286
165	0x3d5a7fb6	0.05334445
166	0x3d40b6bd	0.047049273
167	0x3d2939b8	0.04131481
168	0x3c91c77d	0.017795319
169	0xbcd2ca76	-0.025731307
170	0x3d133d93	0.035947394
171	0x3c98691a	0.018604804
172	0x3dda9d2c	0.106745094
173	0x3d3306c0	0.04370761
174	0x3baef3c8	0.0053391196
175	0x3d7adfeb	0.0612487
176	0x3d635aeb	0.055506628
177	0x3de1aecd	0.11019669
178	0xbcb1c83a	-0.02170192
179	0xbc93b342	-0.018029813
180	0xbdc6413e	-0.09680413
181	0xbd77c3d4	-0.06048949
182	0xbccfdd90	-0.025374204
183	0x3cab3bfb	0.020902624
184	0x3dc9b328	0.098486245
185	0x3dbe3dbb	0.09289118
186	0x3d171861	0.036888484
187	0xbc1c8851	-0.009553985
188	0xbde37402	-0.11106111
189	0xbc1403ac	-0.009034079
190	0x3c9d75fd	0.0192213
191	0xbdac6930	-0.084185004
192	0x3c4424cd	0.011971665
193	0xbd761d9b	-0.060086828
194	0xbd1b6444	-0.037937418
195	0xbd0dddbd	-0.034635294
196	0x3ce5418b	0.027985355
197	0xbdd60557	-0.10450237
198	0xbc847d75	-0.016173104
199	0x3d42d9d3	0.047571015
200	0x3dadf065	0.08493117
201	0x3b20d21e	0.0024539302
202	0x3c226c74	0.009913553
203	0x3c33ba19	0.010969662
204	0x3d1f949e	0.03896009
205	0xbd8bc7ea	-0.0682524
206	0x3d2cc9f8	0.0421848
207	0xbd08b13e	-0.033372156
208	0x3e51876a	0.20461813
209	0xbc82d8ef	-0.015972583
210	0x3da81252	0.08206619
211	0x3d3af012	0.045639105
212	0x3de8c013	0.1136476
213	0xbc1f1a9e	-0.009710936
214	0xbd65b947	-0.056084897
215	0x3c04ada5	0.008098041
216	0xbd721c03	-0.059108745
217	0xbcdb08ab	-0.026737532
218	0x3db93cd7	0.090448074
219	0x3c4f438d	0.012650383
220	0xbde8b478	-0.11362547
221	0x3d728cb2	0.05921621
222	0x3c2ee5b4	0.010674883
223	0x3cada15c	0.021195106
224	0xbaf0f953	-0.0018384851
225	0xbccba6ce	-0.024859812
226	0x3ce4da17	0.027936025
227	0xbcedaa74	-0.029011942
228	0x3dc8d08c	0.09805402
229	0xbac3c40c	-0.0014935746
230	0x3d9b8560	0.07593799
231	0xbc8c8d18	-0.017157122
232	0x3bc92c63	0.0061393245
233	0x3c7d4ab7	0.015459708
234	0x3da1adf4	0.07894507
235	0x3c27f655	0.010251601
236	0x3cb9b0a7	0.022667242
237	0x3bfc71ca	0.0077039944
238	0x3d4dce1b	0.050245386
239	0x3cbc9f7d	0.023025269
240	0x3d6801f3	0.056642484
241	0xbca81386	-0.020517122
242	0xbca513ed	-0.020151103
243	0xbc96872f	-0.018375007
244	0xbda4de76	-0.080502436
245	0xbe09974b	-0.1343662
246	0x3dcb88a2	0.0993817
247	0xb980de53	-0.00024579707
248	0x3d01ffa2	0.03173793
249	0x3d6996c2	0.05702854
250	0xbcac7ef5	-0.021056632
251	0x3dfc72e6	0.12326603
252	0xbd105fc6	-0.035247587
253	0xbd37bcb2	-0.04485769
254	0x3ba35d94	0.0049855206
255	0xbc841746	-0.016124379

bias f4 [16]
0	0xbed5e7d5	-0.41778436
1	0xbda6f4dc	-0.08152172
2	0xbdb24b6f	-0.08705794
3	0x3e83ab9b	0.25716862
4	0xbe187e2f	-0.14891885
5	0xbdefd1af	-0.11709916
6	0xbe5f8871	-0.21829392
7	0x3e2f083b	0.17092983
8	0x3bc3f27b	0.0059798337
9	0xbc7b024b	-0.015320371
10	0x3e400a2f	0.18753885
11	0x3b50d7f0	0.003186699
12	0x3cf365e1	0.029711666
13	0x3e2a78eb	0.16647689
14	0x3cdc5463	0.026895707
15	0xbe8132a0	-0.25233936
