policy/lite3/himloco/policy_6_11.pt (torch, 991167 bytes, 14 tensors)

weight f4 [512, 64]
000000 e5 f8 19 be ff ce 71 bd d3 ab c7 3e 2b c5 b0 3d
       -0.15036352 -0.059035297 0.3899828 0.08631357
000010 37 81 05 be bf 02 a4 bd 57 d4 af 3e c6 41 b5 be
       -0.13037573 -0.08008336 0.3434169 -0.35401744
000020 38 ef a0 3d c2 f4 d5 be ce 71 69 3e 88 4d 30 3e
       0.07858127 -0.41788298 0.2279732 0.17217076
000030 36 18 9f 3c d0 69 a4 3e a7 6a a3 3b a4 13 5a bd
       0.019420724 0.3211198 0.004987079 -0.053241387
000040 df 37 95 be 40 0d 6d 3d 89 45 c0 be 48 ab 09 be
       -0.2914419 0.057873964 -0.3755305 -0.13444245
000050 fd 8c b3 bc 22 e0 10 bf 73 1a 19 bd 93 85 a4 3d
       -0.021917814 -0.56592 -0.03737874 0.0803329
000060 50 aa db bc f2 56 5e 3e d1 4e ef 3d d6 cd 07 be
       -0.02681461 0.21712855 0.11684955 -0.13262114
000070 f3 91 36 bc 07 2c c5 3b 59 96 b8 3c c5 c5 18 bc
       -0.011143195 0.0060172114 0.022532629 -0.009324496
000080 11 30 cd 3a 79 cc c5 3d 86 c7 8b bd be d1 1c bd
       0.0015654584 0.09658141 -0.068251655 -0.038285963
000090 5e 0b fb bc 97 96 ae bd aa f1 0c 3d 6e 22 2d 3d
       -0.030645069 -0.085248165 0.034410156 0.042269163
0000a0 ca 99 36 3d c4 f3 95 bd 82 78 1d 3c 01 44 ab 3c
       0.04458026 -0.07321885 0.009611251 0.02090645
0000b0 5c 1f e0 bc f3 09 48 3e f3 ce 85 3d 2b bb 1e be
       -0.027358703 0.19535045 0.06533613 -0.15501086
0000c0 38 94 48 be b1 c3 10 be 70 7e 33 3c 8d 89 b7 bd
       -0.19587791 -0.1413715 0.010955438 -0.089617826
0000d0 34 ac b8 bd 86 65 09 bd 33 ca 27 be 15 1f d7 bc
       -0.0901722 -0.033544086 -0.16385727 -0.026259938
0000e0 0f 81 be bc ea 35 92 3d b7 67 d1 37 2a ff e6 3d
       -0.0232549 0.071391895 2.4963038e-05 0.112791374
0000f0 05 3c 27 3c 7d 96 8d bd 25 3e 68 bc 10 91 1d 3b
       0.010207181 -0.06913469 -0.014174973 0.0024042763
000100 a0 16 84 3c 6d ca ed 3c 84 0f d6 be 42 fb 7c bd
       0.01612407 0.029027188 -0.41808712 -0.061763056
000110 a5 fa 02 be ac f3 80 bd b2 2c 37 3d af 77 15 be
       -0.12790926 -0.06296477 0.04472036 -0.14596437
000120 be 81 89 3e 04 bc e6 be 41 4c a7 bc b5 61 25 be
       0.26856798 -0.4506532 -0.020422103 -0.16150554
000130 9a fd bf 3e c5 4c 1b be c3 28 9c be ff 6e 8e be
       0.3749817 -0.15166004 -0.3049985 -0.27819058
000140 a8 a6 13 3d 54 6f 43 3d e2 69 2d bd 0b 4c a6 bd
       0.036047608 0.047713593 -0.042337306 -0.08119973
000150 63 6e 56 bd ad 63 bd be 53 d4 73 3e 3f 76 14 3e
       -0.052351367 -0.3699011 0.23811464 0.14498232
000160 fe 32 13 bf 8e fa 7d 3d b8 32 1d be e0 24 a2 3e
       -0.5749968 0.062006526 -0.15351379 0.31668758
000170 09 9b 43 3e d5 6f 6b bd 94 61 0e 3e a8 f2 62 be
       0.1910211 -0.0574797 0.1390441 -0.22162879
000180 3d 8d c1 bc 29 27 cd bd 0b 04 90 bd 20 56 e2 bc
       -0.023626918 -0.10017235 -0.07032021 -0.027628958
000190 44 9c 45 3e 09 bf 0d 3b f3 0e 72 3b 85 c5 f4 bd
       0.19297892 0.0021628758 0.003693518 -0.11951736
0001a0 a7 78 ff bc 53 1d ee bb e2 ce 6f 3d b4 13 e4 bb
       -0.031185461 -0.0072666793 0.05854691 -0.0069603566
0001b0 34 e3 a9 3d 47 a7 ee bc 41 47 e1 3d 68 b9 e1 bd
       0.08295289 -0.029132498 0.10999919 -0.110216916
0001c0 0e 3d 14 3c 1e df 00 bc e8 61 49 bc 95 cc c9 bd
       0.00904776 -0.007865695 -0.012291409 -0.09853474
0001d0 03 e2 4a 3d a5 29 7b bd ef e6 c2 bd 55 68 1f bd
       0.049531948 -0.061319012 -0.09516703 -0.03891786
0001e0 31 87 fd 3d 3c 15 2f bd 87 e2 b1 3c e2 2a e9 3d
       0.12379301 -0.04274486 0.021714462 0.11385132
0001f0 83 99 85 3d 63 ff 14 3e 46 1c 75 3c f5 02 e9 3b
       0.06523421 0.14550547 0.014960354 0.007110948
000200 49 73 5f bd 35 35 7c 3b 15 b9 f0 3d e5 08 19 3e
       -0.054553304 0.0038483862 0.117540516 0.14944799
000210 4b 2a 8e 3e 2a af ab be a8 e0 7c bd 01 fe 5a 3e
       0.27766642 -0.33532077 -0.061737686 0.21385957
000220 c8 f1 2e bd 1b c2 a6 3e c9 13 a3 3d e9 17 4b 3e
       -0.04271105 0.32569966 0.07962758 0.1983334
000230 25 f8 a5 be d2 b1 02 be 5f 90 34 bd 37 f9 84 3d
       -0.32415882 -0.12763146 -0.044082996 0.064928465
000240 ad 81 51 3e 4f 2b 20 bf 69 92 21 bd b5 73 ae be
       0.20459624 -0.62566084 -0.03944627 -0.34072652
000250 91 20 b6 3d 5d b8 0a 3c 98 96 13 be 37 24 08 bd
       0.0889293 0.008466807 -0.14412916 -0.033237662
000260 8f ff 68 be 6d ba c1 3b 89 49 d6 bd 79 67 8c be
       -0.22753738 0.0059121163 -0.104632445 -0.27422693
000270 3b 78 e1 bd 2c c3 ee bd a2 73 37 bd a7 21 68 bd
       -0.1100926 -0.1165832 -0.04478801 -0.05667272
000280 24 e5 ea 3d 41 32 de bc 73 0e 34 bc 77 17 04 bc
       0.11469486 -0.027123572 -0.010989773 -0.008062235
000290 87 d6 61 3d cc 90 4d 3d 58 a5 24 3d fd 40 85 3d
       0.05513623 0.050186917 0.040196747 0.06506536
0002a0 1d 8e bd bd 37 7d 92 3d 1a 19 40 3d bc 9c b0 3d
       -0.092556216 0.07152789 0.04689894 0.08623645
0002b0 78 d4 a3 bc 80 cd 0e 3d a2 b1 11 3d 99 51 bc 3d
       -0.019998774 0.03486395 0.035569794 0.09195251
0002c0 92 39 56 3d ef 9c c8 bd cf 80 32 bc 26 a1 70 3c
       0.052300997 -0.09795558 -0.010894968 0.014686858
0002d0 e7 7b 9a bd 99 d9 e2 bc f5 46 f4 bc 13 2c 3f 3d
       -0.07543164 -0.02769165 -0.029818991 0.04667289
0002e0 3d 83 a5 bd 16 4f ca 3d 82 9d 6f 3d 52 3d 29 bd
       -0.08081672 0.09878366 0.05849982 -0.041318245
0002f0 99 45 ab 3d b6 e6 a3 bd f7 bd 3e bd 36 2f 9c bd
       0.08362884 -0.08002989 -0.046567883 -0.07626192
000300 cb a7 f8 3c 14 f3 7c bd ff 18 30 3f 30 39 a1 be
       0.030353447 -0.061755255 0.6878814 -0.31488943
000310 4e 6f 04 be 56 3e c0 be 2f 3d 96 3e f2 a0 9a 3e
       -0.12933084 -0.3754756 0.29343554 0.30200917
000320 bd 30 38 3e 72 39 ad 3d 6d 1b ab bd 75 df fe 3e
       0.17987342 0.084582224 -0.083548404 0.4977986
000330 76 62 ef bd e0 83 4e 3d 3a e5 69 bd 65 a5 9d 3e
       -0.11688702 0.050418735 -0.057103373 0.3079025
000340 4d dd 8d 3e cc d7 c2 3e 63 e8 50 bd b1 10 7f 3e
       0.27707902 0.38055265 -0.05100287 0.24908711
000350 23 9d 34 3d 39 b5 98 3c 1d 00 15 3d 2f 8b 18 bd
       0.04409517 0.018641101 0.03637706 -0.03724211
000360 e4 86 52 3e a4 1c cd 3d 4a d5 d5 3d 86 d5 e1 3d
       0.20559269 0.100152284 0.10441072 0.110270545
000370 5a 04 cc 3d 27 9d ba bd 0c 96 90 3e 6b 7f ba 3d
       0.099617675 -0.09112006 0.28239477 0.09106334
000380 a7 86 2c bc 16 66 1f bd 63 1f 8d bb 01 96 32 bd
       -0.0105301505 -0.038915716 -0.00430672 -0.043600086
000390 db ae 0b 3d 24 32 88 bd a5 12 8f 3c 2c 43 70 bb
       0.034102302 -0.066501886 0.017464945 -0.0036661131
0003a0 65 5b 4e bd bb 51 96 bc 28 e2 f9 3b ef 20 9d bd
       -0.05038013 -0.018349519 0.007625837 -0.07672297
0003b0 41 89 2d 3c 05 98 7d bd 31 e3 ab 3d d9 3c 35 be
       0.010591806 -0.061912555 0.08392943 -0.17698993
0003c0 c6 ae d6 3d ba 83 d8 3d 2b dd 1d 3e cc 7c 9d 3d
       0.10482554 0.10572 0.154164 0.07689819
0003d0 60 45 fc bd 70 99 80 3b 2a 4b da bd dd 60 18 bc
       -0.1231792 0.003924541 -0.10658868 -0.009300438
0003e0 4b 46 9d ba 18 a0 4e bd 63 90 09 bd 52 5e eb 3d
       -0.0011999098 -0.050445646 -0.033584964 0.114925995
0003f0 6a d8 86 bd 39 5c 1d 3e cc 4b 2b 3e d4 25 1f bc
       -0.065842465 0.15367211 0.16728133 -0.009713609

bias f4 [512]
000000 19 35 88 bc 4f 4d a1 bd c1 b5 22 be 3d 03 9d bd
       -0.016626881 -0.078760736 -0.15889646 -0.07666633
000010 26 15 b1 3d 72 1d 63 be 41 5a 94 3d 0f 23 04 bd
       0.08646612 -0.22179201 0.07243777 -0.032259997
000020 5f 38 72 bd ae e0 07 bd c4 83 b5 3d cf 0b 18 3e
       -0.05913579 -0.033173256 0.08863023 0.14848255
000030 02 55 e0 bd 7a fe 47 be 89 af d7 bd 29 e7 43 3d
       -0.10953714 -0.19530669 -0.105315275 0.047827873
000040 30 32 74 be 73 d6 87 be 54 57 b3 bd 31 f1 2a bd
       -0.2384727 -0.265308 -0.08756891 -0.041733924
000050 41 1d 61 3c 13 43 9d 3d 02 fb 80 3d f5 a3 3a 3c
       0.013739885 0.07678809 0.06297876 0.011391629
000060 10 27 cb bd a0 05 93 bb d2 91 2b 3c f6 8d 5e bc
       -0.0991956 -0.0044867545 0.010471778 -0.013583651
000070 1e e0 af bd 51 6f c3 bb 53 38 89 3d 97 36 88 3d
       -0.08587669 -0.0059641977 0.06700196 0.06651037
000080 70 5b 57 3d e8 d8 2c be 89 d5 2e 3e 0a 51 c4 3d
       0.052577436 -0.16879618 0.17073645 0.095857695
000090 c2 90 9e 3d 8f 82 a3 bd ef 44 14 bd 4a d4 9c 3d
       0.07742454 -0.079838865 -0.036198553 0.076576784
0000a0 08 ae 27 be 32 20 f4 3d 72 c2 19 be 33 16 a8 bd
       -0.16374981 0.11920203 -0.15015581 -0.08207359
0000b0 3f f0 ea 3c 13 5d 48 3d 56 6c 5f be 61 ce 36 be
       0.028679011 0.048916887 -0.2181867 -0.17852165
0000c0 83 d4 ec bd b0 9f fc bd f8 b9 0c bd 29 79 fb bd
       -0.11563971 -0.123351455 -0.03435704 -0.12278969
0000d0 bb 77 f0 bc ca 34 59 3c c9 a5 16 bc 38 9c 38 be
       -0.029353967 0.013257215 -0.0091948 -0.18028343
0000e0 c8 ef 15 be ed ba 0b 3e ae 82 e7 bd 60 64 00 be
       -0.1464225 0.13645525 -0.11304222 -0.1253829
0000f0 de 9c 10 3d 1e 4a 3e 3d dd 54 17 bc a3 ca 39 be
       0.03530585 0.046457402 -0.009236542 -0.18143706
000100 91 74 97 3d 07 b2 fc 3c 6a 25 d7 bd dc 15 0d be
       0.0739528 0.030846609 -0.10505183 -0.1377787
000110 72 45 b5 3c ff 23 23 3e aa 25 2a 3e 08 da 0d 3d
       0.02212784 0.159317 0.1661593 0.03463176
000120 a2 eb 18 3d 92 01 f6 bd 9d 9b d4 3d 5e ca 09 be
       0.037334092 -0.12012018 0.103812434 -0.13456103
000130 f5 82 0e 3e 6c c1 65 bd 21 48 5c bd ce 5a 54 3d
       0.13917144 -0.056092665 -0.053779725 0.05184441
000140 e6 0b 21 3a 67 d8 61 be 12 27 d3 3d 9a 50 93 bc
       0.00061434356 -0.22055207 0.103101864 -0.01798277
000150 3e 57 05 be fc 3a ba 3c c5 73 69 3c 74 22 a2 bd
       -0.13021562 0.022733204 0.014248793 -0.07916728
000160 b8 54 47 be a4 ab d9 bc dc 24 df 3c b9 9b 0e be
       -0.19465911 -0.026571102 0.027239256 -0.13926591
000170 8f f2 5d 3d 6b bf 57 be 4b a6 a6 be 04 2b 50 3d
       0.0541864 -0.21069114 -0.32548746 0.050822273
000180 dc c3 e0 3d 0f a7 82 3c 36 29 5d bd f1 5c 84 3d
       0.10974857 0.0159488 -0.05399438 0.0646304
000190 16 f4 54 be 5b 89 68 bb 2d b9 62 ba 15 a2 22 bc
       -0.20796236 -0.003548226 -0.0008648809 -0.009926339
0001a0 7e 32 da 3d a6 da 99 bd ef dd 05 be da 16 68 3d
       0.10654162 -0.07512407 -0.13072942 0.056662418
0001b0 8c 7a 27 3e 55 00 09 3e 14 cd 39 3c 32 b1 eb 3d
       0.16355342 0.13379033 0.011340398 0.11508407
0001c0 7d 4d 5e 3b 12 01 da 3d 88 81 69 be 0f 6f 20 be
       0.0033920698 0.106447354 -0.22803319 -0.15667365
0001d0 be 61 33 be 98 f2 b0 3d bf b1 b1 3c 32 9c 07 3d
       -0.17517754 0.08640021 0.021691201 0.033107944
0001e0 2a a6 1d 3e c7 27 5f 3e 38 c4 d7 3d 98 6b 4c 3e
       0.15395418 0.21792518 0.10535473 0.19962919
0001f0 68 46 8c bd 01 f3 14 3d ff af e0 bd 71 4a 1e 3e
       -0.068493664 0.03636456 -0.109710686 0.15458085
000200 d4 fd 1f be 29 7a 94 bd d2 17 26 3d d0 df 63 3c
       -0.15624171 -0.07249863 0.04055006 0.0139083415
000210 8b 84 80 3d cf 99 86 bb 9b 4c 49 3e 5a 8d b7 3d
       0.062752806 -0.004107691 0.19658129 0.089625075
000220 be 68 6e bd f7 41 21 3c 93 ae 31 be 27 6e 45 3c
       -0.05820536 0.009842387 -0.17351751 0.012050188
000230 c7 84 10 bc 8e a5 90 3d fc 86 43 bd bc 4b 1c 3e
       -0.008820719 0.07062827 -0.047736153 0.15263265
000240 82 fb 34 be 55 30 de bd 86 e7 11 be 9f ab 36 be
       -0.17674068 -0.10849062 -0.14248475 -0.17838906
000250 4d c3 cd 3d 9e 88 d3 3c 29 0e 2d be bb 4b 13 3c
       0.10047016 0.02582198 -0.16899933 0.0089902235
000260 67 73 f7 bd 12 18 3d 3e e9 e5 dc 3d 6c 41 0b bd
       -0.12082558 0.18466213 0.107860394 -0.033997938
000270 a4 78 86 be 6f d0 36 be fa c1 5d bd 82 2a 5b 3e
       -0.26263916 -0.17852949 -0.05414007 0.21402934
000280 1e da 47 3a 80 b5 17 3c 13 6f 52 be b1 bd 88 bd
       0.00076237496 0.009259582 -0.20550184 -0.06676806
000290 d3 2c 4b bd d1 7f 71 bd 89 a0 c6 3d 57 72 a5 3d
       -0.049603295 -0.058959786 0.096985884 0.08078449
0002a0 46 e6 7b bd de d4 b0 bd 24 71 d2 3d 8e 3f 56 3d
       -0.061498903 -0.08634351 0.10275486 0.052306704
0002b0 27 3b db 3d 2c 8e 1c be 71 06 88 bd cf 22 e4 3d
       0.10704642 -0.1528861 -0.066418536 0.11139452
0002c0 74 dd ca 3c 10 b3 3a be 7d fb 67 bd 13 15 5d 3e
       0.0247638 -0.1823237 -0.056636322 0.2159007
0002d0 50 9b 74 bd 6e 0a 8c bd 33 cf 83 bd e0 11 e5 3c
       -0.05971843 -0.06837927 -0.064360045 0.027962625
0002e0 19 02 f0 bd e7 e8 83 3d 9f 4d 2e be d0 7c 71 be
       -0.1171915 0.06440907 -0.17021798 -0.23582768
0002f0 1e cf bb 3d e7 6e 26 bc 51 b2 8d bd 26 28 92 be
       0.09170364 -0.010158277 -0.06918777 -0.28546256
000300 95 a6 5b bd eb 2c 52 3c 5d c0 7f bd 4d f4 b4 3d
       -0.053625662 0.012828092 -0.06243931 0.08835659
000310 fb 1d 64 be 03 9b 04 3e 4a cc 49 be f0 43 27 bd
       -0.22277062 0.12949757 -0.19706836 -0.040836275
000320 a1 c5 42 3b a7 d0 91 be 67 4b 4c bd e9 4e 99 be
       0.0029719847 -0.28479502 -0.049876597 -0.29943016
000330 25 d6 40 3c 86 8f e8 bd 74 eb 07 be fe 5e b4 bd
       0.011769806 -0.113555 -0.13273412 -0.08807181
000340 31 cb d9 3b 5b d1 bf 3d ad 64 24 be e6 b3 b4 bd
       0.0066465368 0.09366103 -0.1605403 -0.088233754
000350 21 25 1b be da 6d 2f bd 00 e7 ad 3c af 72 df bd
       -0.15150882 -0.042829372 0.021228313 -0.10910546
000360 72 c6 9f bd 32 79 26 3e 5e 8a 55 be 52 91 a3 3d
       -0.07801522 0.1625717 -0.20853564 0.07986702
000370 00 b5 3f 3e ef 08 1a 3e 22 66 82 3b 52 5a 44 be
       0.1872139 0.1504247 0.0039794603 -0.1917508
000380 87 d8 ed 39 68 0b 2f be 04 fb de 3c 65 59 94 bd
       0.00045365488 -0.17094195 0.027219303 -0.07243613
000390 de da 28 be c9 cb d5 bd c2 2c 01 3e 7e 47 e2 3d
       -0.16489741 -0.104392596 0.1261473 0.11048792
0003a0 47 10 9b bd 68 7c ac bc 05 cd 28 be a4 64 4e be
       -0.07571464 -0.021055415 -0.16484459 -0.20155579
0003b0 f1 27 3e 3c dd 0f 8f be 19 b6 2a 3d 67 45 16 3d
       0.011606202 -0.2794179 0.041677568 0.03668728
0003c0 7d c1 c1 3c 4a 82 8e be b2 47 9f 3d 09 a2 00 be
       0.023651833 -0.27833778 0.07777347 -0.12561812
0003d0 6c 10 01 be 69 cf 4d 3d 52 be 6f 3d d7 77 33 be
       -0.1260392 0.05024663 0.058531113 -0.17526184
0003e0 10 7e 93 3d 4c 99 28 be 9b 6c 27 3e 42 55 92 bc
       0.07201779 -0.16464728 0.16350023 -0.01786292
0003f0 bb 01 0b 3d ff 89 59 be 9c 23 ba 3c b0 7e 34 be
       0.033937197 -0.21244048 0.022722058 -0.17626452

weight f4 [256, 512]
000000 3e fd 9a be 2d 8c 34 3e 43 56 5a bd 09 75 00 bd
       -0.30271333 0.17631598 -0.05330492 -0.031361613
000010 b3 7b 87 be dd 5d 72 be ef e1 f7 bd 05 47 2b be
       -0.26461563 -0.23668619 -0.1210364 -0.1672631
000020 03 77 75 bd b1 59 48 be 65 26 91 bc fc d6 40 be
       -0.05992795 -0.19565465 -0.017718503 -0.1883201
000030 6a 60 98 bd f4 50 4e 3d c7 cb e5 bd 03 81 d4 bc
       -0.074402645 0.05037017 -0.11220508 -0.025940424
000040 26 c6 fb 3c bf 0a 74 3e c9 9c 1e 3e 76 b2 88 3d
       0.030734133 0.23832224 0.15489496 0.06674664
000050 8d 8f 9b be c8 d4 49 bd bc ee 1b 3e 94 ea 1d be
       -0.30382958 -0.04927519 0.15227789 -0.15421516
000060 97 ce e0 3d dc 85 9e bd 9e 0e 07 be 36 cc 9f 3e
       0.10976904 -0.077403754 -0.1318917 0.31210488
000070 8c 1e 49 3e ad b6 80 bd 67 a0 51 3e 21 db ea bd
       0.19640559 -0.06284843 0.20471345 -0.11467577
000080 6b e5 a3 be dd 9b fc bc 0a 00 60 be 2d 8d 02 3d
       -0.3201097 -0.03083604 -0.21875015 0.031872917
000090 89 39 c7 3d 41 b4 ac bd 85 24 87 3d 46 0a 36 bd
       0.09727771 -0.08432818 0.065987624 -0.04444339
0000a0 4d 84 89 3e e3 5c 60 be 57 87 57 3d 17 b8 64 3c
       0.2685875 -0.21910433 0.052619305 0.013959906
0000b0 19 a7 1f 3e 6e 29 26 3e 87 5e 95 3e c4 48 84 3d
       0.15591086 0.16226742 0.2917368 0.064591914
0000c0 46 db 81 3e c2 b1 17 be 77 7f 31 3e d9 2b 1e bd
       0.25362605 -0.14813903 0.1733378 -0.038616035
0000d0 41 9e da bc 15 5b d6 bd 4f 01 73 be 3c c0 ea bc
       -0.02668679 -0.10466591 -0.23730968 -0.028656118
0000e0 20 17 b0 b9 48 14 0e bd de f5 2b 3e 72 83 82 3d
       -0.00033586565 -0.03468731 0.1679301 0.063727275
0000f0 95 d1 df 3d ac 5b 74 3d c2 38 31 bb 80 e2 79 be
       0.109286465 0.059657738 -0.0027041887 -0.24402809
000100 70 de 03 be 23 ae 77 3d 27 b2 5e 3c 9d 9d 5a be
       -0.12877822 0.060468804 0.0135922795 -0.21349187
000110 a6 19 bf bd 26 f4 f0 bd d9 b4 09 be 51 0a 5b 3e
       -0.09331064 -0.117653176 -0.13447894 0.21390654
000120 5f 38 69 bd 59 4d 81 3d cb d9 36 3c 4f 2e bf 3e
       -0.056938525 0.06313581 0.011160324 0.37340018
000130 01 c3 12 be a4 28 03 3e cf d9 36 be 5c 29 7b 3d
       -0.143322 0.12808472 -0.17856525 0.06131874
000140 42 a7 58 bd fb 23 8e 3e 58 99 f3 3d c0 60 1d 3e
       -0.052893884 0.27761826 0.118944824 0.15368938
000150 18 52 1b be 19 a3 ee bd 9b cc 2f 3e ef c7 d3 3e
       -0.15168035 -0.11652202 0.17167895 0.41363475
000160 70 2c 8e 3d f8 41 d8 be 7a 6a 1f be ec 75 b0 bd
       0.069420695 -0.4223783 -0.15567961 -0.08616242
000170 0d 61 f2 bd e7 1e 52 3e 3b bd 23 bc 89 2b b7 bc
       -0.11834917 0.20519601 -0.0099938465 -0.022359626
000180 2c 20 a1 bd 84 9e 72 3d 5e 46 34 be 3f e7 e2 bd
       -0.078674644 0.059233204 -0.17604968 -0.11079263
000190 1e c3 7c bb b0 0f c0 3d 9f ac c0 bc 4b 6e a0 3e
       -0.0038568447 0.09377992 -0.023519812 0.31334147
0001a0 fa 13 f4 bd 46 0b da 3d 25 b4 b3 3d f7 03 f8 bd
       -0.11917873 0.106466815 0.08774594 -0.12110131
0001b0 91 8f 73 be 4d 15 17 be b4 2b f1 bc a3 51 28 be
       -0.23785235 -0.1475422 -0.029439785 -0.16437392
0001c0 00 7e 67 be 7f d1 00 3c 92 fe 47 3d bc eb ae 3e
       -0.22606659 0.007862448 0.04882676 0.34164226
0001d0 01 bb cc 3e 01 f5 cd bd 54 0a 07 be 52 34 d5 bd
       0.39986423 -0.100564964 -0.13187534 -0.1041037
0001e0 97 fb 99 be 0a e7 25 be 6e 2b 1d 3e 24 55 07 be
       -0.3007476 -0.16201416 0.15348598 -0.13216072
0001f0 24 95 79 be 4f 47 9e 3c 3b d4 19 be 10 44 c1 bc
       -0.24373299 0.019321112 -0.15022366 -0.023592025
000200 43 c7 b8 bd 8c 1f 0a 3c 84 ba 47 be 1a 60 ad bc
       -0.09022381 0.008430373 -0.19504744 -0.021163989
000210 07 1c 3e be ad 94 39 3e 5b b4 66 3c f8 01 83 3d
       -0.18565379 0.18123122 0.014081086 0.0639686
000220 ed 07 e8 bd 82 03 34 bc a8 c2 94 3e f4 3b 8f 3e
       -0.11329637 -0.010987164 0.2905476 0.27975428
000230 be f0 b5 3d f6 2f 37 be 1a cc 28 3d b2 8b 91 bd
       0.088838086 -0.1788939 0.04121027 -0.07106723
000240 39 0b 4d bd b8 52 54 be f5 f2 95 3e 47 cb 0d 3e
       -0.05005953 -0.2073468 0.29286924 0.13847075
000250 63 d5 50 3e 2b e9 99 3e 6d 59 58 3e 55 63 73 3d
       0.203939 0.30060706 0.21127863 0.059420902
000260 3e 8a f3 bd e5 94 f8 3d bc 0e b8 bc a2 e8 a1 bd
       -0.11891602 0.121377744 -0.022467963 -0.07905699
000270 38 1e 28 3e 1e 40 c9 bc d8 4d 2d be 7b 16 07 be
       0.16417778 -0.024566706 -0.16924226 -0.1319217
000280 0c be a7 3d 56 e1 1f bd 0c 9f 00 3e 5f 0c 1f 3e
       0.081905454 -0.039033256 0.12560672 0.15532063
000290 6c 0c 20 3e 69 93 5c 3d 7c a2 55 be 10 95 d9 bc
       0.15629739 0.05385152 -0.20862764 -0.026560336
0002a0 38 31 a4 3d 05 fc 1a bd 18 6b 09 be fd e3 19 bd
       0.080172 -0.037838 -0.1341976 -0.037570942
0002b0 94 38 46 be 5f 58 8f bb ce 79 03 3e ff 2b ce bc
       -0.1935752 -0.0043745483 0.12839434 -0.025167463
0002c0 71 a1 30 be e4 61 0e 3e cd 44 ad 3d 65 25 97 3d
       -0.17249085 0.1390453 0.08460388 0.07380179
0002d0 b6 50 e4 3c d9 d7 1f 3e 3f ca f1 3d 46 e7 6a bc
       0.027870517 0.15609683 0.118061535 -0.014337366
0002e0 30 e9 3e bd 9e 96 16 3e 04 35 74 3e ed cc 3b 3e
       -0.046609104 0.14705893 0.23848349 0.18339892
0002f0 f9 f2 8d be 80 dd 2f be 1f 43 40 3e 1b 71 8f 3e
       -0.27724436 -0.1717434 0.18775605 0.2801598
000300 bd fb 1d be 27 4d 08 3e d5 43 ee bc 6c 61 bb 3d
       -0.15428062 0.13310681 -0.02908508 0.09149441
000310 00 4b 56 3d 63 9c 82 bd bf 31 c7 be 23 a0 83 bc
       0.05231762 -0.06377485 -0.3890514 -0.01606757
000320 1c 08 d9 3d 0d 0c 55 3c 02 64 4e be ad d1 1a 3e
       0.1059725 0.013003361 -0.20155337 0.15119047
000330 28 ab b7 3d a2 1d dd bd d1 23 cd be 91 a4 85 bc
       0.08968192 -0.10796668 -0.40066388 -0.016313823
000340 7b 2b 26 3d 74 c8 b4 be aa f4 e0 3d e5 e9 92 3e
       0.04056881 -0.35309184 0.10984166 0.28694072
000350 77 a9 e6 ba 9a e8 c5 3d ff e6 35 be 1e bd cd 3d
       -0.0017598112 0.09663506 -0.177639 0.10045837
000360 dd 04 76 bc ec 49 14 bf 70 cc cc 3d a7 6d 42 be
       -0.015015808 -0.57925296 0.09999931 -0.18987142
000370 b2 41 12 bd 9d 14 48 3d 5b 01 03 3b 98 0c cf 3d
       -0.035707183 0.048847783 0.0019989822 0.10109824
000380 ac 94 64 be 2f 36 32 3e 6c 91 4e be c7 69 78 3e
       -0.22322339 0.17403482 -0.20172662 0.24259101
000390 1c 71 a5 3d f9 53 a3 ba 93 e0 e3 bc c2 09 2f bd
       0.080782145 -0.0012460939 -0.027817046 -0.042733915
0003a0 85 b5 4a be fb 33 26 be 32 b1 03 be f5 25 ab 3d
       -0.19795807 -0.16230766 -0.12860563 0.08356849
0003b0 e7 90 e3 3d b5 de 26 bd bf 2c 91 be 02 5d 1f be
       0.11111622 -0.040739734 -0.2835445 -0.15562823
0003c0 d5 b1 aa bd ca c1 15 3d 4f 98 1d 3d 9c 2a 49 bd
       -0.083347 0.036561765 0.03847533 -0.0491129
0003d0 bf 6d 00 3e 00 34 01 be 84 08 4b bd 71 5b ea 3c
       0.12541865 -0.12617493 -0.049568668 0.028608056
0003e0 70 09 32 bd f6 66 fa 3d 81 fe 21 bd 20 28 e1 3d
       -0.04346603 0.122266695 -0.039549354 0.10993981
0003f0 53 f0 cb 3b 8e 33 16 be c0 23 1b 3d 1d a0 1f be
       0.0062237172 -0.14668104 0.03787589 -0.15588422

bias f4 [256]
000000 f4 2c 5e be 43 0e 05 be 25 3c 9e bd d2 c0 59 bd
       -0.21696836 -0.12993722 -0.077263154 -0.053162403
000010 93 8d 67 bd ea f7 30 be 29 41 c0 bd fd 9d 26 bd
       -0.0565315 -0.17282072 -0.09387428 -0.040678013
000020 77 5c 33 be 84 a7 38 bd 74 58 ed bd 61 c7 69 be
       -0.17515741 -0.04508163 -0.11589137 -0.22829963
000030 20 07 76 be 8a b2 0f be 9b 00 ae bc d7 90 d5 bd
       -0.24026155 -0.14032951 -0.021240523 -0.10428017
000040 a3 41 36 be 01 7b 3c bd 83 8d 10 be a4 b8 b0 bd
       -0.17798476 -0.046015743 -0.14116482 -0.086289674
000050 4c 16 3d bc 4a 49 14 be 89 59 20 be 84 75 21 be
       -0.0115409605 -0.14481083 -0.15659155 -0.15767485
000060 f5 dc 88 bd 13 19 75 bd bc c9 ef bd e4 15 8e bd
       -0.06682769 -0.059838366 -0.117084 -0.06937769
000070 07 7d 83 bd ef 3d 80 bd 85 e3 11 be 1d c6 9b bd
       -0.064203314 -0.06261813 -0.14246948 -0.076061465
000080 1c 67 85 bd dc 3a 36 bc ce a4 3f be f0 3c 3f be
       -0.06513807 -0.011122432 -0.18715212 -0.1867559
000090 23 14 4e be b7 40 b6 bc d0 46 37 bd de 4d 34 be
       -0.20124869 -0.022247655 -0.044745266 -0.17607829
0000a0 db 7f 0c bc 78 01 d5 bd 38 4e b0 bd 74 10 54 be
       -0.008575405 -0.10400671 -0.08608669 -0.20709401
0000b0 c1 6d e1 bd b9 bd 8b bd ac b9 32 be bc fd 82 bd
       -0.11007262 -0.06823296 -0.1745364 -0.06396052
0000c0 93 a8 bc bd f8 06 ca bd 9a 0e 4b bd 6f 76 1d be
       -0.092118405 -0.098646104 -0.049574472 -0.1537721
0000d0 3a 61 2e bd 16 e6 7d 3c 57 1e ca bd 34 be 8a bc
       -0.04257319 0.015496751 -0.09869068 -0.016936399
0000e0 9c 28 bb bd f0 0c 2d be 28 92 e4 bc 08 e4 a0 3d
       -0.09138605 -0.16899467 -0.027901724 0.078559935
0000f0 2f 4f f8 bd b5 89 6d bd 2c 9d 79 be 7d 96 39 bd
       -0.12124478 -0.057992656 -0.24376363 -0.045309532
000100 4f 89 05 be 67 84 93 be f3 14 64 bd df 88 c4 bd
       -0.1304066 -0.28811952 -0.05568404 -0.095964186
000110 c2 bc c0 bd 79 89 12 be f1 3c 3a 3d 39 9f 6e bc
       -0.09411003 -0.14310254 0.045468275 -0.014564329
000120 9b 6c 6c bd 85 a1 bc bd 66 50 be bd ce 09 51 be
       -0.05772076 -0.09210495 -0.092926785 -0.20413896
000130 37 9a 26 be 8a 44 c5 bd 5d 13 86 bd 1d 13 b7 bd
       -0.16269766 -0.096322134 -0.06546662 -0.089391924
000140 0b 75 e4 bd 34 04 b3 bd 96 5d ca 3c b3 07 1d be
       -0.11155137 -0.08741036 0.024702828 -0.15334968
000150 82 af 4a bc 30 99 81 bd 29 b1 f8 bd d9 2a 62 bd
       -0.012370946 -0.06328046 -0.121431656 -0.055216644
000160 cc 95 2b be 4c 59 ba bc 01 8c 21 be 7c f3 b0 bd
       -0.16756362 -0.022747658 -0.15776064 -0.08640191
000170 43 97 8e bd 4e 44 bb bc ae 90 08 be 8a 3b bc be
       -0.06962445 -0.022859719 -0.13336441 -0.36764175
000180 a8 70 96 be 8f 15 f1 bc e2 c4 72 bb 05 26 1f bd
       -0.29382825 -0.029429225 -0.003704362 -0.038854618
000190 6d 11 6b bd 1b 28 38 be 78 51 cc bd ab 60 c2 bc
       -0.057389665 -0.17984049 -0.099764764 -0.023727736
0001a0 df 16 2d 3d d2 a4 1e be d8 a1 e4 bd d1 41 f3 bd
       0.04225814 -0.15492561 -0.11163682 -0.11877788
0001b0 62 56 4d bd 68 20 ab bd 3d 33 46 be de a7 fd be
       -0.05013121 -0.083557904 -0.19355483 -0.49542135
0001c0 7f 13 a2 bd a9 ff fc bd e3 51 d9 bd a2 39 d8 bd
       -0.07913875 -0.12353451 -0.10611322 -0.105578676
0001d0 99 ac 18 3d 20 33 5b bd 96 81 23 be f9 e6 67 be
       0.037273977 -0.053515553 -0.15967402 -0.22646703
0001e0 d6 a4 df bd 1c 43 80 bd 9e 32 8f bd 29 f1 81 bd
       -0.10920112 -0.062628 -0.06992076 -0.06344826
0001f0 b6 58 86 be 6a 20 17 3c 72 09 ac bc f4 72 cb bd
       -0.26239556 0.009224037 -0.021000598 -0.09934035
000200 06 23 ae bc 96 11 26 bd 9e 5d 30 bd f7 b2 fb be
       -0.021256935 -0.040544115 -0.04305803 -0.49159977
000210 98 f9 9f bd 47 fb c0 bd 7a 93 a4 bd d4 95 ec bc
       -0.07811278 -0.09422927 -0.080359414 -0.028880037
000220 4a 07 3d be f1 7d fc bd 6b 52 10 be c1 dd 79 be
       -0.18459812 -0.12328709 -0.1409394 -0.24400999
000230 ae ad c1 bd 81 85 5f be 3e 49 97 bd b3 8d c0 bd
       -0.09456955 -0.21828271 -0.07387017 -0.09402027
000240 33 ab c5 bd b9 02 5b bd 42 03 2d be d7 20 f1 bd
       -0.09651794 -0.053469393 -0.16895774 -0.11773842
000250 43 2c c8 bc 20 ac dc 3c 37 71 26 be be ab 67 bc
       -0.024435168 0.026937544 -0.16254126 -0.014140068
000260 d1 b3 ed bd 81 10 43 be 3b 71 a8 bd 52 ad 44 bc
       -0.11606563 -0.19049264 -0.08224722 -0.012004213
000270 be c8 0d be cc 77 b8 bd c7 9c cf bd 41 d9 a3 bd
       -0.13846108 -0.090072244 -0.10137325 -0.08000422
000280 6a af 85 bd 10 f8 63 be 7d d9 ff bd 20 7d 0a be
       -0.06527598 -0.22262597 -0.124926545 -0.13524294
000290 9c 45 45 be c0 4c 2f be 20 7c a9 bd 0c c6 a3 be
       -0.19264835 -0.17119122 -0.08275628 -0.31987035
0002a0 cc dc 38 bc 5e a0 1b be 44 e8 7f bd 56 e1 67 bc
       -0.011283111 -0.15197894 -0.062477365 -0.014152845
0002b0 28 b2 bf bc e4 41 0c be 6f 84 1a be cc 4a 10 be
       -0.023400381 -0.1369701 -0.15089582 -0.14091033
0002c0 66 ab 6e bd ae 6c e8 bd 99 93 db bd 84 fc a0 bd
       -0.058268927 -0.11348854 -0.107215114 -0.078606635
0002d0 67 ca 26 be 35 31 b6 bd c4 3c b3 3c b4 c0 47 be
       -0.16288148 -0.08896104 0.021879561 -0.19507104
0002e0 30 f7 e3 bd 03 d0 17 3c 0c 0d 11 bd a4 86 2c be
       -0.11131132 0.009265902 -0.035412833 -0.16848236
0002f0 ce 15 29 be 38 e1 8b bd 02 01 c9 bd 51 52 42 3b
       -0.16512224 -0.068300664 -0.09814645 0.0029651115
000300 bd b1 6d be 4c 02 50 bd 49 e1 32 be ee 71 81 bd
       -0.23212333 -0.05078344 -0.17468752 -0.063205585
000310 c6 c6 ee bd 70 72 0e be bf a1 72 be a4 2d ea bd
       -0.11659007 -0.13910842 -0.23694514 -0.114344865
000320 a6 71 5e 3b fd 73 cd bd 51 38 6d bd 1b 04 05 be
       0.0033942251 -0.10031889 -0.057915036 -0.12989847
000330 08 6e 5d bd d2 f3 b0 bd d8 ea bf 3c ee 4d 06 be
       -0.054060012 -0.08640255 0.023427412 -0.13115665
000340 6a 03 50 bd ab 39 64 bd c2 86 fe bd 13 39 2d be
       -0.050784506 -0.05571906 -0.12428047 -0.16916303
000350 eb 4c 1e be 1e 56 9a bc 28 94 20 be 53 9f 2b be
       -0.1545903 -0.018839892 -0.15681517 -0.16759996
000360 85 fc 91 bd 68 01 bc bd e5 3b 09 bd 24 4f 56 bd
       -0.071282424 -0.09179956 -0.033504386 -0.052321568
000370 a9 e6 58 be 54 97 9a bd b4 cb 1b be 33 50 c8 bd
       -0.2118174 -0.07548395 -0.15214425 -0.09780922
000380 12 f4 b9 bd 18 78 23 bd 07 8a 61 be 03 e4 c0 bd
       -0.09079756 -0.039909452 -0.2202531 -0.0941849
000390 c5 bc 36 bd 78 91 0d be 6c 08 ad bd 19 93 3e be
       -0.04461362 -0.13825023 -0.08448872 -0.18610801
0003a0 fe 3b b2 bd 52 76 8d bc e1 c6 59 be 8e 4f c6 bd
       -0.08702849 -0.017268334 -0.21267273 -0.096831426
0003b0 a5 e1 d5 3c 70 9a d2 bd d1 0f 26 be 89 87 0d be
       0.026108572 -0.10283363 -0.16216971 -0.13821234
0003c0 89 ee 3e be 68 e1 99 bd 10 bc 94 bd a5 64 93 bd
       -0.18645681 -0.07513696 -0.072624326 -0.07196931
0003d0 65 28 eb bd f2 07 84 bd 86 07 f4 bd 61 3e ef bd
       -0.11482314 -0.06446828 -0.119154975 -0.1168182
0003e0 3e ae ab bd 9a 7a 5c be 25 fd 07 be 97 15 c5 bd
       -0.083828434 -0.21531144 -0.1328016 -0.096232586
0003f0 d9 7b 08 be cb 2f 4b 3c 70 0f 71 bd de c7 85 bd
       -0.13328494 0.012401531 -0.058852613 -0.06532262

weight f4 [128, 256]
000000 f6 38 0e 3d 7a c6 f5 3c 45 54 58 be 0a 97 d2 3d
       0.03472229 0.030001868 -0.21125896 0.10282715
000010 6d bf 4d bd 92 5f 15 3e 94 58 0f be 42 d8 d4 bd
       -0.050231386 0.14587238 -0.13998634 -0.103928104
000020 58 dd 1b 3e f9 84 6b bd 22 06 35 3a 03 e7 15 be
       0.15221155 -0.05749986 0.0006905516 -0.14638905
000030 3d da 95 bc 75 9f 12 3d 59 9b 2d bc af 91 3c bd
       -0.01829254 0.0357966 -0.01059612 -0.046037372
000040 d9 da 09 bd 10 f8 30 3d df ac 86 bd 59 40 b3 bd
       -0.033655975 0.04320532 -0.06575941 -0.08752508
000050 34 c1 18 be 1b aa ac bd 55 60 a2 3a a4 b4 cb 3d
       -0.14917451 -0.084308825 0.0012388328 0.09946564
000060 8d e3 86 3d c0 7b b4 3c 39 9a 80 bd b7 70 2e bd
       0.065863706 0.022031665 -0.06279416 -0.042587962
000070 35 b1 56 3d 26 58 93 bd fc 59 02 bd 3c be d0 39
       0.05241509 -0.07194547 -0.031824097 0.00039814587
000080 45 29 21 3d 8d 10 42 3c 3a bc ea 3d e8 2d 8f bd
       0.039346 0.011844766 0.114616826 -0.06991178
000090 7e 30 8a bc d5 22 6a bd bd cc 03 be 2b ec f8 3d
       -0.016868826 -0.057162125 -0.1287107 0.121544205
0000a0 e4 da bb bd 7b aa 3a bc 79 90 55 3d 3c 1c a8 3d
       -0.091726094 -0.011393185 0.052139733 0.0820851
0000b0 a1 d5 6e bd 3d c3 31 3e 84 aa 0f bd 3e c2 40 3d
       -0.0583092 0.17359634 -0.035074726 0.047060244
0000c0 f9 7c 9f bd c4 a7 07 be 9e d9 80 39 6c 3a 01 3e
       -0.077875085 -0.13247591 0.000245762 0.12619942
0000d0 ae 20 50 3e 99 0d d5 bd 67 02 f1 3d d3 0b bd 3d
       0.20324966 -0.10402984 0.11768036 0.09230771
0000e0 05 1f e3 bd e5 0c fe bd 1e 31 d9 3d de a3 ca bd
       -0.11089901 -0.12404803 0.106050715 -0.098945364
0000f0 56 13 d7 bd ad 5c 3f be 27 96 bb 3c 32 22 0d be
       -0.10501735 -0.18687697 0.022898747 -0.13782576
000100 b0 9b 58 be 09 86 3d 3e 41 d9 37 bd 21 de a5 3d
       -0.2115314 0.18508162 -0.044884924 0.08099008
000110 05 e8 69 3d c9 59 ab b9 c2 16 98 bd e4 3e 00 3d
       0.057106037 -0.00032682557 -0.07426216 0.031309977
000120 e7 8d db 3d b0 8e 75 3c 3a 14 59 bb 50 e4 26 be
       0.10720425 0.014987633 -0.0033123628 -0.16298032
000130 96 f4 02 3e d4 0f 85 3c fc e9 6f 3d 35 2a ca bd
       0.12788615 0.016242899 0.058572754 -0.098713316
000140 34 8e 9b bd 57 83 63 bd 3d 0d 4b bd 87 79 1b be
       -0.075954825 -0.055545177 -0.049573172 -0.15183078
000150 10 94 48 3d 2c db 01 bd ac 91 ec bd 45 c5 0a bd
       0.04896933 -0.03170316 -0.11551222 -0.033879537
000160 76 ab 21 be 7d f2 30 be cd f9 cb bd 6b ce 0a bd
       -0.15788063 -0.17280002 -0.09959755 -0.03388826
000170 12 9f 07 3d 71 3e 5f 3d e2 c0 09 bd 4e bc 1a 3e
       0.033110686 0.05450291 -0.033631213 0.15110895
000180 ff 53 2b bd d4 25 08 bc fa 84 16 be 6a 2a d1 bd
       -0.04182815 -0.0083098 -0.14699164 -0.10213168
000190 3b 75 d4 bd 49 c0 16 bc cb f1 92 be 6c 58 d8 bd
       -0.103739224 -0.009201118 -0.28700098 -0.1056374
0001a0 32 08 a1 bd e9 54 89 be 59 96 ae bd 6a 3a 52 bd
       -0.07862891 -0.26822594 -0.0852477 -0.05132524
0001b0 d4 b9 0c be b3 62 b5 bb 33 d7 1c be 0c b4 9f 3d
       -0.13742763 -0.0055354475 -0.15316467 0.07798013
0001c0 e2 b5 1e bc 8c 54 7e bc 6b 89 9e bc f5 fa d3 3d
       -0.009686919 -0.015523087 -0.019352635 0.10350601
0001d0 32 7c a8 bd 38 89 c2 be 55 84 a8 bd 48 c3 19 3d
       -0.082268134 -0.37995315 -0.08228365 0.03753975
0001e0 fa c0 52 3e fd 8f e5 3d c2 91 55 3d 65 c3 c3 bc
       0.20581427 0.11209104 0.05214096 -0.023896882
0001f0 41 dc 5d 3e 43 be 05 3e 06 fe 30 bd 09 2d f5 3b
       0.21666051 0.1306086 -0.043211006 0.0074821752
000200 d2 ef 8f be 88 d8 8a bd ee 5e c7 bd 2e 3c 6e 3c
       -0.28112656 -0.06779581 -0.09734903 0.014540715
000210 00 f6 00 3d 37 6d 04 3d 44 d1 d2 3d b9 79 51 3c
       0.031484604 0.032330718 0.102938205 0.012785369
000220 58 82 b5 bd 21 0e 91 3c 5d 0a 24 be 2b 66 a9 3e
       -0.08862752 0.017706933 -0.16019578 0.3308576
000230 a5 32 96 3c 3c 36 07 3e 4e 36 22 3c 86 f8 56 bd
       0.018334696 0.13204283 0.009900643 -0.052483104
000240 eb d5 ba 3d 7f d0 de ba 92 8a d8 3c 41 7d c3 3d
       0.09122833 -0.0016999393 0.026433263 0.09545375
000250 f7 3d dc 3c 3f 1a 75 bd b2 b4 98 3d e1 8a 68 bd
       0.026885016 -0.059839483 0.0745634 -0.05677307
000260 ea d5 a1 3c 8b 61 00 be f6 17 26 bc 4a a7 a4 bd
       0.019755322 -0.1253721 -0.010137549 -0.0803972
000270 f2 ec 6f 3c f3 79 7e 3c 2b f5 71 bc 91 02 de bd
       0.0146438945 0.015532005 -0.014767925 -0.10840333
000280 52 e6 8d 3c 7e e5 1f 3d e3 7f 83 3e 4b ed 79 3d
       0.01732174 0.03903722 0.25683507 0.061017316
000290 2b 9c d1 bc fa c7 e1 bd 1b a2 4b 3d 6b 9b c9 3e
       -0.025587162 -0.110244706 0.049715143 0.39376387
0002a0 24 d2 71 3c da 63 43 3e 71 9a 49 bc a4 f1 28 be
       0.014759574 0.19081059 -0.012304888 -0.16498429
0002b0 6e d7 89 ba 35 b1 b4 3d cc 1f 13 3d 6c a1 ca 3d
       -0.0010516474 0.08822862 0.035918996 0.0989407
0002c0 a5 61 48 bb 80 68 2a bd 49 66 01 3d 7e 0c 87 bd
       -0.0030575779 -0.041603565 0.031591687 -0.065941796
0002d0 8a 66 43 bc e9 a1 44 3d fc 70 cf 3b 96 ab ed bd
       -0.011926303 0.048005972 0.0063306075 -0.11604993
0002e0 41 40 44 3e bb f6 27 bd 76 a3 cd 3c 9e 46 55 3d
       0.19165136 -0.041006785 0.025102358 0.0520693
0002f0 ce ed 43 be 27 d2 ca bd 38 08 f8 bd 8a 2d 8c bd
       -0.19133684 -0.09903365 -0.121109426 -0.068446234
000300 0b 59 1c 3d 23 81 e8 bd a6 39 a1 bd 6b 82 60 3d
       0.038170855 -0.11352756 -0.07872324 0.054811876
000310 d4 f5 3d bd 31 e0 81 bd 59 e5 28 be 6f af e5 3c
       -0.046377018 -0.06341589 -0.16493739 0.028037755
000320 f3 51 4e 3c 24 a8 a7 bd ab ce ae 3e 5d a2 f8 3c
       0.01259278 -0.08186367 0.3414205 0.030350858
000330 23 95 05 be 57 3f 6d bd ee 49 85 3c f4 30 9d bd
       -0.13045172 -0.057921734 0.016270604 -0.07675353
000340 86 fd fa bc 67 cc 0a 3e 1f 52 23 be 9f 6d 02 3e
       -0.030638468 0.13554536 -0.15949295 0.1273713
000350 7c d9 ec bd 71 a5 96 3d e2 b3 88 bb b4 68 2e 3e
       -0.11564919 0.07355774 -0.0041718343 0.17032129
000360 4f 5c d4 bd 90 52 36 bd d4 ff 1d bd 95 4b 0a 3e
       -0.10369169 -0.04451233 -0.038574055 0.13505395
000370 6d b7 c4 3b 75 6b 4c bd b8 ac ab bd e9 1e 71 bd
       0.0060033114 -0.049907167 -0.08382553 -0.05886737
000380 74 fd 98 3e 4b ae 4c be 50 56 33 3e 90 cc d8 bd
       0.2988087 -0.19988362 0.17513394 -0.10585892
000390 c0 b7 83 3d 98 ba 39 3e 6c 2b 56 3d a6 48 90 bc
       0.06431532 0.18137586 0.052287504 -0.017612766
0003a0 5d b8 28 3b 56 90 36 3e 65 15 94 3d a6 86 48 3e
       0.0025744655 0.17828497 0.07230643 0.19582614
0003b0 f9 96 58 bd 54 47 20 bd 3a 5f 50 3d 24 19 2c 3c
       -0.052878354 -0.039130524 0.050872065 0.010504041
0003c0 ed 2c 41 bd b0 33 0e 3e 85 15 5b 3c a9 9b 8a 3d
       -0.047161985 0.13886905 0.01337183 0.06767971
0003d0 9b 06 d7 3d 74 6d 8e bd 9c 99 e8 bd 26 c2 d0 3d
       0.10499307 -0.0695447 -0.11357424 0.10193281
0003e0 08 51 42 be a7 f9 a4 bd 58 3c d1 be 4f bd 0d 3e
       -0.18976223 -0.0805543 -0.4086635 0.13841747
0003f0 bc 1b d0 bd db 3f 4b bb 8e 9c 8d 3d b5 92 0b be
       -0.1016154 -0.0031013403 0.06914626 -0.13630183

bias f4 [128]
000000 64 e3 e7 bd 85 41 c1 bd bf 5b eb bc 0f cf 8d bd
       -0.11322668 -0.09436325 -0.028730271 -0.06924259
000010 bd 46 d1 bd 90 8b 35 3b b4 45 df bd 5c ce 7e bd
       -0.102185704 0.0027701594 -0.10901967 -0.06220852
000020 33 62 40 be 1c 2f 1e be d0 9c e7 3d 05 be 0e be
       -0.1878746 -0.15447658 0.113092065 -0.13939674
000030 82 c8 0a bd 1c d8 c2 3c 06 2d cc bd 43 c0 bd bd
       -0.033882625 0.02378469 -0.09969525 -0.09265187
000040 c9 87 36 be c5 8e d4 bd 27 6c d2 bd 8d 02 a0 3d
       -0.17825235 -0.103787936 -0.10274535 0.078129865
000050 ba df d9 3c 50 ab 50 bd 76 ae c8 bd 56 ea 0a be
       0.026595939 -0.050944626 -0.09798901 -0.13565955
000060 7f 5b 0c bd 47 e7 2b be 10 e1 d5 be ad 88 89 bd
       -0.034266945 -0.16787444 -0.41773272 -0.06715522
000070 5c 6f 8a 3d 93 d3 20 be fa a6 d8 bd 31 56 b6 bd
       0.06759521 -0.15705709 -0.10578723 -0.089031585
000080 9f eb 5b bd dc 4f 2f 3d 21 4e d4 bd 00 8e 97 bd
       -0.053691503 0.04280077 -0.103664644 -0.07400131
000090 2f bb 34 be 66 95 2e be a4 e9 00 be 3b 5b ed bd
       -0.1764953 -0.17049178 -0.12589127 -0.115896665
0000a0 ed 41 1a 3d 16 01 79 bd f6 7d b6 bc 0b 23 f8 bb
       0.037660528 -0.06079205 -0.02227686 -0.007572537
0000b0 10 3a cd bd d8 1b 8e be 1b d3 fa bd 43 ef 5c bd
       -0.1002084 -0.27755618 -0.122472964 -0.053939115
0000c0 af e6 bf 3c 85 85 f7 bc 9b 0b 03 3b db 35 87 be
       0.023425428 -0.030215034 0.001999593 -0.26408276
0000d0 c2 13 cc bc 31 50 ba bd a0 91 ba bd 64 2d b1 bd
       -0.024911765 -0.090973265 -0.09109807 -0.08651236
0000e0 88 1e 50 bb 83 de cc bd 12 91 80 3c 74 d2 ff bd
       -0.003175648 -0.10003378 0.015694175 -0.124913126
0000f0 a3 ea 26 bd c5 42 5f ba 11 1f 3d be 9e 13 81 be
       -0.04075111 -0.00085167243 -0.18468882 -0.2521028
000100 ca 9b 35 be bf bf 16 be 2c b4 fb 39 07 c0 47 bd
       -0.1773521 -0.14721583 0.0004800869 -0.048767116
000110 f7 bb db bd da 2c b5 bd 9d 0f 4f bd f9 6b 2e bc
       -0.10729211 -0.088464454 -0.050552 -0.01064586
000120 06 d7 b2 bd 82 67 ce bd 57 72 42 be 47 32 e8 bb
       -0.08732419 -0.10078336 -0.1898893 -0.0070860717
000130 0b 0d 04 bd db 8c 47 bd a7 66 f2 bd c0 8c 58 bd
       -0.032239 -0.048718315 -0.11835986 -0.052868605
000140 11 c3 5e bd b6 5a 34 bc d6 c4 e6 bc 56 c6 98 3b
       -0.05438525 -0.011007955 -0.02817003 0.0046623154
000150 9c 89 b1 bc 05 80 65 bc 0d bc 14 be f2 63 b7 bd
       -0.021672063 -0.014007573 -0.1452486 -0.0895461
000160 99 87 bf bc 76 06 0f 3c 41 79 b7 39 4c 43 a1 bc
       -0.023380088 0.008729568 0.0003499482 -0.01968541
000170 4c a3 d9 bd 88 29 dd bc 20 51 8f bd a5 ea cc bd
       -0.106268495 -0.026997343 -0.06997895 -0.100056924
000180 6f e7 fa bc c0 aa 40 bd d6 d3 90 bd de 5c 59 be
       -0.030627934 -0.04703784 -0.070716545 -0.21226832
000190 cf c7 b4 bc 05 66 7b bd e4 bd 08 be 4a 66 23 3d
       -0.022067932 -0.06137659 -0.13353688 0.039892472
0001a0 85 b7 00 be 4a ad 0a bd b0 ea b8 3c 48 95 6d be
       -0.12570007 -0.033856668 0.022572845 -0.23201478
0001b0 60 de 1a be f0 9e 3e bd a7 13 dd bd cd a5 b7 bd
       -0.15123892 -0.046538293 -0.10794764 -0.08967171
0001c0 87 96 27 3b 65 1e 00 be d8 79 8d bd 82 86 90 bd
       0.00255719 -0.12511595 -0.069080055 -0.07056905
0001d0 36 05 d2 bd 18 46 8b bd 6b 47 78 bd 3f 84 4d bb
       -0.102549 -0.06800479 -0.060614984 -0.0031359342
0001e0 02 8d cd bc 36 d4 e5 bc 2d 9e 3d bd 7c a5 50 bd
       -0.025091652 -0.028055292 -0.046293426 -0.05093907
0001f0 c0 b8 00 be b1 a5 1a bd bf 22 8d bd 16 73 f2 bc
       -0.12570477 -0.037755672 -0.06891393 -0.029595893

weight f4 [12, 128]
000000 bc 00 7f bb bd c0 41 bc fe 01 2b 3b c1 dd 96 bc
       -0.003891035 -0.011825738 0.0026093717 -0.018416287
000010 59 f6 0f 3d ab 32 09 bd 31 bb d0 bc 19 1a 3a 3d
       0.035147045 -0.033495586 -0.025479885 0.045435045
000020 44 a0 65 bb 04 91 e2 bc bb 26 91 3c 2b a5 f6 bc
       -0.0035038153 -0.02765704 0.017718663 -0.030108055
000030 44 22 f7 bb 70 3c 8e 3c ab d3 26 3c 46 6b 6a 3d
       -0.0075419266 0.017362803 0.0101823015 0.05723121
000040 ac 67 15 39 cf a5 ff 3c d3 b5 36 bc c8 11 58 3d
       0.00014248368 0.031206993 -0.011151749 0.052751333
000050 b4 b9 85 bd 59 d9 40 3d 24 eb d4 bc 4b 5f 12 bd
       -0.06529561 0.04708228 -0.02599103 -0.03573541
000060 41 8c 79 ba 92 33 4e 3d 11 b9 5c bc 5e 03 eb bc
       -0.00095194957 0.05034215 -0.013471858 -0.028688129
000070 4a 3d c1 bb a6 16 24 bc be 8d 0a bd 91 29 bb 3c
       -0.005897199 -0.010015165 -0.033826582 0.022846969
000080 8e a6 9a 3d 22 bf 3c bc 2c e1 fb bc ad 6c 47 3c
       0.07551299 -0.011520179 -0.030747019 0.012171906
000090 54 3f 98 3d 8c f4 69 bd 43 3f 94 bc 6d b3 26 bd
       0.07433954 -0.057117984 -0.018096572 -0.040698458
0000a0 fe 2e a6 3d d2 2b 37 bc bd cc a3 3d 4e 35 13 bd
       0.08114432 -0.011179881 0.07998035 -0.035939507
0000b0 57 5c 1a 3d a8 40 55 bc 4f 85 c0 3c aa af 47 3c
       0.03768572 -0.0130159035 0.023501066 0.012187878
0000c0 7b 82 07 bc 10 f3 d8 bc ac 0d cb 3a bf b5 15 3d
       -0.008270855 -0.026483089 0.0015491745 0.03655028
0000d0 e5 f7 86 bc b2 97 9e bd 8c 85 93 3a 6b 1c 15 bd
       -0.016475627 -0.07743777 0.001125501 -0.036404055
0000e0 45 3c 65 3c e0 60 08 bc a8 62 4d bc 99 7f fa b9
       0.01399142 -0.008323878 -0.0125357285 -0.00047778783
0000f0 a9 d0 44 bd 0f 92 cd 3b 3e 49 65 bc bc ee 4d 3d
       -0.048050556 0.006273515 -0.013994513 0.050276503
000100 4f 3c 42 3c 14 a0 5e 3d e3 1d 7b 3d 0a c2 dc 3c
       0.011855199 0.05435188 0.0613078 0.026947994
000110 4c b3 38 bd 27 e1 4e bd 83 9a 72 bc 39 f3 43 bd
       -0.045092866 -0.05050769 -0.014807346 -0.047839377
000120 f4 8e f4 bb b2 0c 9b 3d df 4d 44 3c 60 16 c5 bc
       -0.0074633304 0.07570781 0.011981457 -0.02405852
000130 21 45 d7 3c 10 5e 5e bd 78 59 9d 3c 45 35 01 bc
       0.02627808 -0.054288924 0.019207701 -0.007886236
000140 1e 2a 6e 3d 50 8f d0 3b 82 5d ca 3c 8d c7 51 bb
       0.058145635 0.0063647404 0.024702791 -0.003200981
000150 82 67 54 3d b3 fe 4d 3d 10 04 32 3d 6f 83 27 3b
       0.051856525 0.05029173 0.043460906 0.0025560518
000160 1a 24 52 3d 0e b2 fe bd 6f 86 c1 bb 3c c3 86 3c
       0.05130396 -0.12436305 -0.0059059183 0.016450517
000170 bb 64 1d bd 81 b5 03 3c 64 6d 27 bc 0b 93 f6 bc
       -0.038426142 0.008038879 -0.010218952 -0.030099412
000180 87 ef 96 bc 2c f7 9e 3b 3c 71 15 bd c5 cc 4f 3d
       -0.018424762 0.0048512425 -0.03648494 0.050732393
000190 f6 43 ce bc 53 66 73 bc de 35 a3 bc c0 b5 0e ba
       -0.02517889 -0.014855939 -0.019923147 -0.0005443953
0001a0 f3 66 8f bc c7 de 4e bb ce dc cd bb 8d db 93 3d
       -0.017505145 -0.003156589 -0.0062824255 0.0721961
0001b0 65 84 60 bb f4 c5 e2 bd 7b 71 1f bb 40 98 77 3d
       -0.00342586 -0.11072913 -0.0024329114 0.06044793
0001c0 8c 8f 1b 3d a3 50 0e bd b8 74 55 3d cd e9 cb 3c
       0.037978694 -0.03474487 0.052113265 0.024891758
0001d0 07 bb b5 bc 1f cb c6 3c 50 a4 2b 3c c6 8e 33 3d
       -0.022183908 0.024266778 0.010476187 0.04383733
0001e0 a4 e5 41 3d 96 aa 4b bd 12 67 6d bc 6b d0 1f bd
       0.047338143 -0.04972323 -0.014489906 -0.039017122
0001f0 a1 bf 03 bd 01 57 77 bc fb 1e a1 bc f3 a5 d7 bc
       -0.032165173 -0.015096427 -0.019668093 -0.026324248
000200 f5 32 6c bc e0 11 81 3d 04 fc 59 bc 54 ca 29 3d
       -0.014416446 0.063022375 -0.013304714 0.04145272
000210 ab b2 35 bc 0b 87 62 3c e0 04 c9 bc d4 7c 1e 3d
       -0.011089961 0.013826142 -0.024538457 0.038693264
000220 08 81 e8 bd 14 6d 03 bd bd d9 bd bd 9d 65 81 3c
       -0.11352736 -0.032086447 -0.09270046 0.015795523
000230 a0 24 22 3d 2e ab 42 bd e5 d4 38 3a 5c ec 9a bd
       0.03958571 -0.04752653 0.0007050767 -0.07564613
000240 15 0c dd 3c 5c e3 d7 3b 37 dc 4a 3c 15 22 8b 3d
       0.0269833 0.0065883826 0.012381605 0.0679361
000250 d8 ea d1 bd d8 a7 10 3d 27 ec fb bc e2 65 bf 3d
       -0.10249871 0.03531632 -0.030752255 0.093456045
000260 76 cd 38 3b c0 a4 35 bd bc af 4e 3d 75 b2 ed bc
       0.0028198636 -0.04434657 0.050460562 -0.029015759
000270 47 eb 6f 3d 20 7f d3 3c 2e 3d 9f 3d 70 06 ed 3b
       0.058573987 0.025817454 0.07775341 0.0072334334
000280 65 33 18 bd f3 d4 c4 bb c0 39 82 3b 85 86 42 3c
       -0.03715839 -0.006006831 0.0039741695 0.011872892
000290 3e 28 be 3c 62 61 33 bc 18 68 55 3c c5 7d 83 3d
       0.023212548 -0.010948511 0.013025306 0.06420473
0002a0 c4 b9 33 bd a5 35 8c bd a0 10 8d bd 37 1e 1f ba
       -0.04387833 -0.068461694 -0.068879366 -0.0006069871
0002b0 11 a6 50 bc aa b9 a7 3b 76 42 97 bc c4 7e 5c bb
       -0.012734906 0.0051185684 -0.018464308 -0.0033644894
0002c0 a9 0a 10 bd 22 13 04 3e 31 88 53 bd 86 fa a4 3d
       -0.035166416 0.12897924 -0.051643554 0.08055596
0002d0 26 ff 57 3d 44 51 e7 3c 78 10 f0 3c ae bf f7 bc
       0.052733563 0.028236993 0.029304728 -0.030242767
0002e0 c7 01 c9 3b 15 54 87 3c 9e ab 14 bc e0 eb 5d bc
       0.006134245 0.016519586 -0.00907412 -0.0135450065
0002f0 6d 5d b0 bc f5 ad 6d bd 81 50 58 3d 50 16 85 3b
       -0.021528924 -0.058027226 0.05281115 0.0040614977
000300 49 75 55 3c 6a 81 b4 3d 67 36 15 bd 8d 55 c5 ba
       0.013028451 0.08813746 -0.036428835 -0.0015055403
000310 e8 02 6c bc 59 a1 3f 3c 46 68 4e bc 18 ca 8f bd
       -0.01440499 0.011696183 -0.012598103 -0.07020968
000320 af 2c 12 bc 7e 6c 84 3b 05 f3 d2 3c cd 94 fe 3c
       -0.008921786 0.0040412536 0.025750646 0.031076813
000330 0b 31 06 3d 15 96 80 bc dc 89 a0 3c 7d 77 64 bc
       0.032761615 -0.015696565 0.019596986 -0.013944504
000340 06 e6 f2 3c b4 c6 f8 bc 08 3b 5b bd f9 7e 71 bd
       0.0296507 -0.030368187 -0.053523093 -0.05895898
000350 90 af 1e 3c 5c e9 3a bd 6e a9 75 bc 8f f0 70 3c
       0.009685412 -0.045632705 -0.0149940085 0.014705791
000360 59 62 22 bc 3e f1 02 be c4 a5 0a 3c aa f2 01 3e
       -0.009911143 -0.12787339 0.008462373 0.12690225
000370 e0 b6 a7 bc 98 7e 42 bd 2e d4 92 3c f6 3d 38 3c
       -0.020472944 -0.04748401 0.01792344 0.011245241
000380 ef a6 92 bc 45 9a 06 be 8c 5e 26 bc 75 4c f3 3c
       -0.017901866 -0.13144787 -0.010154378 0.029699543
000390 3e 49 dd 3b 93 35 c4 3c a0 96 51 3d 91 d5 0f 39
       0.006753116 0.023951327 0.051169038 0.00013717102
0003a0 76 00 99 bd c0 80 3b bc c0 cf 30 3c 6e 00 29 3e
       -0.07470791 -0.011444271 0.010791719 0.1650407
0003b0 e5 c3 8d bc 4d 98 66 bc 77 38 90 bb ba 8c 62 bd
       -0.017305324 -0.014074397 -0.0044012624 -0.05530999
0003c0 20 ee 8e 3d 13 4a f1 b8 3d da 02 3c f0 e8 62 bd
       0.069790125 -0.00011505573 0.007986602 -0.055397928
0003d0 b6 b3 76 bc 9e da f0 bb aa e8 8d bc 5d 4f d2 bc
       -0.015057495 -0.00735028 -0.017322857 -0.025672609
0003e0 ba 0d 2f bd 6e a2 11 3e 60 6d a2 bc e7 2c 33 bc
       -0.0427377 0.14222118 -0.019827545 -0.0109359985
0003f0 d3 b6 02 3d 55 28 ad bc 79 38 a3 3c 05 59 40 3d
       0.031912636 -0.021137396 0.01992439 0.046959896

bias f4 [12]
000000 48 11 d9 bd bb 8e 90 bd f7 47 d9 bb ea 1b 64 bc
       -0.10598999 -0.07058474 -0.0066308933 -0.013922671
000010 df a3 fa bd 12 d5 1d 3d 36 2a 94 3d b1 c1 06 bd
       -0.12238287 0.038533278 0.072346136 -0.032899562
000020 cf d2 a4 bd 2b 3b 61 bd 82 ca a3 3d 2d 01 8a 3d
       -0.08048021 -0.054988068 0.0799761 0.067385055
