src/rl_sar/models/l4w4/legged_gym/policy.pt (torch, 450308 bytes, 14 tensors)

weight f4 [256, 76]
000000 e0 8d 3a be fe c3 05 3e 80 7e 4d bf 7a 66 3b bf
       -0.18218184 0.13063046 -0.8027115 -0.7320324
000010 75 b7 05 be 72 61 e4 3c 0c 3f 46 3d 73 05 8a bd
       -0.13058265 0.027878497 0.04839997 -0.067393206
000020 f3 16 d1 3e e3 0d 6e be cd 02 6c 3f b1 5b 6d 3f
       0.4083782 -0.23247485 0.92191774 0.92718035
000030 ec 91 c5 3e 18 b8 b7 3d be 2c e3 be 01 f8 f2 be
       0.38587892 0.0897066 -0.44370073 -0.47454837
000040 fb 80 08 3e 1e dd f2 bd df e7 6a bf b7 d8 e4 3e
       0.13330452 -0.11858581 -0.9176006 0.4469659
000050 e4 32 d5 be 94 87 a8 3e 11 59 17 3f f5 7f 8d be
       -0.4164039 0.32915938 0.5912028 -0.27636686
000060 29 f2 4c 3c 4a 06 a1 be c6 7b bf 3f 0b 3b 28 3f
       0.012508907 -0.3145011 1.4959648 0.6571509
000070 b1 cd f9 3d 1d 72 83 bd d1 58 4e be 0e c3 1c bf
       0.12197436 -0.0641825 -0.20151068 -0.6123513
000080 ab 4b 49 be e0 b8 47 bf 21 24 0d bf 01 1e 7e be
       -0.19657771 -0.7801647 -0.55133253 -0.24816133
000090 cb 0a 04 3e 39 51 0c 3f 2f 51 3c bd ee e6 99 3c
       0.12894742 0.54811436 -0.04597586 0.018786874
0000a0 09 e3 c1 3e 6b 47 68 be a1 fe be 3e 76 18 4e 3d
       0.37868527 -0.22683494 0.3730364 0.050316297
0000b0 59 1e 74 bc b1 55 48 3e 1a 77 01 bd e6 20 02 3e
       -0.014899814 0.19563939 -0.031607725 0.12707862
0000c0 6f 2b 02 3d c3 48 69 3e 60 e8 ef 3d cd a0 86 bc
       0.031779703 0.22781663 0.11714244 -0.016434098
0000d0 dc b7 cb 3b 3d 43 2a be b2 0e d5 3d e3 b3 e3 bd
       0.006216986 -0.16627212 0.104031935 -0.11118295
0000e0 34 8d b4 bd 8b 59 53 3d 84 61 a9 3d f0 c5 70 3e
       -0.08815995 0.051599067 0.08270553 0.23513007
0000f0 94 be 52 3e 0e 20 09 be 5c 6c 14 be 79 8d ff 3d
       0.20580512 -0.13391134 -0.14494461 0.12478156
000100 1d f7 51 be 73 96 73 be 99 0e 84 be 63 ef 26 3e
       -0.20504422 -0.2378786 -0.25792387 0.16302256
000110 d7 5d 87 3e 9f 50 85 3e 67 bf 06 3e 56 1d 70 be
       0.26438782 0.26038072 0.13158952 -0.23448691
000120 f0 f4 47 be 7b c0 55 be b1 d8 7d bd b3 35 21 3e
       -0.1952703 -0.20874207 -0.06197423 0.15743141
000130 b6 69 e4 3d 5e 22 b3 3f e0 7b 4d 3d 35 2c de be
       0.11152975 1.3994863 0.050166965 -0.43393102
000140 7e a8 37 bf e9 95 8b 3e 4a 4b 4a 3d 62 c5 81 3d
       -0.71741474 0.2726281 0.049388207 0.06336476
000150 72 d5 a9 bf 21 ee 26 3f fe 88 3d 3f 33 6d 1f 3f
       -1.3268263 0.65207106 0.7403716 0.62276
000160 b5 89 7e bd f5 7f 8f be 1d 3c b6 be 86 b3 14 3e
       -0.062143046 -0.2802731 -0.35592738 0.14521608
000170 ee fb 03 be 71 55 3b 3e 33 bd d4 bd 38 dc 77 bc
       -0.12889072 0.18294312 -0.103876494 -0.015128188
000180 ff 1f 3b 3f ba 8c 52 bf 68 67 b2 3d 45 ac 68 3f
       0.730957 -0.8224598 0.087111294 0.9088786
000190 fe 44 1c 3f a7 4b c4 3d 75 3a c9 3d 4f cd ba 3f
       0.61042774 0.09584742 0.09825603 1.4593905
0001a0 44 60 0e 3e 23 ec f6 3e d6 fc 3f 3f 95 34 b2 3e
       0.1390391 0.48227033 0.7499517 0.34805742
0001b0 e0 88 99 3d d9 75 54 bf ff b1 f5 3e b4 4e 11 bf
       0.0749681 -0.8299232 0.47987363 -0.56760716
0001c0 a7 9f 19 be 69 7f 52 3f 57 65 02 bf 1a e8 4d 3e
       -0.15002309 0.8222566 -0.5093588 0.20108071
0001d0 7b d4 22 be 4a 29 b9 3d be b2 36 3d d4 ca e5 3d
       -0.15901367 0.090410784 0.044604056 0.11220327
0001e0 c5 2e 8c bc f5 33 8d 3c e8 e0 08 3e b8 30 00 be
       -0.017112145 0.01723669 0.13367045 -0.12518585
0001f0 2b 9c 2d 3d 52 ad ce bd ad fd 62 3e 00 34 c6 be
       0.04238526 -0.10091652 0.22167082 -0.38711548
000200 1a 53 04 3c ca 43 e0 bd 32 13 b9 bd ca cc 71 3e
       0.008076454 -0.1095043 -0.09036864 0.23613277
000210 2c a1 19 bd 81 99 34 bd e5 ac ea 3d ac a0 7f 3e
       -0.03750722 -0.044091705 0.11458758 0.24963635
000220 d0 c8 b7 3c 29 01 b7 bd c1 0f 5b bd 84 8c 86 3d
       0.022434622 -0.08935768 -0.05348182 0.0656977
000230 db e4 a5 bd 1a 8c 36 3d 14 c2 01 3a c0 a0 e8 3d
       -0.08100291 0.044567205 0.00049498794 0.11358786
000240 04 ef 4b bd dc e5 01 bc 94 46 ca 3d bf 3a 02 3d
       -0.04978849 -0.007928338 0.09876743 0.031794306
000250 a4 0c 29 bd eb 8e f3 bc 41 75 96 3d 66 38 d8 3c
       -0.04127182 -0.029731235 0.07346583 0.02639408
000260 75 f4 9b bd 1e 9c 94 be c3 3d 77 3c 9d ff a3 3f
       -0.07614986 -0.29025358 0.015090409 1.2812382
000270 e5 e0 4e 3f 48 ff fd bd 9c 83 d0 3c 3d 0b 94 3c
       0.8081191 -0.12402207 0.025453381 0.018071765
000280 1c 11 2c 3f 65 f9 2e be 71 da 18 be 13 c4 0c 3e
       0.67213607 -0.17087324 -0.14927079 0.13746671
000290 a4 de 00 be 15 e2 77 bf 76 9e 56 3f c2 07 49 3f
       -0.1258493 -0.9682935 0.8383554 0.7852746
0002a0 9d 8e a3 3e 72 c4 10 3f eb 0a 18 3f 74 38 4d 3e
       0.31944743 0.5654975 0.5939166 0.20041066
0002b0 cd c6 94 bd 73 a8 0e bf 41 8d e3 be 29 ce 50 bc
       -0.07264481 -0.55725783 -0.44443706 -0.012744465
0002c0 cc 19 92 be e3 3c 2b 3e d4 f4 50 bf d4 eb 2b bd
       -0.28535306 0.16722445 -0.8162358 -0.04197295
0002d0 1d b9 cd 3a 2a a8 42 bf c1 bf 9b bd 50 fa af be
       0.0015695427 -0.7603785 -0.076049335 -0.3437066
0002e0 74 ab 86 bd 3f ff 9c 3e bf fc 9d ba 81 33 28 3e
       -0.06575671 0.30663487 -0.0012053474 0.16425897
0002f0 3c f8 4b 3d c8 0e 8b be a2 e2 3b be 4a c0 33 bd
       0.04979728 -0.27159715 -0.18348172 -0.043884553
000300 f1 a9 59 3e 8b ba 7b 3c a1 de 42 bd 4a d6 e7 bd
       0.21256234 0.0153642995 -0.047575597 -0.11320169
000310 b9 2c 9f bc a9 b4 28 bc 51 d8 63 be 8a 28 02 3d
       -0.019430505 -0.010296979 -0.22250487 0.031776942
000320 c6 5c ee ba 4e f4 23 bc 06 65 fc bb 82 41 03 be
       -0.0018185608 -0.010006977 -0.0077024726 -0.12817958
000330 7a 92 eb bc 90 66 80 bd 9d 16 88 bd 1e de 3f bd
       -0.028756369 -0.06269562 -0.06644938 -0.046842687
000340 e3 8a 16 3c af 49 11 3d ec 17 89 bb bb 60 71 3d
       0.009188387 0.03547066 -0.00418376 0.05893014
000350 7e 17 1e bd c0 0c e2 bb d5 da a5 bc 96 26 fa bd
       -0.038596623 -0.0068984926 -0.020245949 -0.12214391
000360 0f 1a a3 3b 59 e7 e9 3d 61 ee cd 3d a2 03 8a bd
       0.0049774717 0.11421079 0.10055233 -0.06738974
000370 79 54 77 bd 48 af 13 bc 2d 5a ea 3a 6e c3 a4 3d
       -0.060383294 -0.009013958 0.0017879658 0.08045088
000380 6c bf 22 3d ec 8c 08 3e ce 38 2d 3d db fa 83 bc
       0.039733335 0.13335007 0.0422905 -0.016110828
000390 2f 22 56 bf e8 38 ab bd a4 e8 bd 3e bd e6 03 be
       -0.8364591 -0.083604634 0.37091553 -0.12880988
0003a0 08 16 54 bd 6c eb ef 3e 92 d6 72 be aa 1c e2 3d
       -0.051778823 0.468593 -0.23714665 0.110406235
0003b0 bc d1 9d 3f cb 81 29 3f bf 22 38 be bc ba ff bd
       1.2329631 0.66213673 -0.17982005 -0.12486789
0003c0 21 5e 30 be d1 b1 e2 be ad 78 42 bf 96 67 41 bf
       -0.17223407 -0.44276288 -0.75965387 -0.75548685
0003d0 96 8e dc bd 49 62 eb 3e 85 5d 78 bf b8 2f 29 be
       -0.107693836 0.45973423 -0.970177 -0.1652211
0003e0 44 60 27 bf c5 03 00 bf f8 f5 23 3f 5d bc 36 be
       -0.65381265 -0.5000575 0.64047194 -0.17845292
0003f0 08 7c f7 3e e4 14 0b bf 0a a4 15 3e 64 54 46 3d
       0.48336816 -0.5432875 0.14613357 0.048420325

bias f4 [256]
000000 02 c3 82 be 52 c6 a5 bd a2 d7 ec 3d de a4 e2 bd
       -0.25539404 -0.08094467 0.11564566 -0.11066602
000010 53 43 3f 3e 47 70 e8 bd 8d 89 04 bc 8e 5d 9c bc
       0.18678026 -0.1134954 -0.008089435 -0.01908758
000020 85 1e 45 bc d7 78 de bd 47 bc fe bd 2c 10 9b bc
       -0.012031202 -0.10862892 -0.12438255 -0.01892861
000030 e0 6a 6f 3c 81 12 be 3d 7d e8 1e be 1a 9a 41 3c
       0.014612883 0.09280873 -0.15518375 0.011816526
000040 6f 7d 10 be 66 ba a5 be 4d 7c 81 3e ac b5 c3 bd
       -0.14110349 -0.32368773 0.25290146 -0.095561355
000050 b3 15 3b be 4e f0 7b be f7 f2 75 bd 37 ab d5 bd
       -0.18269996 -0.24603388 -0.060046162 -0.10433047
000060 ed 66 e8 3c af 15 4d be 6f 1f cb be dd 4b 81 bc
       0.028369391 -0.20027803 -0.3967242 -0.015783245
000070 ca 2f a6 bc d9 a3 6d be 2c 96 22 3d 17 46 13 bd
       -0.02028646 -0.23207034 0.039693996 -0.035955515
000080 b1 c7 5c bd 9a e0 36 bd c5 c6 2b bd 83 f4 68 bd
       -0.053901378 -0.04464779 -0.04193761 -0.05687381
000090 a6 c9 8e bb 9f 05 2f bf 30 c2 d0 bd 5d 05 86 be
       -0.0043575345 -0.6836795 -0.10193288 -0.26175967
0000a0 ec 02 2b be f8 31 bb bc b5 dd db bd e8 05 12 be
       -0.16700333 -0.022850975 -0.10735647 -0.14260066
0000b0 6c e8 c9 bd 01 ae 70 bd 62 6d 75 be 0a b0 ff 39
       -0.09858784 -0.058759693 -0.23967507 0.0004876855
0000c0 5a 6a 16 3b eb 8e 8b bc 7b 75 3d be ca 30 fe 3c
       0.0022951574 -0.017035922 -0.18501846 0.031029124
0000d0 53 98 49 bd 5f ff 57 3c 21 14 59 3e ea 7b dd bd
       -0.049217533 0.013183444 0.21199085 -0.1081465
0000e0 e3 28 02 be a5 a2 8c bd 69 36 bc 3d 0c 93 a7 be
       -0.1271091 -0.068669595 0.091900654 -0.32729375
0000f0 a0 d7 82 be c1 7d 02 bf fa ef 0f be d4 95 15 3d
       -0.25555134 -0.50973135 -0.14056388 0.03651984
000100 05 42 70 3d 14 06 1c be b3 df 00 be 89 c4 48 3e
       0.05865671 -0.15236694 -0.12585334 0.19606222
000110 33 98 f8 bd 87 0d cb ba 1d 86 23 be 0a a8 0a be
       -0.12138405 -0.0015491702 -0.15969129 -0.13540664
000120 56 58 f6 3c 6a 8e a0 bd 6a 63 6d be 23 78 2d 3d
       0.030071419 -0.07839663 -0.23182455 0.0423509
000130 50 28 93 bd 84 6b 99 be eb eb 7b bd d8 54 0a be
       -0.071854234 -0.2996484 -0.061504286 -0.13508928
000140 0a d0 b0 bd ae df 39 bc 75 1a 9c 3b ae 68 88 3a
       -0.0863343 -0.011344833 0.004763896 0.0010407174
000150 cc 49 47 be 96 25 db bd de 6e 36 3e be 2e e0 be
       -0.19461745 -0.10700528 0.1781573 -0.4378566
000160 47 f4 71 3b 95 0e 3d 3d 99 2b 7e be af 1a 39 be
       0.0036919282 0.046156485 -0.24821319 -0.18076585
000170 7c 10 28 be 8c 23 ba 3d 0a 8b 9f 3d 94 1e 51 be
       -0.16412538 0.09088811 0.077901915 -0.20421821
000180 99 ed b0 3d 36 4d bf be 21 bb 60 3d 82 88 a3 bc
       0.08639068 -0.37363595 0.05486596 -0.019962553
000190 81 8e 38 3d 5d 39 23 be 62 45 40 bd d9 45 35 be
       0.045057777 -0.15939851 -0.04694117 -0.17702426
0001a0 c3 87 0f bf 4f 5e 85 bd 47 62 0c bf 4f e1 e8 bd
       -0.5606653 -0.065121286 -0.5483746 -0.11371099
0001b0 15 5e 78 be ab 81 d6 bd 5e 37 69 be 5e 4b 33 3d
       -0.2425464 -0.10473951 -0.22775027 0.043773048
0001c0 0c a1 ec be 9d 08 06 be 46 2c df bb 34 53 4e 3c
       -0.4621662 -0.13089223 -0.0068106977 0.012593079
0001d0 c1 da 88 be 3b 14 9d 3d 33 d0 80 be 20 78 27 be
       -0.26729396 0.07669874 -0.25158843 -0.16354418
0001e0 13 b4 ea bd 6a 2f 14 be 76 24 c6 bd 3d 33 1a 3e
       -0.11460128 -0.14471212 -0.09674923 0.15058608
0001f0 01 98 ce 3d 12 72 02 3e 4e 8d ce bd 9e 6a 83 bd
       0.10087586 0.12738827 -0.100855455 -0.0641682
000200 36 6b d9 bd 79 5d 25 3e c8 e6 1f be fc 3d 73 be
       -0.10616152 0.16148938 -0.1561538 -0.23754114
000210 b5 51 af bd fb 62 46 be d4 c6 5e be 8a 31 55 be
       -0.08560506 -0.19373696 -0.21755534 -0.20819679
000220 4c 61 fb bd 6c d9 a6 bd f0 f3 8d be 4a 00 0a be
       -0.12274417 -0.08146939 -0.27725172 -0.13476673
000230 74 09 b6 ba 7c ab e3 3d ee be 41 bd 6d 5a 91 bd
       -0.0013888315 0.111166924 -0.047301225 -0.070973255
000240 c9 ad 5f bd 67 f6 3e 3d 4b c0 59 be 9a 34 aa bd
       -0.054609094 0.046621706 -0.2126476 -0.08310814
000250 b3 d1 40 be dd f3 be bd 9c da 61 be fc 67 9d bd
       -0.18829994 -0.09323857 -0.22056049 -0.07685849
000260 b2 66 15 3c c0 d0 af bc 31 32 73 be 63 6e d4 be
       0.009118723 -0.021461844 -0.23749615 -0.41490468
000270 65 00 ac bd cf 14 62 bd 4a c6 d1 bd f3 e4 df bd
       -0.08398513 -0.055195626 -0.10242899 -0.109323405
000280 a2 0d 40 3e 27 cb 8d bc 7d 61 ad bc d4 74 b6 bd
       0.187552 -0.017308785 -0.02116465 -0.08909002
000290 2b 81 ce be 08 79 3c 3d 8a 56 da bc 93 0b bc bc
       -0.40332922 0.046013862 -0.026652593 -0.022954738
0002a0 8f 88 11 be 3b 97 19 3d ed 04 8e be 10 a3 5b 3d
       -0.14212249 0.03749774 -0.27738133 0.053622305
0002b0 40 08 9d 3d ef da 15 3e 88 42 72 be 87 bd 3f bc
       0.07667589 0.14634298 -0.23658192 -0.011702902
0002c0 9a 24 55 be d6 45 e9 bd 92 46 82 be a9 b3 2e 3d
       -0.20814744 -0.11390273 -0.25444466 0.042651806
0002d0 33 f1 d8 bd 0d 0f 01 be 1b 22 a7 be e4 a6 2b be
       -0.1059288 -0.12603398 -0.32643208 -0.16762882
0002e0 2a a1 76 3d 3b de bb be 0f 74 f1 3d b8 9f 2e bd
       0.06021229 -0.36692986 0.117897145 -0.04263279
0002f0 44 1b 7b be a0 94 e5 bb 51 c2 f8 bd a1 d9 15 3e
       -0.2452212 -0.007006243 -0.12146438 0.146338
000300 7a 3d f8 bd e9 a6 d1 3d 39 31 c8 be 04 2b 0f bd
       -0.12121101 0.10236914 -0.39100054 -0.034953132
000310 ce 6e df bd d9 d1 d9 bc e0 22 8d bd a4 1d 4c be
       -0.10909806 -0.026589321 -0.068914175 -0.19933182
000320 86 93 a9 bd 9a b8 03 bf 6a e1 00 be ab 42 6b 3c
       -0.08280091 -0.51453555 -0.12585989 0.014359157
000330 65 0c b8 bd ae bd c3 be 7c ba 36 be ac 25 a0 bd
       -0.08986739 -0.38230652 -0.17844576 -0.07819685
000340 2c df 7c bd 44 61 55 be 82 64 07 be 8a 78 bc 3d
       -0.06173627 -0.20837885 -0.13221934 0.092026785
000350 4c c3 b6 bd 5a 4b fc bc 3e bb 42 be 27 a2 62 3e
       -0.08923969 -0.03079765 -0.1901674 0.22132169
000360 57 e9 9e be 84 fd 81 bd 92 91 1c bf 23 bc 32 3e
       -0.310374 -0.063471824 -0.6115962 0.17454581
000370 fa 04 55 bd 9a 65 3c be 31 31 fe ba 23 d8 cb bd
       -0.0520067 -0.18398133 -0.0019393322 -0.09953334
000380 34 77 ae be de e6 4b be bb cd af 3b d0 98 98 bd
       -0.3407532 -0.19912288 0.005365101 -0.07451022
000390 a4 b4 4c be 65 23 ac be bc e1 09 be 68 e4 8a bd
       -0.19990784 -0.33620754 -0.13465017 -0.06781846
0003a0 37 63 30 bd 82 b5 63 be fc e9 6c be 4b 70 4f bd
       -0.04306337 -0.22237208 -0.23136133 -0.0506442
0003b0 e4 70 a9 be b6 7b b1 bd 52 26 4c be 1c a4 32 be
       -0.3309394 -0.08666174 -0.19936493 -0.17445415
0003c0 51 3d d1 bd fb e3 d1 bc 8f ac 01 be 40 18 48 bd
       -0.10216773 -0.025621405 -0.12663482 -0.04885125
0003d0 60 7e 36 bd 08 d5 fc bd 79 29 ae bd 19 8d c0 be
       -0.044554114 -0.1234532 -0.08504004 -0.3760765
0003e0 dc 5e 2c 3b 30 7f 73 bd bc 1f 26 3d 08 2e e3 bc
       0.0026301658 -0.059447467 0.040557608 -0.02773191
0003f0 56 ac 18 3c 9a a8 1e bd 31 17 49 bb 2d 5f 9b 3d
       0.009318432 -0.03873501 -0.003068399 0.07586513

weight f4 [128, 256]
000000 75 38 93 3c bc 96 26 be b8 1c 68 be 71 49 73 bc
       0.017971257 -0.16268438 -0.22667205 -0.014849053
000010 5d 24 0d be 33 1f 79 bd bd 02 16 be c7 b0 92 bd
       -0.13783403 -0.06082077 -0.14649482 -0.07162624
000020 11 f8 a4 3d 68 4b a9 3d 9d d8 4a bc d3 4d b5 3d
       0.080551274 0.08266336 -0.012380746 0.088527344
000030 78 19 a9 bd 96 88 63 bd a9 67 04 3e 18 71 ef bd
       -0.08256811 -0.05555018 0.12930168 -0.11691493
000040 2d 71 80 3e 23 23 85 bd ee 05 bf bc 33 80 a8 bc
       0.25086346 -0.065008424 -0.023318257 -0.020568943
000050 6f 3d ba bd c8 5a bb bc 6c 6e 45 3e 31 8c 55 bc
       -0.09093749 -0.022870436 0.19280404 -0.0130339125
000060 6e e1 17 3e da 67 90 3e 7e a1 e1 3d 16 5e ec 3d
       0.14832088 0.28204232 0.1101713 0.11541383
000070 eb 0a 50 bc 84 8b c1 bb 76 39 22 3e 3a 9c 01 be
       -0.012697916 -0.005906524 0.15842232 -0.12657252
000080 90 a7 9a bd 1c 90 1e be 85 64 e5 bd e5 4e 81 3e
       -0.07551491 -0.15484661 -0.11200813 0.25255504
000090 d3 8c 63 3e 99 c6 e7 3d eb 81 74 3e 05 7f 8c 3d
       0.22221689 0.11317176 0.23877685 0.068601646
0000a0 59 44 8c bd 73 cf 00 3e 3a 56 40 be 29 df 92 bd
       -0.06848974 0.12579136 -0.18782893 -0.07171471
0000b0 51 0c d7 bc c1 f3 ae 3d dc b8 4c bd f3 88 16 bc
       -0.02625099 0.08542586 -0.049980983 -0.009187925
0000c0 28 56 5c 3e 8e 7a 13 3d ff 48 0c be 9f 28 69 bd
       0.21517241 0.03600555 -0.13699721 -0.056923505
0000d0 d7 c3 ea ba 2f a0 c7 3c 87 64 82 bd ba 46 7c be
       -0.0017911148 0.024368374 -0.0636683 -0.24636355
0000e0 56 26 b6 bd 9d 6d 33 3e 3e 49 97 3d ac 2a 47 3e
       -0.08894031 0.17522283 0.07387017 0.19449872
0000f0 eb 57 0e bd ad a2 d9 3d 02 c9 96 bb e6 95 e7 bd
       -0.034751814 0.10626731 -0.0046015987 -0.11307888
000100 13 06 87 be 89 b8 b6 3d 44 cb bc 3d 43 e3 1b be
       -0.26371822 0.08921916 0.09218457 -0.15223412
000110 3f b0 35 3d 6a d5 51 3e d9 80 31 3e 3b 9f 09 3e
       0.044357534 0.20491567 0.17334308 0.13439648
000120 3b 41 23 bd 9c e4 27 be 4e 00 ef bd 1d f9 83 3b
       -0.03985713 -0.16395801 -0.1166998 0.0040274994
000130 34 dd 5a be f8 1b 9d 3d 7e 92 89 3e 15 c8 54 3c
       -0.21373445 0.0767135 0.26869577 0.012987156
000140 e9 dc 1a 3c c8 00 e0 3d a1 77 0f be ff 26 34 3d
       0.009452083 0.10937649 -0.14010479 0.043982502
000150 9a 53 2c 3e 39 a8 23 3d ba fa 78 bc 5a 78 bf 3d
       0.16828766 0.03995535 -0.015196497 0.09349127
000160 5d ee 04 be a8 43 f2 bd 72 d0 c2 3d 92 a8 b9 3c
       -0.12981553 -0.11829311 0.09512414 0.022663388
000170 15 33 6f bc ac 09 c8 3d c1 ae ed bd 89 ae 5d 3d
       -0.014599581 0.0976747 -0.11605597 0.054121528
000180 a3 a7 cb 3d 9b ca 45 3e 1c 18 ee bd 2b e2 06 3d
       0.099440835 0.19315569 -0.11625692 0.032930534
000190 b7 b1 f5 be a5 ae 3a be cb 3f 2d bd 2b 63 26 be
       -0.47987148 -0.18230684 -0.042297166 -0.16248767
0001a0 f0 0f 80 bd 02 6c 94 3d 7b a1 ba 3e 63 7c eb 3c
       -0.0625304 0.07247163 0.36451325 0.028745836
0001b0 d9 6f 68 bd 32 0e 22 3e bb 11 36 bd 40 c5 42 3e
       -0.05674729 0.15825728 -0.044450503 0.19020557
0001c0 c8 a2 96 bc 64 9b 7b 3e 95 6b bc 3c 64 58 b7 3d
       -0.018388167 0.24570996 0.023000518 0.08952406
0001d0 31 85 5d 3e 23 b6 8c bd d0 7a 0a be bc 5d 43 3e
       0.2163284 -0.06870677 -0.13523412 0.19078726
0001e0 f5 74 44 3d c4 2c 5e 3d 87 fd af 3e 8a c9 5a be
       0.0479631 0.05424191 0.34373114 -0.21365944
0001f0 37 aa c7 3d e7 84 62 3c b2 f4 a5 3e 73 74 aa 3e
       0.09749263 0.013825632 0.3241325 0.3329197
000200 89 7d 5e be 2b 36 b7 be 91 be ef 3e 1a 52 41 3c
       -0.21727575 -0.35783514 0.46825078 0.01179936
000210 07 39 78 3e 0c d7 cb 3d 07 18 80 3c 20 b0 44 3e
       0.24240504 0.09953126 0.015636457 0.19207811
000220 aa 2b 70 3d 9c ed 81 3e 62 b9 d4 bd e1 bb 34 3e
       0.05863539 0.25376594 -0.103869215 0.17649795
000230 85 21 9e 3e e7 90 1a bd de d1 57 3e 95 a7 ac bd
       0.30884948 -0.037735846 0.21076152 -0.08430401
000240 43 9e 3d be a6 76 a8 3d f8 5f 15 3d 24 42 6f 3d
       -0.18517403 0.082257554 0.036468476 0.058412686
000250 8c b2 a3 bd c8 a9 3e 3e de 2e 91 bd 0c aa 4a 3e
       -0.079930395 0.18619454 -0.07089017 0.1979143
000260 20 f8 1b bd da 76 5f 3c a4 a2 53 3e 53 e7 4b be
       -0.038078427 0.013639176 0.20667511 -0.19912462
000270 2c 47 ec 3c 84 61 8b bd 3b d2 6e be 9e f2 9f 38
       0.028842531 -0.06805709 -0.23322384 7.626902e-05
000280 9a f3 e0 3d 8c 98 9e be af ae a2 bc 6c cc 2e 3e
       0.10983963 -0.3097576 -0.019858686 0.17070168
000290 c0 9f 11 3e d7 4c e2 3d 4f 68 36 be ea fe 18 3c
       0.14221096 0.11049812 -0.17813228 0.00933812
0002a0 24 44 91 3d 4e 76 55 3d 93 ad 73 3d cf 70 0c be
       0.07093075 0.052114777 0.059491705 -0.13714908
0002b0 65 52 50 bd 56 03 dc bd e9 7d 44 3b 98 68 03 be
       -0.050859828 -0.10742824 0.0029982275 -0.12832868
0002c0 40 ed 8c 3e b4 cd bd 3d 14 96 34 bc f9 7d d0 bd
       0.27524757 0.092677504 -0.01102211 -0.101802774
0002d0 52 db 37 3e ca 33 a6 bd 79 74 1a bd 8f 99 fd 3c
       0.17954758 -0.08115347 -0.037708733 0.030957012
0002e0 c6 a3 89 bd 89 d2 a7 3d 2f a1 80 3d 49 9f a4 3d
       -0.067206904 0.08194453 0.06280743 0.08038194
0002f0 b9 11 07 3e 9e 28 20 be 23 54 f9 bb 00 47 71 be
       0.13190354 -0.15640494 -0.007608907 -0.2356224
000300 d4 3b f3 3b 87 d8 ff 3d d1 43 60 bd 05 0b eb 3d
       0.0074229036 0.12492471 -0.054752175 0.11476711
000310 81 fb de 3c 72 c8 01 3c eb 7b 7c 3c 03 e1 cf 3e
       0.027219536 0.007921325 0.015410404 0.40601358
000320 8a ad 48 3c 06 81 d7 bc d0 77 7f 3d 2b 67 19 be
       0.012248406 -0.02630664 0.06237012 -0.14980762
000330 12 3b 8d be dc 58 f3 bd 49 a9 3a be 0e c1 e9 3c
       -0.2758413 -0.11882183 -0.1822864 0.028534438
000340 1d 24 b2 bd 8c 7c 4b be 0a 04 06 be 22 72 34 3e
       -0.08698294 -0.1987173 -0.13087478 0.17621663
000350 90 dc 7f 3e f7 c8 85 be 60 44 22 be e2 df b7 bd
       0.24986482 -0.26129887 -0.15846395 -0.08978249
000360 34 82 0d 3e 38 21 b4 3d 3b f5 21 bd 9a 84 9e bd
       0.138192 0.087953985 -0.03954051 -0.077401355
000370 02 5f 3e 3d 4d 41 e1 3d d3 50 c5 be 86 f2 53 3e
       0.046477325 0.10998783 -0.38538226 0.20697984
000380 e5 2c cb be e0 b4 81 bd 62 16 ae bd 4a 25 c0 3e
       -0.3968269 -0.06333327 -0.08500363 0.3752845
000390 93 43 02 3e d0 94 59 be ab c9 9b bd b3 25 d2 3d
       0.1272109 -0.21248174 -0.076068245 0.10261097
0003a0 8d de f6 3d b0 c0 5f 3d 13 e9 c6 3d 3f aa 3f 3d
       0.12054167 0.05462712 0.09712424 0.04679322
0003b0 83 b2 52 3d eb 4f c4 bd 62 a9 aa 3d df e6 60 3e
       0.051439773 -0.09585556 0.083330885 0.2196307
0003c0 c9 b7 ef bd 19 eb 96 3e 29 2f c0 3d 45 68 be bd
       -0.11704976 0.2947624 0.09383995 -0.092972316
0003d0 85 74 73 bd e5 c2 96 3c ca 35 37 be 4e b7 f3 3c
       -0.059437294 0.01840348 -0.17891613 0.029750492
0003e0 04 39 71 be 1d 7e be 3e b2 ca 1e be 3d 5d b1 3d
       -0.23556906 0.37205592 -0.1550701 0.08660362
0003f0 34 b3 e1 3d c3 52 40 be 8e 71 90 be 37 22 1f 3e
       0.110205084 -0.18781571 -0.28211635 0.15540396

bias f4 [128]
000000 dd 37 1a be 33 a3 fb be eb c0 f7 bd f4 75 ab bd
       -0.15060373 -0.4914795 -0.12097343 -0.08372107
000010 89 dc a0 be d5 02 bf be cf ce ad be e9 a8 25 be
       -0.31418255 -0.37306848 -0.33946845 -0.16177715
000020 64 6f 87 be 93 16 d1 be 07 11 a6 bc f1 b2 36 be
       -0.26452172 -0.40837535 -0.020271791 -0.17841698
000030 61 8e d3 be fb 4a a5 bc a7 99 1d be 48 51 5b bf
       -0.41319564 -0.020177355 -0.15390645 -0.856709
000040 50 44 16 bd 10 c1 a3 3c 08 3a 44 be 0e e2 b0 bf
       -0.03668624 0.01998952 -0.19162762 -1.3818986
000050 e3 bc 35 bd 4c 30 44 be 50 49 ab bd a6 d7 7e bf
       -0.04436959 -0.19159049 -0.083635926 -0.99547803
000060 af 34 9b be c5 15 26 be 1e 5d 54 bd 94 41 3a be
       -0.30313632 -0.16219242 -0.051846616 -0.18189079
000070 30 9f 4a be 9d b6 6e bd 72 4d 12 be fb cd 17 be
       -0.19787288 -0.058279622 -0.14287356 -0.14824669
000080 12 05 46 be 19 b0 d8 bd 57 d7 9b be 1d c7 80 bc
       -0.19337872 -0.10580463 -0.3043773 -0.015719945
000090 54 1c a6 be 11 fc 29 bd 8a 03 91 be a6 b5 81 be
       -0.32443488 -0.041500155 -0.28323013 -0.253339
0000a0 b3 02 80 be 70 0e df bd 9d 70 5a be d1 4c b8 be
       -0.2500206 -0.108914256 -0.21332021 -0.35996106
0000b0 be 4f 51 bf 2f e8 17 3d b8 bc c4 be 27 db ee bd
       -0.817623 0.037086662 -0.3842523 -0.11662894
0000c0 48 37 10 bc c0 a9 5f bd 40 8e 23 be 1c 35 52 bd
       -0.008802243 -0.054605246 -0.15972233 -0.05132018
0000d0 7f 85 80 3c 2c 61 18 be e9 78 29 bd 6b 1f 9a be
       0.015688656 -0.14880818 -0.041375075 -0.30102095
0000e0 8e 8d 1c 3c 3d 43 df 3d 39 53 a6 be a1 2f 82 be
       0.009555234 0.109014966 -0.3248537 -0.25426963
0000f0 99 bc b0 be 46 73 c2 bd b3 84 fe 3d 15 29 13 be
       -0.3451889 -0.09494643 0.12427654 -0.1437114
000100 1a 7d e5 3d 32 30 05 bd 32 a2 8c be f0 43 21 bf
       0.11205502 -0.032516666 -0.27467495 -0.6299429
000110 70 74 7f bd e4 bb e9 be 50 1f 8d bd 55 13 b8 bd
       -0.062366903 -0.45651162 -0.06890738 -0.08988062
000120 8c 66 03 3e 67 f0 af be 70 89 6a be 92 f4 eb bd
       0.12832087 -0.343631 -0.22903991 -0.115212575
000130 48 bb 34 be 6f 27 1b be ee d2 a2 be 5c c2 f9 be
       -0.17649567 -0.15151761 -0.31801552 -0.48781097
000140 a2 c0 9c bd ee 44 43 be 39 d7 32 be 12 57 09 be
       -0.07653929 -0.19069263 -0.17464913 -0.13412121
000150 b6 6d b4 bd fc 0b cb bd 52 48 5b be 81 e9 2f be
       -0.08809988 -0.09914395 -0.21414307 -0.17178918
000160 13 ca 86 be c4 3f d9 be 3b a2 d5 bd 62 ed 38 3d
       -0.26326045 -0.42431462 -0.10431334 0.04514826
000170 a8 c3 2e be 9a 15 5f be b8 40 30 be f8 1b eb bd
       -0.17066824 -0.21785584 -0.17212188 -0.11479944
000180 cc 53 fe bd f6 50 a2 bd be 1a 41 be 1b 6b 21 be
       -0.12418327 -0.07925598 -0.18857858 -0.15763514
000190 22 f5 7a 3c 82 15 b4 bd 08 e0 2d be 5d 4e c0 be
       0.015317233 -0.08793165 -0.16979992 -0.37559786
0001a0 c3 09 10 be 88 c6 44 be a9 6a 44 be 24 3b 7a bc
       -0.14066224 -0.19216359 -0.19181313 -0.015272889
0001b0 9e c2 5e be 7a d6 1f be f2 91 41 be 78 ef 04 3c
       -0.21753928 -0.1560916 -0.1890333 0.008113734
0001c0 af fe 62 be 28 2d 3d be a0 12 5c 3d 36 16 8c be
       -0.22167467 -0.18474257 0.0537287 -0.27360696
0001d0 3b 4e e8 be 8a 6c 13 be d8 0b 89 bd b4 68 57 bd
       -0.45372185 -0.14396873 -0.06691712 -0.052590087
0001e0 9b c6 35 be 6d 45 e4 be c5 a5 c9 bd 05 a5 0b 3c
       -0.17751543 -0.44584218 -0.09846071 0.00852323
0001f0 3e 7d 16 be 04 0f cb be d5 d3 65 be 6d b8 02 bf
       -0.14696214 -0.39659894 -0.22444089 -0.5106266

weight f4 [64, 128]
000000 2c 63 80 3e 40 fc b1 bd 85 95 9a 3d 4f 1c 93 3c
       0.25075662 -0.08690691 0.0754805 0.017957835
000010 36 77 de 3d 2b e2 1e 3e 50 3e 67 be e7 1c d7 3d
       0.108625814 0.15515964 -0.22582364 0.105035596
000020 27 b7 9a bd b8 95 44 bd e6 b4 1b be 3c c7 cf 3d
       -0.07554465 -0.047994345 -0.15205726 0.10145423
000030 40 ae 08 be 63 fb 07 3e 51 4e 90 bb 22 93 10 3e
       -0.13347721 0.1327949 -0.0044038673 0.14118627
000040 f2 a3 95 bd 11 d6 5e 3d 4c ab 44 3d 08 e8 b2 be
       -0.07306661 0.05440337 0.048014924 -0.3494265
000050 36 17 a5 3c e5 07 c7 bc 9f 27 55 3c f7 8c 0e 3d
       0.02015267 -0.024295757 0.013009935 0.034802403
000060 cc 53 dd bc 1b b3 02 be 8a dc 1a 3d 03 4c 7e 3d
       -0.027017497 -0.12763636 0.03780798 0.06208421
000070 72 cb a2 3d d7 94 a2 bd ab 9a 24 bd cd 58 29 be
       0.0794896 -0.07938545 -0.040186565 -0.16537781
000080 4a e9 a4 bd fc dc 77 bb ca 70 0c 3e 8a ee 78 3d
       -0.08052309 -0.0037820926 0.137149 0.060774364
000090 2f df 33 bd 17 31 a0 bd 7a 24 da bb 23 3a 06 ba
       -0.043914016 -0.07821863 -0.0066571804 -0.00051203574
0000a0 0c 94 41 3e 24 88 31 3d 39 23 47 3e b1 ed 05 3d
       0.18904132 0.043342724 0.1944703 0.032697383
0000b0 39 d7 f4 3d da 77 eb bd 9e 23 83 3d 1c d8 b7 3d
       0.11955113 -0.11497469 0.06403278 0.089767665
0000c0 65 75 15 bd 10 a1 1c 3d bb 9b 00 be e4 24 ef 3c
       -0.03648891 0.03823954 -0.12559406 0.029192396
0000d0 a2 05 83 3e 8a ac 48 3d f8 0b d4 bd 31 c2 4c be
       0.25590235 0.04899267 -0.10353845 -0.19995953
0000e0 30 28 f7 bc e7 0f 23 3e 55 fe 44 bd 92 02 10 3d
       -0.03017053 0.15924035 -0.048094112 0.0351587
0000f0 4d 6b 91 be 78 6d a5 3c 85 97 37 3d 4b 35 c2 3c
       -0.28402176 0.0201938 0.044822235 0.023707053
000100 7b e5 79 3d 70 f0 f1 3d 92 0d 8a 3d fc 53 e7 39
       0.061009865 0.11813438 0.067408696 0.00044122327
000110 17 bd 34 3d 2d bf 54 3e 64 c4 43 3d 7c 5b c1 bd
       0.044125643 0.20776053 0.047794715 -0.094412774
000120 df 57 5b bd 79 d9 1d bd cb 67 33 bd 3c af f5 3c
       -0.053550597 -0.038537476 -0.043800157 0.029990785
000130 38 66 32 3d c2 9c c0 3d b6 d8 df 3c a1 2a 2e 3d
       0.043554515 0.09404899 0.027325016 0.042521123
000140 98 83 5b bc 7a f8 c3 bd 8e 99 24 be 9f d7 29 be
       -0.013398074 -0.095688775 -0.16074201 -0.16586159
000150 2b 98 28 3d 36 9d 28 bd aa 39 a5 3d d0 09 1a bc
       0.041160744 -0.041165553 0.08067639 -0.009401754
000160 52 2e 0c bd 7e bd 4e be 04 34 d9 bc 2b 92 76 bd
       -0.034223862 -0.20189473 -0.02651406 -0.06019799
000170 d4 09 4d bd 63 c9 0d be 36 b7 a7 3d 9b 10 02 3e
       -0.0500582 -0.13846354 0.081892416 0.12701647
000180 76 61 8e 3e c5 72 9a 3d 46 e8 1c bc 0d a5 2a 3d
       0.27808732 0.07541422 -0.009576863 0.04166131
000190 ad 14 09 3e e0 53 3d 3e ce 50 aa bd 3d b7 95 bc
       0.13386793 0.18489027 -0.083161935 -0.018275851
0001a0 70 c5 bc 3c f6 0c 63 bd 7e a5 96 bb c0 4e 44 be
       0.023043364 -0.055432282 -0.004597365 -0.19170666
0001b0 68 c4 34 3e 7b f4 b7 3d 96 cd 6f 3d 6d 11 c1 3e
       0.17653048 0.08982178 0.05854567 0.37708607
0001c0 06 e6 36 3d 4e 53 b5 3c df b9 ec 3d 9b 12 3e be
       0.04465296 0.02213445 0.115588896 -0.18561785
0001d0 7c 39 d2 3d c1 fb 3d 3d 55 66 d1 3c 66 c2 87 3e
       0.102648705 0.04638267 0.025561491 0.26515502
0001e0 02 ca b3 bd 38 4a 51 bc 5b d6 89 bd 59 9c 94 bd
       -0.08778764 -0.012774043 -0.06730338 -0.072563834
0001f0 1d 8f e6 3c 4d 68 ba bd e5 22 2a bd 19 1a b0 be
       0.028144414 -0.09101925 -0.041537184 -0.3439491
000200 6e d8 84 be 75 5c 0f 3c 98 ff da 3d b7 67 3d 3c
       -0.25946373 0.008750071 0.10693282 0.011560372
000210 49 82 6f 3d bc ef 6b be 34 5d c6 bc e8 5f 47 3d
       0.05847386 -0.2304067 -0.024214365 0.048675448
000220 9b 08 6b be a5 7d 46 be d7 46 27 be 0a 34 46 be
       -0.22952501 -0.19383867 -0.16335617 -0.19355789
000230 54 09 9e bd 5a 59 31 3e 41 66 3d 3d e2 90 d4 bd
       -0.07716623 0.17319241 0.046240095 -0.10379197
000240 95 68 0d 3e 22 4f c5 3c be 19 a1 3d 61 01 0f be
       0.13809426 0.024085585 0.07866238 -0.1396537
000250 6c 09 00 3e 8f 67 b2 3a a2 42 84 3c 32 d5 05 3e
       0.12503594 0.0013611185 0.016145054 0.13069609
000260 bf af 84 be a1 bb 8a bc 70 12 5b bd 9c 8a 96 bd
       -0.25915334 -0.016935172 -0.05348438 -0.073506564
000270 d1 c2 12 3e bd 7e af bd b9 d6 19 bc 4c 94 69 bd
       0.14332129 -0.08569095 -0.009389573 -0.057026193
000280 64 f2 c5 bd 95 e7 fa bd 3a b6 79 bd ba 8f 9d bd
       -0.09665373 -0.12251202 -0.0609648 -0.07693429
000290 0c 8f a0 3d c7 9e 11 3d a2 f5 65 3e 33 28 3d 3d
       0.07839784 0.035551812 0.22456983 0.046180915
0002a0 55 25 b7 3d ef 2b 8d bd 10 b2 dc 3d 3f 06 d6 bd
       0.089426674 -0.06893145 0.1077615 -0.1045041
0002b0 ae 80 f5 bd 8a 32 f0 bd d9 4e cf 3d c0 d4 f4 3d
       -0.11987434 -0.117283896 0.10122461 0.11954641
0002c0 8c 5f 03 3e d4 80 97 3a 28 49 cc bd 80 ab d3 3d
       0.12829417 0.001155878 -0.09974891 0.103354454
0002d0 25 bc 59 be 5d 7f b4 3e c4 7e 74 bd 1f ef 76 be
       -0.21263178 0.3525342 -0.059691206 -0.24114655
0002e0 20 17 1f 3e 5c 75 56 3d 8e c0 e4 bd a9 81 29 bc
       0.15536165 0.052358016 -0.111695394 -0.010345855
0002f0 24 26 99 bd 67 dc 2d be 46 2f 24 be 85 b3 b9 bd
       -0.07477978 -0.16978608 -0.16033658 -0.09067444
000300 e8 b9 36 3d a8 1f 3a 3d 11 7a 0f 3d 43 09 8b bd
       0.044610888 0.045440346 0.03502852 -0.06788876
000310 ba d3 18 3d 2e 3c 28 3e 27 8b 1b be 14 f2 40 bc
       0.037311293 0.16429207 -0.15189801 -0.011776466
000320 a9 4f 84 bd 45 42 4c 3c 26 31 52 3e 20 76 16 3e
       -0.064605065 0.012466972 0.20526561 0.14693499
000330 cb 35 cd bc 06 f4 7a bc 1a 6a 12 3e 0b a2 47 3d
       -0.025050065 -0.015316969 0.14298287 0.04873852
000340 b6 e6 e1 bc 3f fc 7e 3d dc 5b cb 3d b6 a9 51 be
       -0.027575832 0.06225228 0.0992963 -0.20474896
000350 75 04 27 3d 90 3b bd bd 27 cf f2 bd 13 d2 51 bd
       0.040775735 -0.09239876 -0.118559174 -0.051225733
000360 99 59 02 3d 32 7f 64 3d 6b 44 3e bc 85 c0 de 39
       0.03182373 0.055785365 -0.011612992 0.00042486578
000370 20 0e bc 3c ee 85 d4 bd de 34 31 3e 8c 7a 84 bd
       0.022955954 -0.103771076 0.17305323 -0.064686865
000380 f0 5e 12 be 7b fc 36 3d 0f 01 4f bd 49 fa 2a bd
       -0.14294028 0.044674378 -0.05053812 -0.041742597
000390 b4 97 bd 3d 0f 21 57 bc 96 8d 2c be 91 5e 3f 3e
       0.09257451 -0.01313044 -0.16850886 0.18688418
0003a0 dd cc f6 bd 21 2e 25 3e f5 5e 0d be 61 af e4 3d
       -0.12050793 0.16130878 -0.13805754 0.11166263
0003b0 1a d9 22 bd 1f e5 7a 3d 27 b7 1c be 89 34 3c bd
       -0.039757825 0.061253663 -0.15304242 -0.04594854
0003c0 20 69 e1 bb 15 2e d8 3d d4 5e 09 be ba 44 e0 3c
       -0.006878987 0.105556644 -0.1341508 0.027376521
0003d0 14 85 89 3d 19 a9 b7 3d 34 ba 3a be 80 0e dc bc
       0.06714836 0.089678 -0.18235093 -0.026862383
0003e0 94 88 06 bd 94 1b a2 bd d8 ee 63 be 5d 04 80 bd
       -0.032845095 -0.07915416 -0.2225908 -0.06250832
0003f0 1f 70 55 3d 94 8b 5d be 3c 90 a5 3d 94 f1 3e 3d
       0.05210888 -0.21635276 0.08084151 0.046617106

bias f4 [64]
000000 89 a9 26 3e 29 78 d3 3c 55 64 bb 3d 43 c0 99 bc
       0.1627561 0.025814133 0.09149996 -0.018768435
000010 42 0a 35 be ec 05 8b bd 08 d5 59 be 68 eb 58 be
       -0.17679694 -0.06788239 -0.21272671 -0.2118355
000020 1f 7f a5 bd b9 c1 b0 bd 06 1f 0e be bb 44 bb bd
       -0.08080887 -0.086307 -0.13879022 -0.09143969
000030 5e 81 40 be 9a 61 4e bd 34 b9 ab 3d cd fa e2 bd
       -0.1879935 -0.05038605 0.08384934 -0.11082993
000040 2e 4c 91 bb 9d 1e 86 bd 56 f7 5f bd d8 27 12 bf
       -0.00443413 -0.06548808 -0.054679237 -0.57092047
000050 bb ca 81 be fb 85 3f be 79 47 39 be 42 fb 2b 3c
       -0.25349984 -0.18703453 -0.18093671 0.010496916
000060 f0 5d 46 3d da db 3c be ae 93 36 bd 26 75 c6 be
       0.04842943 -0.18443242 -0.044574432 -0.38761252
000070 80 9d 51 bd ce 8f 74 be 44 6e 40 be 74 0f 14 be
       -0.051175594 -0.23882982 -0.18792063 -0.1445902
000080 6f 2e d4 be 41 ea 69 be f1 e6 aa bd 06 10 2a be
       -0.41441676 -0.22843267 -0.0834483 -0.16607675
000090 20 e8 70 be 77 73 52 bd 4b 4b 61 be 14 14 8d be
       -0.23526049 -0.051379647 -0.22001378 -0.2755438
0000a0 3f ba 4e be 08 6d 00 be 10 a3 30 3e 7b b6 01 be
       -0.20188235 -0.12541592 0.17249703 -0.12667267
0000b0 3a ca da 3d 5c 34 25 be 6a be 1a be 3a b6 43 bd
       0.10683103 -0.16133255 -0.151117 -0.047781207
0000c0 20 d1 ba bc f8 c4 20 bd 4e 5d 19 be aa 94 d5 be
       -0.022804797 -0.039250344 -0.14976999 -0.41714984
0000d0 27 94 c5 bc 37 23 28 be 2e 39 93 be b8 9e 2b be
       -0.024118496 -0.16419683 -0.28754562 -0.16759765
0000e0 50 e8 4a be d1 e7 86 bd 08 8c ec bd b5 44 c2 be
       -0.19815183 -0.06587184 -0.11550146 -0.37943044
0000f0 15 ad 15 3a 57 56 52 be b6 45 e4 bd da e5 1d be
       0.000570969 -0.20540749 -0.11146109 -0.15419713

weight f4 [16, 64]
000000 d9 52 e5 3c 17 52 41 bb b0 fe 6c bc 05 63 96 3c
       0.027993606 -0.0029498392 -0.014465019 0.018357763
000010 ee 3a 1a bd 19 49 ea bd 02 bd 4a bc 5d 12 9b bc
       -0.037653856 -0.114397235 -0.012374165 -0.018929655
000020 a9 7c 01 be 0e 50 2d 3d 65 2c f6 3c 1b 19 a1 3c
       -0.1264521 0.042312674 0.030050466 0.019665292
000030 fb 20 ab bd d5 1d 81 bc d2 cb 93 bd c9 bd fe bb
       -0.083559 -0.015761295 -0.0721661 -0.007774089
000040 f2 b5 d7 bc ca c2 93 3d d5 3d 0a bd 94 6e 95 3b
       -0.026331875 0.072148874 -0.033750374 0.004560301
000050 a4 5d 87 3b 6b 4a 9b bd 10 95 eb 3c 97 8a 18 3d
       0.004131036 -0.075825535 0.028757602 0.037241545
000060 3c f0 24 bd 32 6f de 3c b5 09 dd bc 34 88 b4 3a
       -0.040268168 0.027152631 -0.026982168 0.0013773502
000070 47 01 ed 3c d2 06 52 3e 06 94 23 3e 2b 92 ce 3c
       0.028931273 0.20510414 0.15974435 0.025216183
000080 fb 9c b4 3d 5a b0 d6 3c 43 f0 67 3d d2 5e 3c bd
       0.08819004 0.026207138 0.056625616 -0.045988865
000090 1c e0 cb 3c 41 77 3f bc b8 e7 cd 3c 7a 7d 5d 3c
       0.024887137 -0.011686147 0.025134906 0.0135186855
0000a0 17 d1 a8 3c 4c ff 74 bb 49 ff dc 3c 1e 26 77 bd
       0.020607514 -0.0037383614 0.026977198 -0.060339086
0000b0 14 00 17 bd 79 c3 85 bc 60 df a9 3d 41 d3 20 3d
       -0.03686531 -0.01632856 0.082945585 0.039263967
0000c0 c2 fd e1 bc 0b 44 ee 3a 25 80 52 3d 76 e9 11 3e
       -0.027586821 0.0018178237 0.05139174 0.14249215
0000d0 9e 96 09 3d a6 7e 22 bd d7 45 cf 3b ef 2b f0 bd
       0.033590905 -0.039671563 0.006325464 -0.1172713
0000e0 58 7f 8f 3b b2 7c b0 bd 76 0b 2a bc 65 1b 28 be
       0.004379194 -0.08617534 -0.010378709 -0.164167
0000f0 11 5f 12 bd e0 f6 a3 3d 88 0e 9f bb 59 0a 36 bb
       -0.035735194 0.08006072 -0.004854027 -0.0027777164
000100 a9 ed 1a bd 54 c4 94 bc c0 b8 ba bd ea 27 0a bc
       -0.037824307 -0.018160023 -0.091172695 -0.008432368
000110 22 49 b9 3b ad 46 55 3b a1 e5 af 3c e7 05 f8 bc
       0.00565447 0.0032543347 0.0214718 -0.030276252
000120 26 14 8b bd e7 f2 9e bd 32 49 9d 3d 56 c4 be bb
       -0.067909524 -0.07761174 0.076799765 -0.005821745
000130 d3 35 8f bc 7e 44 29 bd a3 9b 56 3d a4 d4 a1 bd
       -0.01748172 -0.041325085 0.05239452 -0.07901886
000140 9a bf bf 3d db 67 87 bc 83 9a 56 3c 5c 33 15 bc
       0.09362717 -0.016529014 0.013098362 -0.009106483
000150 59 dd 5f 3c 67 87 cd 3a 43 1f c5 bc 28 0f 16 bb
       0.013663613 0.0015680612 -0.024062758 -0.0022897217
000160 d9 00 5e 3c ac 2d 6f 3b 4c c0 c3 3b 97 e5 01 bd
       0.013550007 0.0036495728 0.0059738513 -0.031713095
000170 da 49 f6 bc 09 30 e5 bc b4 c5 7e bd 97 da e8 b9
       -0.030064512 -0.027977007 -0.062200263 -0.0004441335
000180 19 25 6e bb eb e8 cb 3b 89 42 e1 3c 17 b7 02 3b
       -0.003633803 0.0062228343 0.027497547 0.0019945556
000190 aa b6 6f 3d ef 93 a3 3b 09 79 03 3c 37 47 04 3c
       0.05852381 0.0049920003 0.0080244625 0.00807362
0001a0 18 1c 41 3d 26 9f af bd 57 d8 55 3d 30 90 ac bc
       0.047145933 -0.08575277 0.05220827 -0.021064848
0001b0 d2 d1 cf 3a bb f4 e1 bb 3c 58 32 bc 50 42 ea bc
       0.0015855378 -0.006895629 -0.0108852945 -0.028596073
0001c0 d5 12 e2 bb 90 40 58 bd 74 2e aa b8 b0 1d 13 bd
       -0.0068992176 -0.052795947 -8.114884e-05 -0.035916984
0001d0 f6 56 87 bc 67 f1 9e 3c 51 97 03 bd c0 6e 23 3d
       -0.016520958 0.019402219 -0.03212673 0.03990054
0001e0 79 24 34 bd 12 9a 2b 3c 5c ef e2 bd 17 ed 44 bd
       -0.043980096 0.010473745 -0.110808104 -0.04807767
0001f0 5b 19 ba 3d 92 ef d0 3c 49 36 c2 bc 65 00 08 3d
       0.090868674 0.025504861 -0.023707526 0.0332035
000200 80 11 d8 bd d6 90 52 3d 64 ed fe 3c fc 24 93 bc
       -0.10550213 0.051407658 0.031119056 -0.017961971
000210 61 85 9d 3c 6c 24 ea 3c 4b f3 c9 bd 69 43 dc bb
       0.01922864 0.02858182 -0.098608576 -0.006721903
000220 b1 80 55 3c cf 95 70 3d b6 15 31 3c 36 8e 98 bb
       0.013031171 0.05873662 0.010808399 -0.0046556247
000230 73 2d 42 3d 78 32 3a bd 37 59 c2 bd b2 40 2b bd
       0.047406625 -0.045458287 -0.09489673 -0.041809745
000240 b6 4b 10 bc c0 57 2d bd 83 f6 56 3c 80 37 bc 3d
       -0.008807113 -0.042320013 0.013120296 0.09190273
000250 55 69 d1 bd 8d 5a c6 3c 46 8b 21 3c 1f bb 0a 3c
       -0.102251686 0.0242131 0.0098598655 0.008467465
000260 87 c7 62 3d 35 1e 17 3d bd 7f 4e bd c2 36 22 3d
       0.055366065 0.036894042 -0.05041479 0.039603002
000270 2a 2a 11 3e e6 e1 66 3d 82 0c a6 3d 84 be 47 bc
       0.1417624 0.056367777 0.081078544 -0.012191419
000280 15 fb 75 bd 68 0a df 3c 3a 0e 9f 3c 4d e6 97 3c
       -0.060053904 0.027226642 0.019415963 0.018542433
000290 44 51 3a bd 79 f7 18 3c b3 d3 5b bc b4 15 09 bd
       -0.045487657 0.009336346 -0.013417172 -0.033467963
0002a0 65 e3 b3 bc 64 c0 42 3d ea a7 dc 3c 89 0d b8 3c
       -0.021959016 0.04754676 0.026935536 0.022467392
0002b0 1b be 54 bc ae 4e 05 3e be a6 07 bd 44 d4 b9 3d
       -0.012984778 0.13018295 -0.033118002 0.090736896
0002c0 ea 8e 00 be 86 46 66 3e 8e 4c 60 bd 38 75 63 bd
       -0.12554517 0.2248784 -0.05476051 -0.05553171
0002d0 1d 31 e5 bc fb a8 05 bd 66 99 06 3d a4 bf 9e bd
       -0.02797752 -0.032631855 0.032861136 -0.07751396
0002e0 bb b7 8b 3c d4 f9 aa 3d ce 9b ce 3b 89 e6 3a 3e
       0.017055383 0.08348432 0.0063051945 0.18252005
0002f0 0f 98 66 bd d0 31 4e bd e4 c9 90 3c a5 9b 81 bd
       -0.056297358 -0.050340474 0.017674394 -0.06328515
000300 9d 65 2b bd 30 e8 e3 bc d8 a2 31 bd 08 fb dd 3d
       -0.041844953 -0.027820677 -0.04336819 0.10838896
000310 fb bb c9 bd 6f be ae bc 09 a4 bb 3d 47 e6 5c 3b
       -0.098503076 -0.02133104 0.091621466 0.0033706592
000320 c6 9b 1c 3e 55 c3 07 be ce a2 0c 3e 55 c5 7c 3c
       0.15293798 -0.13258107 0.1373398 0.015427907
000330 8c 51 be 3d 71 f6 d5 3b 54 2a 68 3e d0 20 8f bc
       0.092928976 0.0065296222 0.22672397 -0.0174717
000340 6b a8 c7 be e0 1e 23 3e 20 eb ae bd 8a ae 13 be
       -0.3899568 0.15929747 -0.0854094 -0.1442205
000350 5f 66 a7 b9 59 93 5d 3d 27 48 a6 3d 30 29 48 bc
       -0.00031928995 0.0540956 0.08119231 -0.012216851
000360 5a 50 f2 3b 40 5d 45 3d 4a 9d dd 3c 49 6f e0 3b
       0.0073948326 0.048184633 0.02705254 0.0068492037
000370 c8 3d 37 bd 08 14 b9 3c 4b 88 e4 bc 2a 1a 1c be
       -0.044736654 0.02259256 -0.02789702 -0.15244356
000380 9e e7 c2 bc e3 27 93 3c 18 bc 28 3d cf 7c 1f 3c
       -0.023792084 0.017963355 0.041195005 0.0097343465
000390 f5 39 ea bc 1f a5 ca 3d 0e 74 2f bd ae a8 5b 3c
       -0.02859209 0.098947756 -0.042835288 0.013406916
0003a0 d2 9a b1 bc 74 2f 27 bd 31 76 fe 3e 6b e5 96 be
       -0.02168027 -0.04081674 0.49699548 -0.29471907
0003b0 02 6b 4e 3e e7 9c ff 3d 36 69 7c bc 73 e4 4a 3b
       0.20158008 0.124810986 -0.015405944 0.003095892
0003c0 2b d2 9b bd 6d a0 b1 3c cb b6 fe bc 85 9f 01 bd
       -0.07608446 0.021682942 -0.031093022 -0.03164627
0003d0 a9 14 ad 3d f9 31 8e bb 81 1d 49 3d 16 dc e0 3c
       0.08451206 -0.0043394533 0.049100403 0.027448695
0003e0 88 84 7d bd 9e 19 43 bd df 39 75 3c 6d 8c 9f bc
       -0.06189397 -0.047631852 0.014967411 -0.01947614
0003f0 fd 25 03 be 26 20 ad 3d a6 87 a8 3d 8f 2c 8b bd
       -0.1280746 0.084533975 0.08228998 -0.06795608

bias f4 [16]
000000 d8 ea a7 be af 2b 83 3e b9 ad dc bd 24 45 77 3d
       -0.3279636 0.25619265 -0.107753225 0.060368672
000010 29 d7 99 3e 3b cd 13 3e e8 9c 3b bd 81 2b 20 3e
       0.30046967 0.14433758 -0.045803934 0.15641595
000020 08 02 1b be 14 f8 4b be 04 9f 0e 3d 01 4d 78 be
       -0.15137494 -0.19918853 0.034819618 -0.24248125
000030 e2 6a b8 3e 68 0c 02 be c1 d1 63 bd 57 8c c5 bd
       0.36019045 -0.12700045 -0.05561996 -0.09645908

weight f4 [128, 285]
000000 44 a3 8f 3d 0d 17 c3 bd b9 20 60 be 39 2b 29 3e
       0.07013562 -0.09525881 -0.21887483 0.16520394
000010 74 26 0e 3e 52 34 ac 3d 13 46 92 bc 85 3b ee bb
       0.13881856 0.08408417 -0.01785568 -0.007270279
000020 c5 5f 15 bd 04 0b b1 3d 9a b7 51 be 3a 72 e8 bd
       -0.036468286 0.08644679 -0.20480195 -0.11349912
000030 dc 0e 4d 3b ac 0d 02 be 2f 8b f9 bd 4d da f5 3d
       0.0031289374 -0.12700528 -0.1218475 0.12004528
000040 f1 50 37 3d d4 66 67 bf 9b e2 ab 3e a9 d7 f0 3e
       0.044754926 -0.9039128 0.33571324 0.47039536
000050 42 33 c7 3c b7 4d e1 3c fc ea 0b bb bf ce e3 3b
       0.024316434 0.027502878 -0.0021349778 0.0069521363
000060 79 3c d1 ba e4 26 2c 3e cb 43 51 3b 7c 2c 13 be
       -0.0015963457 0.1681171 0.0031931277 -0.14372438
000070 2a 4c d4 bc 64 ad c5 bd 43 c9 9e 3c 7e 3f cc bc
       -0.025915224 -0.09652212 0.019383078 -0.02493262
000080 64 f4 9a 3c 2f 8c 77 3e af 4d 82 bb b8 45 36 3e
       0.018915363 0.2417457 -0.0039765458 0.17800033
000090 59 6a 96 3c 31 7d 65 bd 0c 78 ee 3d 62 a0 cf bc
       0.018361257 -0.056027595 0.11643991 -0.025345031
0000a0 5f 1d a6 3b 54 10 25 3d cf b3 2e 3a 4d 43 c2 bc
       0.0050694193 0.040298775 0.0006664367 -0.023713732
0000b0 22 96 02 3c 91 2e 1a 3d 3d 0d 0b bc 3e af 27 3d
       0.007970365 0.037642065 -0.008487043 0.04093861
0000c0 7f b5 20 39 93 c2 4a 3d 70 00 51 3c 13 ff 88 3d
       0.00015326402 0.049501967 0.012756452 0.066892765
0000d0 a7 0f 24 bb 92 7d 80 3d e6 38 4f 3a 14 59 7e 3c
       -0.0025033744 0.06273951 0.0007904902 0.015524168
0000e0 59 9c a9 3b 00 7d a9 3e 44 c4 16 3e 32 0e 5f 3e
       0.005176109 0.3310318 0.14723307 0.21782759
0000f0 c7 d2 7b 3d 9b 8c 03 3d 1c 18 c6 3d cb 34 2f 3c
       0.06148031 0.032116514 0.09672567 0.010693739
000100 a6 47 91 bb 0d 05 b7 bb b4 bc 13 3d 2c 6f 10 be
       -0.00443359 -0.005585319 0.036068633 -0.14104909
000110 11 ac f8 bd 64 df ce bc d6 16 db be a0 b1 ec 3d
       -0.12142194 -0.025253005 -0.4279086 0.11557317
000120 96 42 50 3e 2e 3d 59 3a 31 8e 20 3e 80 ed 17 be
       0.203379 0.00082870096 0.15679242 -0.14836693
000130 d5 59 e6 3e e5 51 02 bd b6 60 7e bd f7 78 3d bb
       0.4499041 -0.031816382 -0.06210395 -0.0028911212
000140 68 e2 05 3d d8 bf 0a bc 97 5b 4b 3e 3f e7 8f bc
       0.03268662 -0.008468591 0.19859158 -0.017566321
000150 55 bb 9a bd 7a 18 96 bc 5c 50 87 3d ac 26 5f 3d
       -0.07555262 -0.018322218 0.06607124 0.05448024
000160 2b d0 f0 3d 90 e7 04 3d 39 d2 e7 3e 50 b3 ef 3d
       0.11758455 0.032447398 0.45277575 0.11704123
000170 7e c3 67 3c 90 b6 77 3d 33 d2 14 3d d9 19 10 3e
       0.01414573 0.06047684 0.036333274 0.1407236
000180 2a 30 96 3d cd da 09 3c ba 7c 2d 3d 03 93 be ba
       0.07333405 0.008413983 0.042355277 -0.0014539663
000190 f6 b3 90 bd ed 08 8d 3b 81 60 53 3d 60 b3 35 bd
       -0.07065575 0.0043040426 0.051605705 -0.04436052
0001a0 d5 b0 7c 3d d0 6f 09 bb c8 5b c4 3c 98 42 81 3d
       0.061692078 -0.0020971186 0.023969546 0.0631153
0001b0 6e 97 f8 bd a2 6c 15 bc 8e 21 c3 3d 46 3c dd bc
       -0.12138258 -0.009120138 0.095278844 -0.02700628
0001c0 ce 47 18 3d a8 52 8a 3a 29 34 85 3e 67 01 06 3f
       0.037177853 0.0010553198 0.26016358 0.5234589
0001d0 4c a9 99 3d b1 4c 5d 3c 83 d4 ed bc 23 52 4f 3d
       0.07502994 0.013507054 -0.029031998 0.05061544
0001e0 cb d5 10 bc 3e d0 90 3b 41 8e b2 bc ce 05 04 be
       -0.008840035 0.0044193557 -0.021796348 -0.1289284
0001f0 b3 0f 4a 3d 48 3b e0 3d 61 58 d5 3b 9e 38 06 bf
       0.04933138 0.10948807 0.0065107797 -0.5243014
000200 60 58 d3 3e fe 5d 05 3e 73 39 24 bb 4e 54 88 3f
       0.41278362 0.13024136 -0.0025058656 1.0650728
000210 c5 63 bb be 63 d9 89 be 57 46 d6 ba 6e 28 04 be
       -0.36599556 -0.26923665 -0.0016347867 -0.12906048
000220 fd e3 38 3d bf 54 50 bd 76 8c f9 3c c0 9e 49 3d
       0.0451393 -0.05086207 0.030462485 0.04922366
000230 a9 d1 ce bd 11 e6 9c 3d a9 2e 21 bd 96 c6 35 3e
       -0.10098583 0.07661069 -0.03935114 0.17751536
000240 f2 ec 03 3d 6a 6c 7f 3e 87 67 f0 3b 00 03 1b 3e
       0.03220839 0.249437 0.00733656 0.15137863
000250 d2 c0 7f 3d c7 82 81 be 73 10 89 3c 6a 32 2c 3e
       0.062439747 -0.25295088 0.016731476 0.16816106
000260 b4 5a c9 3d fd 1a 41 3c f4 11 d2 3c 59 26 6e 3b
       0.098317534 0.01178622 0.025643326 0.0036338775
000270 8d 3a 06 bc 4d fb 98 bd 22 92 b5 3b 08 46 59 3c
       -0.0081926705 -0.07469807 0.005541102 0.013261326
000280 05 a4 63 bd 8e f3 43 3b e7 79 9d b9 b6 f9 bd bd
       -0.055576343 0.0029899809 -0.00030036198 -0.09276144
000290 48 e8 16 3e 56 86 c4 be 9f 5c f9 bb d8 1d df 3c
       0.14737046 -0.3838374 -0.0076099182 0.02723591
0002a0 41 34 62 bd 97 06 07 3c 2a d7 8f bb 5c fe b2 bc
       -0.055225614 0.008241317 -0.004389663 -0.021849804
0002b0 a8 a3 96 3e 02 9f 21 be be 17 95 bb 7d 51 b8 bd
       0.29421735 -0.15783313 -0.0045499494 -0.08999918
0002c0 07 6d c2 3c 18 2e 09 3c 89 c3 f1 3b 96 f0 13 bc
       0.023733629 0.008372806 0.007378046 -0.009029528
0002d0 dc f3 74 be 62 b1 58 3e f7 74 6d 3e 11 0c 0e bc
       -0.2392115 0.21161416 0.2318915 -0.008669869
0002e0 26 82 91 3d 35 40 9e 3e d3 d5 e4 bc ed 0b 29 bc
       0.07104902 0.3090836 -0.02793399 -0.010317785
0002f0 96 bb 3a 3f ab 02 b3 be a1 b4 8f be 0b b9 35 3d
       0.72942483 -0.34962973 -0.28067496 0.044365924
000300 da 11 2b be bf b0 28 bd 0c e7 e5 bd 9b db 9b bc
       -0.16706029 -0.041184183 -0.11225709 -0.019025614
000310 83 4b 97 bc 07 19 1b be 50 34 bd 3d 72 9a 09 bd
       -0.018468624 -0.15146266 0.092384934 -0.033594556
000320 d7 58 9a 3e 1f dd 17 3e 86 e8 8f 3c 29 dc 97 bc
       0.30145904 0.14830445 0.01756693 -0.018537598
000330 6e 26 03 bf 4c 92 3a be b8 75 83 3e d9 9c b0 3c
       -0.51230514 -0.1821987 0.2567575 0.021559166
000340 fa 2b b1 bc 24 22 54 bc 31 17 c8 3b c5 60 65 bc
       -0.021627415 -0.012947593 0.0061062803 -0.014000122
000350 39 f7 56 bd ba 8e 1a bd 1a ff 24 3c 4c d5 58 3b
       -0.052481864 -0.03773377 0.010070587 0.003308612
000360 43 cf 7d bd 65 30 a2 3b 24 c2 c6 bd 10 6f 4e bb
       -0.06196524 0.0049496167 -0.09704998 -0.0031499304
000370 07 cb b9 bd c2 0f ea 3c 35 cc ff bd 96 ba 8f bb
       -0.090719275 0.028571967 -0.12490121 -0.0043862564
000380 b6 34 80 bd 4a 29 07 bd 91 73 50 bb 9b 53 6d bb
       -0.06260054 -0.03299836 -0.0031807164 -0.0036213163
000390 ad ab 05 bf f5 1a 3b bf a0 43 87 3e 1e e6 cd bd
       -0.5221508 -0.7308801 0.2641878 -0.10053657
0003a0 58 7a a6 bd 77 10 a7 bc 97 6b 8b bb 01 01 b3 ba
       -0.08128804 -0.020393593 -0.004254769 -0.0013656915
0003b0 a4 dc ef bc cb 0b 0b 3e 09 ff 88 3e d1 89 25 3e
       -0.029280014 0.13578717 0.26757076 0.16165854
0003c0 16 20 7f bb a4 49 35 3f 4d 33 e1 be c8 fc 5f be
       -0.0038929037 0.7081549 -0.43984452 -0.21873772
0003d0 f9 31 0c bd a5 aa 1c bf 88 6d 31 3d d3 1a 7e 3f
       -0.034227345 -0.6119788 0.043317348 0.9925968
0003e0 92 e4 d9 3c e8 d8 78 be 7e 6d f9 3d bd c7 2d bd
       0.026598249 -0.24301493 0.12179087 -0.042426813
0003f0 0a 0c b3 ba 92 36 28 3d 1b 96 5b ba 38 74 42 be
       -0.0013660204 0.041067667 -0.00083765545 -0.18989646
