src/rl_sar/models/b2w/robot_lab/policy.pt (torch, 796064 bytes, 8 tensors)

weight f4 [512, 57]
000000 91 0c 54 3f b6 07 3a bf c4 9a c6 3e 82 1f 04 3f
       0.82831675 -0.72668016 0.38789952 0.5161058
000010 a4 af 10 bf 7f 61 8f 3e 45 3e c3 be cd a8 d1 3e
       -0.56518006 0.2800407 -0.38133445 0.40949097
000020 d2 11 a7 bd b0 59 a7 3d aa a6 9e 3d af da 79 3d
       -0.08157696 0.081714034 0.077466324 0.06099957
000030 5f b8 dc 3e c0 d5 ed bd eb 3a d1 3d 8d 13 1a bf
       0.43109414 -0.11613035 0.10216316 -0.6018608
000040 02 d6 c0 be 8a 40 78 3e 46 e1 e1 3d be d6 f8 3e
       -0.37663275 0.2424337 0.110292956 0.48601335
000050 ea 4a 29 3e 3a dc 0a 3f 29 d6 0c 3e b7 e6 a0 be
       0.16532484 0.5424229 0.1375357 -0.3142602
000060 0a f6 a2 3e af 22 c3 3f 74 17 9a bc 90 86 38 3d
       0.31828338 1.524496 -0.018810011 0.045050204
000070 37 11 c4 3f 8e 3c eb 3e 25 0c 39 bf 4b f2 8c be
       1.5317754 0.45944637 -0.72284156 -0.27528605
000080 bf c6 6e be 2c b5 f2 3e 4c 86 ec 3e 53 1e 26 ba
       -0.23318003 0.47403848 0.4619621 -0.0006336916
000090 ee c1 cc be 44 12 3f bc bc b1 a0 bc b8 dc 23 3d
       -0.39991707 -0.01166207 -0.019616 0.040005416
0000a0 a5 8f 86 3e 29 f4 8e 3d 27 78 3f bd 7b 17 4e 3d
       0.26281467 0.069801636 -0.046745446 0.05031536
0000b0 9a 1a 4e 3d a4 f2 93 bd 46 01 70 3d ef 3f 09 3d
       0.050318338 -0.072240144 0.058594964 0.033508237
0000c0 b7 40 91 bc 23 9c d5 bd 82 a3 89 bd a4 27 ae 3c
       -0.017731054 -0.10430171 -0.0672064 0.021259136
0000d0 5b e1 78 3d 31 52 2e bc 09 20 db bc d6 65 29 3c
       0.06076179 -0.010639713 -0.026748674 0.010339221
0000e0 80 03 ac bc 6e 19 23 3f 8d c5 0c bf 89 3e 6e bf
       -0.020997763 0.6371068 -0.5498894 -0.9306417
0000f0 1d 27 8f bf 5b 25 3d bf c4 44 c0 3d 8c 69 33 bd
       -1.1183811 -0.73885125 0.09388116 -0.04380183
000100 97 13 c3 3e 34 02 34 3e 81 33 46 3f 53 80 48 bf
       0.38100883 0.17578965 0.7742234 -0.7832081
000110 f1 08 8d be 2e 5e 1c bf fe 0b c0 be e4 61 86 3e
       -0.27545884 -0.61081207 -0.3750915 0.2624656
000120 fd 50 40 3f aa 57 91 3e a7 83 0d 3e c5 8b e1 bd
       0.7512358 0.28387195 0.13819753 -0.11012987
000130 93 a9 a5 3c 3b 41 f0 bc 25 8a 6f be fa c0 10 be
       0.02022246 -0.02932798 -0.23392542 -0.14136115
000140 21 15 5a be 24 c0 15 3f 24 a6 00 bf b7 4b 7c bf
       -0.21297123 0.5849631 -0.5025351 -0.9855303
000150 79 0d 92 bc 2c 2a 0f bd f0 d6 96 bf e7 b8 d4 be
       -0.01782869 -0.034952328 -1.1784344 -0.4154732
000160 d7 d0 dd 3e 87 25 37 bd b4 26 2b 3e 86 95 45 3b
       0.43323395 -0.044713523 0.16713983 0.0030148937
000170 c1 22 83 3e 7c 4d cf 3d 55 59 36 be 11 14 9a 3c
       0.25612453 0.10122201 -0.17807515 0.018808397
000180 69 84 98 3c cb cb f9 bd a5 8f 67 3d 1a 31 06 bd
       0.018617826 -0.121970735 0.056533474 -0.03276167
000190 8a 4e c2 3c 7c a0 c5 3d 23 e1 f8 bc fe bd 1d be
       0.023719091 0.096497506 -0.030380791 -0.15404508
0001a0 f6 7d c1 bb e3 24 34 bd 05 9f ee 3b 41 e8 68 3d
       -0.0059049083 -0.04398049 0.00728214 0.05686212
0001b0 0c 0c fa bc 67 1f e3 bc 53 0d 25 bb ae a4 97 3c
       -0.030523323 -0.027724935 -0.0025184944 0.018511143
0001c0 86 56 43 bd 37 43 86 3d 3a ef 91 3e be 06 5a 3f
       -0.047689937 0.06555789 0.28502828 0.8516654
0001d0 c1 0e 3f bf 12 15 d6 3f 46 bf c9 3d 33 c2 80 3e
       -0.7463189 1.672518 0.09850936 0.25148162
0001e0 12 88 be 3e ef 85 f1 be 9a 00 48 bf da b9 1c 3e
       0.37213188 -0.47172496 -0.7812592 0.15305272
0001f0 fa 86 67 3e a4 d2 8d 3d 74 e2 84 3d 6b 9d bf 3e
       0.22610083 0.06924942 0.06488505 0.37424788
000200 3a 9f ab 3e 2c 9f 33 bf c6 c8 f3 bc c1 c3 9d be
       0.33519918 -0.7016475 -0.029758822 -0.3081341
000210 15 19 e8 be 45 f7 40 3e 72 a8 46 be 79 2c 48 3e
       -0.45331636 0.18844326 -0.19400194 0.19548215
000220 a2 51 d2 3c 60 8e 9d be db 4c 80 be 90 bd 06 3f
       0.025673691 -0.30772686 -0.25058636 0.52633
000230 9b 56 e0 3e bb 03 0a 3f 45 d3 22 bd a4 ad 21 3e
       0.43816075 0.5391194 -0.039752264 0.15788895
000240 6c 54 83 3e 29 b6 82 3e 66 3e 8c 3e ec 7f 7e 3e
       0.25650346 0.25529602 0.27391356 0.24853486
000250 73 6d 1e 3d a2 70 bc 3e 2a 67 39 be cf 67 3f 3e
       0.038678598 0.36804682 -0.1810576 0.18691944
000260 4a 26 59 ba 34 21 72 be 07 7d 96 3d b0 1a a0 bc
       -0.00082835986 -0.23645478 0.07348066 -0.019543976
000270 ea f9 8d bc 87 f7 85 3c 54 4b 6c 3c a9 44 53 3c
       -0.017331082 0.016353382 0.0144222565 0.012894788
000280 9e 9e 11 bc 95 18 d8 3c dc d5 3d 3b 95 1e 00 bd
       -0.008887915 0.02637891 0.0028966581 -0.031279165
000290 74 5f 30 3d 95 c3 17 3c 9b 39 42 bd 85 04 03 bd
       0.04305978 0.009262939 -0.047418218 -0.031986732
0002a0 ac 85 9d bc 6b 31 04 3d 68 ee 16 bc e3 42 ac be
       -0.019228779 0.03227369 -0.009212114 -0.3364478
0002b0 d6 77 d5 be f6 6d 43 3f ff 9c 23 3f b1 aa 2f 3f
       -0.4169299 0.7633966 0.6391143 0.6861983
0002c0 53 12 84 be 5e 1e 16 3d 66 69 fc 3d 98 82 a7 bd
       -0.2579523 0.036650054 0.12324791 -0.08179206
0002d0 36 03 2a be d0 7a 36 bf 0c 7e 91 bd 3d ba c9 bd
       -0.16602787 -0.71281147 -0.0710412 -0.09849975
0002e0 1d b9 fa be d7 78 96 3e 22 cd 82 bc 5c 7a e0 3d
       -0.48969355 0.29389068 -0.015966956 0.10960838
0002f0 5b 30 73 be 71 ae 8f 3e b5 ca 07 be e2 78 ce bb
       -0.23748915 0.28062776 -0.1326092 -0.0063010314
000300 7e 31 29 be 07 6b 3d 3e 31 de 88 3e 4c 75 de be
       -0.16522786 0.18497859 0.2673202 -0.43448865
000310 db 83 43 bf 4a 6c 2b 3d e3 47 3c bf f6 a4 60 3e
       -0.7637307 0.04185132 -0.7354719 0.21937928
000320 38 df b5 be 0f 13 a3 3e 83 de 08 bf 17 3a b8 3e
       -0.35521865 0.31850478 -0.53464526 0.3598182
000330 98 29 6a bd 47 23 04 bd ca c6 c5 bc b7 b6 01 be
       -0.057168573 -0.032260206 -0.024142642 -0.12667356
000340 df ab a2 3e 02 d1 02 3e 17 5f 78 3d 22 10 e3 bd
       0.31771752 0.12775043 0.06063756 -0.110870615
000350 6b 5e d8 bb de 82 b2 bd 78 90 cc bd c2 6e 1e bc
       -0.0066030524 -0.08716367 -0.09988493 -0.009669961
000360 dc b8 4b 3d 73 87 94 bd 81 ae b6 bd d7 02 87 bd
       0.049736843 -0.072523974 -0.08920003 -0.065923385
000370 70 f9 be bb 07 db 7b bc d9 b3 05 bd a4 33 95 bc
       -0.005828075 -0.015372044 -0.03264222 -0.0182131
000380 66 c8 27 bd 56 7f b4 bc 9b 54 11 3b 7c 72 1c 3d
       -0.0409626 -0.022033375 0.0022175673 0.03819512
000390 71 a5 9f 3e 80 3c 82 be 63 12 69 3d b5 b6 ab bf
       0.3118091 -0.25436783 0.0569023 -1.3415133
0003a0 f8 8f 1d bf 50 cb 80 3e 2c 9d 14 3c 56 f4 4a 3b
       -0.61547804 0.25155115 0.009070676 0.003096839
0003b0 f3 ea af 3e 11 cf f4 3d c2 95 0e be b6 61 5c be
       0.3435894 0.11953557 -0.13924316 -0.21521649
0003c0 49 6c 99 bd 76 b7 fc be 69 ad 5c be 99 26 8e bd
       -0.07491357 -0.4935872 -0.21550526 -0.06940956
0003d0 dc d8 2a bf b6 23 0a bf 8b 72 7c 3e d1 f0 97 3d
       -0.6673715 -0.5396074 0.2465307 0.07418979
0003e0 a2 34 14 be eb 88 c6 be a5 13 e6 be 60 5b 4b be
       -0.14473203 -0.38776335 -0.44936863 -0.19859076
0003f0 1b d2 b7 3d 56 c1 b6 3e 5b 4e 3b 3e 27 cc fe 3d
       0.08975621 0.3569438 0.18291609 0.12441283

bias f4 [512]
000000 e8 f4 ef 3c 26 0f 79 3d b0 da bb bd 60 7e 0d 3e
       0.029291585 0.060805462 -0.09172571 0.1381774
000010 9e 0d 43 3e 63 f4 97 3b d9 75 8e 3e d3 d5 67 be
       0.19048163 0.0046372875 0.27824286 -0.22640161
000020 36 86 85 3c 7c cf d9 bd 5b e9 41 be 6d 3e b9 3d
       0.016299348 -0.10635278 -0.18936674 0.0904511
000030 59 26 f1 bd 41 72 4e be b0 f5 ca be 89 80 95 3d
       -0.11774892 -0.20160772 -0.3964057 0.07299907
000040 64 98 85 bc 03 dd 91 bc 42 00 d9 be cb c3 34 be
       -0.016308017 -0.017805582 -0.4238301 -0.17652814
000050 ec a8 5b be fa 6d 15 be 25 ef 73 bd 47 92 bb be
       -0.21451157 -0.14592734 -0.059554238 -0.36635038
000060 16 6f 4c be 99 d6 dc be 64 76 44 be 09 28 41 3e
       -0.19964251 -0.43132475 -0.19185787 0.18862928
000070 9e db 9c be 91 1c 36 be 85 54 fb 3b 24 95 92 3d
       -0.30636305 -0.17784335 0.0076699876 0.071573526
000080 37 12 6d 3d c6 8a 8f be 4b b3 24 be c9 56 c6 be
       0.0578787 -0.28035563 -0.1608402 -0.38738087
000090 3a e4 95 be c6 3b 19 bc 63 46 cd 3d 36 34 94 bd
       -0.29275686 -0.00935263 0.10023191 -0.07236521
0000a0 2c 2b ad bd b6 f3 3f 3e 87 5a bb bd 23 25 94 bd
       -0.084555 0.18745312 -0.09148126 -0.07233646
0000b0 fe d8 af 3d bd ce 65 be 91 6a 7b be 60 1b bb be
       0.0858631 -0.22442146 -0.2455237 -0.36544323
0000c0 de 44 cc be 5a d8 f8 3d 77 d8 9b bd e3 06 97 be
       -0.39896291 0.12150641 -0.07609647 -0.29497442
0000d0 d1 6b 62 3c 04 4d 28 be 60 09 43 be 9a 03 e7 bd
       0.013819651 -0.16435629 -0.19046545 -0.11279984
0000e0 21 e1 c6 bd 88 c8 3f be a4 e9 87 3e 3e 87 f3 bd
       -0.09710909 -0.1872884 0.2654544 -0.1189103
0000f0 df b6 23 be 08 b4 0a bf a5 3f 6d be b3 25 40 be
       -0.15987729 -0.54180956 -0.2316881 -0.18764381
000100 8b 77 87 bd 0f fa 2e be 34 e9 9f bd ea 37 33 bd
       -0.06614598 -0.17087577 -0.07808152 -0.043754496
000110 f2 e3 35 bd 74 7b c3 be e8 b1 23 be fe 26 75 be
       -0.04440684 -0.38180125 -0.15985835 -0.23940656
000120 ed 47 ea bc a4 87 0b 3d ae 27 06 3d 3f b7 83 be
       -0.02859875 0.034064904 0.032752685 -0.25725743
000130 14 d4 75 be 8e 30 ac 3d f0 0d 3f 3d cd 5b 95 3c
       -0.24006683 0.084076986 0.04664415 0.01823225
000140 c5 a1 e8 3d 75 e0 86 3e ec 7a 8a 3d 0b 53 db bc
       0.1135898 0.26343122 0.06761727 -0.026772996
000150 aa d3 72 3e 1f 15 23 be b7 53 77 be 76 37 11 3d
       0.23713556 -0.15926026 -0.24153028 0.035453282
000160 a3 f3 7c be eb 5b 9d bd 5d 39 ab bd 6f 91 03 bf
       -0.24702315 -0.076835476 -0.083605506 -0.5139379
000170 8a ca c9 bc db e1 94 be 5a db e5 be fc 2a 82 be
       -0.024632711 -0.29078564 -0.44893914 -0.2542342
000180 c2 44 b4 be 98 c8 35 bd e3 2f bc 3d fb cf b3 be
       -0.35208708 -0.044380754 0.09188821 -0.35119614
000190 64 c4 4d 3e cd 57 2b 3e ab a7 9e be 5e f7 ec be
       0.20094448 0.16732712 -0.30987296 -0.46282476
0001a0 e2 10 c5 bd 67 01 b9 3d 97 c8 b8 3d 70 dc 38 3e
       -0.09622361 0.090334706 0.090226345 0.1805284
0001b0 8e b0 c5 3d fd a3 dc bd fe f7 ce 3d 04 4f ba be
       0.09652816 -0.10773466 0.101058945 -0.3638841
0001c0 77 9b 1b 3d ab 2f 35 be 19 69 73 bd 8b d7 9d bd
       0.03799006 -0.17693965 -0.0594264 -0.07707127
0001d0 ad 72 6e 3e c8 2c 7b be 18 80 55 3d d8 36 00 3e
       0.23285933 -0.24528801 0.052124113 0.12520921
0001e0 91 8b c4 be b7 68 6f be 18 7b ae 3e d5 19 fb bd
       -0.3838773 -0.2337979 0.34078288 -0.122607864
0001f0 2f 1f 6c 3d 2f 8a 8e be 35 30 7b bd 16 d9 19 be
       0.057646926 -0.278398 -0.06132527 -0.15024218
000200 17 74 9e bc 01 73 7b be 92 3f 76 be 53 91 92 3e
       -0.019342465 -0.2455559 -0.24047688 0.286265
000210 7e b2 6e be 5d ae 03 be 83 bb a4 bc a3 96 9f be
       -0.23310277 -0.12859483 -0.020108944 -0.31169614
000220 da f0 ac 3a 89 37 95 be 9f 73 c4 3d 6a 61 8d 3a
       0.0013194338 -0.29143932 0.095923655 0.0010786478
000230 49 84 8a be dc 64 32 be b5 f4 47 3d 41 79 82 be
       -0.2705405 -0.17421287 0.048817355 -0.25483134
000240 10 71 01 3d 26 9f 1b bd 84 49 c2 bd 65 c3 9c 3e
       0.031601965 -0.037993573 -0.09486678 0.30617824
000250 d6 81 90 bd 83 a5 8b be 1d b1 40 be 7a f6 74 be
       -0.07056014 -0.27274713 -0.18817563 -0.23922148
000260 c1 d3 ed 3c 3c d1 5a 3e 1e 63 3a 3e 98 9d fc bd
       0.029031636 0.21368879 0.18201873 -0.12334746
000270 99 57 fb 3d e9 76 ac 3d cc 37 f2 3c 15 ce 33 bd
       0.12272567 0.08421118 0.029567622 -0.043897707
000280 5f aa b2 be 27 c9 3e bf f0 30 2b be aa d4 43 bf
       -0.34895608 -0.74525684 -0.16717887 -0.76496375
000290 32 fd e8 bd 6c f7 4a be 0b 6b b6 be c0 06 95 be
       -0.11376418 -0.19820946 -0.35628542 -0.29106712
0002a0 3c 89 88 be fa 7b 8d 3c eb ba 69 3e 09 1c 7a 3d
       -0.26667202 0.01727103 0.2282521 0.061061893
0002b0 e2 1c 50 bd c5 52 60 be 33 0f 1d 3d 33 cf ae 3e
       -0.050808795 -0.21906574 0.038344573 0.34142455
0002c0 5e 22 0b be d8 72 ca be cd b0 5a bd b8 42 6b be
       -0.13587329 -0.39540744 -0.053391267 -0.2297467
0002d0 31 d9 02 bc d5 85 d5 bd bc fd a8 bd c6 8f 3f bf
       -0.007986353 -0.10425917 -0.08251521 -0.74828756
0002e0 92 39 4e 3e bb fb 07 be 11 2c 85 be dc 60 7d be
       0.20139149 -0.13279621 -0.26010182 -0.2474398
0002f0 75 bf 38 bd 95 87 53 be 8c c9 aa 3b 45 83 23 be
       -0.045104463 -0.20657189 0.0052120145 -0.15968044
000300 4d 86 8c bd 61 62 6b 3e 4d 50 fd 3e aa 7e 49 be
       -0.06861553 0.22986747 0.49475327 -0.19677225
000310 27 f9 2e be d2 81 59 bd 06 89 9b 3e 80 94 4f be
       -0.17087232 -0.053102322 0.30377978 -0.20271492
000320 84 12 06 bf 2e 95 af 3c 89 00 8c 3e 1a b5 bf be
       -0.52372 0.02143344 0.27344158 -0.37442857
000330 13 d4 a2 be eb 26 c2 be 9a 39 90 be f7 58 2f 3d
       -0.31802425 -0.37920317 -0.28168947 0.042809453
000340 b9 26 db bd 22 83 03 be 73 98 be bd e9 56 2b be
       -0.10700745 -0.12842992 -0.09306421 -0.16732372
000350 9e 2b c3 bc 1a f6 cb be b7 d7 8b 3e ec aa 01 be
       -0.02382451 -0.39836198 0.27313015 -0.12662858
000360 11 df 25 3e d2 37 60 be ed 75 7c bd 4e f0 84 be
       0.16198374 -0.21896294 -0.0616359 -0.25964588
000370 7b dc 3a 3d f0 60 4b 3e 5c 19 0d be c8 78 0d be
       0.045620423 0.19861197 -0.13779205 -0.13815606
000380 d8 c6 f9 bb 42 08 72 be c6 a2 7a be 5f 82 83 bd
       -0.007622581 -0.23635963 -0.24476156 -0.06421351
000390 42 c6 0c bf f0 2c a6 3e 9f 85 09 bd 21 12 49 bd
       -0.5499002 0.3245616 -0.033574697 -0.049089555
0003a0 07 a7 8f bd 0b 52 fd 3d 8b 8e 3d be 61 b2 9a be
       -0.0701428 0.12369164 -0.18511407 -0.30214217
0003b0 93 41 2c 3e 8b e2 1a bf bb 24 8a 3e 88 b8 09 3e
       0.1682189 -0.6050193 0.26981148 0.134493
0003c0 ea 1c 98 ba c4 62 84 3d 3a 43 4d be 42 c9 15 bd
       -0.0011605297 0.064641505 -0.20045176 -0.036568888
0003d0 21 52 14 bc c2 53 56 be c8 2e 9e 3d 35 86 7e 3c
       -0.009052784 -0.20930389 0.077237666 0.015534927
0003e0 3f 1b 1e be 1a ab bb 3d 99 bf ae be c6 2a e7 3d
       -0.15440081 0.091634944 -0.34130552 0.11287455
0003f0 91 05 33 be 32 dc 0d be d5 44 1f be 64 66 79 be
       -0.17482592 -0.13853529 -0.15553601 -0.24355465

weight f4 [256, 512]
000000 da d1 12 3d df 0a 26 bd 9f 5f 9f be d7 c2 26 be
       0.03584466 -0.04053771 -0.3112764 -0.16285263
000010 08 02 3b 3d fc bf 42 bc cd f5 0d be 18 74 a3 3e
       0.045656234 -0.011886593 -0.13863297 0.3192451
000020 d7 f3 1a be 02 d6 a6 bd bd 16 6f 3d 5f 60 6a 3e
       -0.1513208 -0.081462875 0.058371294 0.22888325
000030 fd b9 ce bc ce ea c3 3c 56 bc a0 3e a3 d0 96 3d
       -0.02523517 0.023915675 0.3139369 0.07364013
000040 05 6c b3 be e3 05 05 3d 22 07 07 be fc 7f 87 3d
       -0.3504335 0.032476317 -0.13186315 0.06616208
000050 a1 ef 1b bd 0e 80 4b 3e 68 18 23 bd 14 3d 68 be
       -0.038070325 0.19873068 -0.039818197 -0.2267955
000060 5e 3a 42 bc 70 46 2e be f8 8f c0 bb e4 b7 32 3e
       -0.011854736 -0.17019057 -0.0058765374 0.17452961
000070 61 c3 e6 bd 60 61 7a 3b 80 0e 07 3e 5f cf 55 3e
       -0.11267734 0.0038205013 0.13189125 0.20879887
000080 ef 2c f9 3b 37 d1 b3 3d d7 0b 8f 3e 76 cd 8e 3d
       0.0076042335 0.08780139 0.2793872 0.06972782
000090 54 42 22 3e ba bc 0b 3b 13 3b 46 3d 4d b6 76 be
       0.15845615 0.0021322207 0.04839618 -0.2409298
0000a0 f1 3c 6e 3d 4c ca c9 bc 65 cc da 3d 82 06 b1 3e
       0.058163587 -0.024632595 0.106835164 0.34575278
0000b0 72 48 9e 3d 2f 08 45 be eb e1 08 3c 1f 26 b4 3d
       0.077286616 -0.19241403 0.008354644 0.087963335
0000c0 c0 d4 34 3d a8 73 0e be 5f 31 d7 3d e3 60 52 bc
       0.044148207 -0.13911307 0.10507464 -0.012840482
0000d0 88 21 80 3c b0 5e 9e 3d dc cd 2e 3e 36 0a 81 3d
       0.015640989 0.07732904 0.17070717 0.06300776
0000e0 98 20 12 3e 17 f6 84 be 56 1b 8b be 18 30 8f be
       0.14270246 -0.25969002 -0.27169293 -0.2796638
0000f0 f3 1f 7e 3e 2a 66 2d 3d 31 1a ac 3d 37 56 e0 bd
       0.24816875 0.04233376 0.08403433 -0.10953944
000100 7d 61 24 3d 5d 95 c5 bd 87 2e 12 be eb ea 6d bd
       0.040132035 -0.096476294 -0.14275561 -0.058085363
000110 9d 57 26 bd 75 fb b8 3d 9e d9 9b 3d 1d 58 48 3e
       -0.0406109 0.090323366 0.076098666 0.19564863
000120 8b 58 85 3e 96 eb 41 be b3 81 2c 3c e3 82 b2 bd
       0.26044115 -0.18937525 0.01052897 -0.08716371
000130 63 62 6f 3c 12 d2 c1 bb b7 b8 dd bd e8 12 99 bc
       0.01461086 -0.005914935 -0.10826247 -0.018685773
000140 a1 27 9e bc 3c 6e 40 3d 29 82 51 be f4 27 9a bd
       -0.019306006 0.046980128 -0.20459808 -0.07527152
000150 05 66 1d bd c2 2a 13 3e 9c 3b dc bc 0e 5d 1c bd
       -0.03842737 0.1437178 -0.026883893 -0.03817468
000160 a3 71 2b be 99 95 61 be ab bb ae 3d d5 5d c3 3d
       -0.16742568 -0.22029723 0.085318886 0.095393814
000170 42 4b 14 3d 58 84 61 3d ee c2 d1 3d f6 8b b0 bd
       0.036204584 0.055057853 0.10242258 -0.086204454
000180 c3 00 9c 3d b3 8c 1e bd f0 94 11 3e 71 da 02 3d
       0.07617333 -0.0387084 0.14216971 0.031946603
000190 21 3c d6 3d 10 15 02 3e 5f 19 5c bd 47 1c 30 be
       0.104606874 0.12703347 -0.053735133 -0.17198287
0001a0 45 92 8d bd 72 54 16 bd 64 a3 b6 3d 88 0c dc bd
       -0.06912664 -0.036701627 0.08917883 -0.10744578
0001b0 09 84 87 bc 6b 88 bd 3d 3b be 9d 3d b5 99 29 3d
       -0.016542451 0.09254535 0.07702299 0.041406352
0001c0 3a 85 e3 3d 17 3d 0c be a0 77 3f bb 17 65 d0 3d
       0.11109395 -0.13695179 -0.002921559 0.10175531
0001d0 ea fa 40 be 77 7d a2 3e 27 b8 5e bd 42 db 86 be
       -0.18845716 0.31736347 -0.05437484 -0.26339155
0001e0 33 d5 3d 3d 48 23 bb 3d 1c 50 67 bb e1 6f 57 bd
       0.0463459 0.09137589 -0.0035295552 -0.05259693
0001f0 2e 94 d9 be a8 84 51 3e c6 ee d1 bd 96 cc 77 bd
       -0.42495865 0.2046076 -0.102506205 -0.060497843
000200 f5 11 81 bd a5 f7 cb 3a ab 29 29 bd 66 32 48 bd
       -0.06302253 0.0015561475 -0.041299503 -0.04887619
000210 dd 09 fe 3d 34 ce 1b bc 57 55 98 3e 06 fa 3e 3e
       0.12404225 -0.009509612 0.2975261 0.18650064
000220 b7 b9 a1 3e 3e 42 87 3c 74 22 90 3d 1d b2 2d be
       0.31587002 0.016511079 0.070378214 -0.16962476
000230 9a 27 06 3d e0 62 40 bd f2 70 39 3d 99 50 88 bd
       0.03275261 -0.046969295 0.04527373 -0.06655998
000240 2d d1 a4 3b 34 20 06 3e 5e 85 a6 3d 0a 6a 7f 3d
       0.0050298185 0.13098222 0.081309065 0.062356986
000250 99 02 5e 3d 03 39 29 be fe 21 21 bc ff fa 11 3e
       0.054201696 -0.16525654 -0.0098347645 0.14255904
000260 c1 cf 4b 3e f6 85 45 3e cf 20 6a 3d bd 17 23 bd
       0.1990347 0.19289383 0.057160195 -0.03981756
000270 12 e5 fa 3d 06 2a d9 bd f2 b2 76 3d a9 7b 86 3e
       0.12250723 -0.106037185 0.06022925 0.2626622
000280 16 44 1f 3d 44 d5 78 3d 13 b9 dd 3d ea 32 a2 bd
       0.03888329 0.06075026 0.10826316 -0.07919867
000290 f1 29 18 3d 59 cc 53 be 8d 1b 4e 3e a4 78 b3 3d
       0.037149373 -0.20683421 0.20127697 0.08763245
0002a0 34 31 cf be 33 46 4e 3e b0 d5 3b 3d df 23 ed bb
       -0.40467227 0.20143966 0.045858085 -0.007236942
0002b0 0e 01 16 3d 17 1a 89 3d 62 8d 16 bc d5 16 48 bd
       0.0366221 0.06694429 -0.009188982 -0.0488499
0002c0 97 64 39 be d4 07 a3 3d f0 9b 0b 3e 80 be 5f 3d
       -0.18104778 0.079604775 0.13633704 0.054625034
0002d0 06 40 9d 3c 5f c6 d5 bd 05 4d ba bd 41 3d 87 3d
       0.019195568 -0.10438227 -0.090967216 0.0660348
0002e0 f6 ea 8d 3d 09 45 c8 bd 74 bb 4f bb ee 7f d7 3b
       0.06929581 -0.097787924 -0.0031697424 0.0065765297
0002f0 bf 27 8e be 4a 89 cc be 98 74 be 3d e4 4a 5b 3c
       -0.277647 -0.39948493 0.09299582 0.013384555
000300 cc 1e 89 be 48 d8 f5 bd 11 0a e2 3d 1e 3c 88 3d
       -0.2678131 -0.12004143 0.11037076 0.066520914
000310 b1 4f b6 be 89 5f 9e bd 77 25 80 be e4 08 35 be
       -0.35607675 -0.07733066 -0.25028583 -0.17679173
000320 1a 6f fe 3c b6 9a 74 3c 7d 69 73 be fe 57 8e 3d
       0.031058837 0.014929464 -0.2377071 0.06950377
000330 ea 29 2b bc 18 83 ba 3d fb c0 9f 3c c5 9c 19 3e
       -0.010447005 0.091070354 0.0195012 0.15001209
000340 79 20 d9 3c 53 74 20 3e ef 59 c9 ba f8 70 02 bd
       0.026504742 0.15669374 -0.0015361885 -0.031846017
000350 47 08 eb 3d 5d f4 27 be fd 75 8f 3d 26 2e b2 bd
       0.11476188 -0.16401811 0.07004926 -0.08700208
000360 f9 39 35 3e f9 f5 32 3d fc 73 fd bd 5c a6 d3 bc
       0.17697896 0.04369161 -0.12375638 -0.025836162
000370 6c 99 a3 3d df c4 b0 bd 2e 0c a9 bc cb 06 48 3d
       0.07988247 -0.086313 -0.02063569 0.048834603
000380 51 3b d7 3e 39 7c 26 3c 46 36 57 be f4 e0 89 bd
       0.42037442 0.010161453 -0.21016797 -0.067323595
000390 bc be 00 bd fc af 53 3d 0d f6 6d bc 24 d4 1b be
       -0.0314319 0.051681504 -0.014523995 -0.15217644
0003a0 f8 24 60 bd c5 55 ef bd 09 7b 13 3e 52 a2 98 3c
       -0.054722756 -0.11686281 0.14402403 0.018632088
0003b0 fc b3 99 3c 13 3e af ba b9 89 20 be 9f 50 b1 3d
       0.018762581 -0.001336994 -0.15677537 0.086579554
0003c0 0c 40 25 3e f6 9b d2 3d d5 3d 8a bd 16 3b f7 3d
       0.16137713 0.102836534 -0.06750075 0.120718166
0003d0 5f e3 e8 bd 93 60 0e 3e 88 4b 10 be 89 c4 0f be
       -0.113714926 0.13904028 -0.14091313 -0.14039816
0003e0 ff 27 3b 3c 1b d9 1c 3c ff 41 84 3e cc b2 17 be
       0.01142311 0.009573246 0.258316 -0.148143
0003f0 a7 91 ed bd ec e5 cc 3d 68 09 ab 3e 3c a3 29 3e
       -0.116000466 0.100047916 0.33405614 0.16566175

bias f4 [256]
000000 15 f3 a0 bd 59 f2 96 bd 05 12 4f be a5 b7 92 be
       -0.07858864 -0.07370443 -0.20221718 -0.28655735
000010 43 96 66 bc dc 6b 7c be 79 b3 7a be e6 ff aa be
       -0.014073911 -0.2465052 -0.24482526 -0.3339836
000020 cd 36 14 be dc 09 f3 be e7 8b f5 be 62 47 51 be
       -0.1447403 -0.4746846 -0.479583 -0.20437387
000030 90 cc ad be 38 1b 2a bf f8 13 b0 3d 28 e3 1b be
       -0.3394513 -0.6644778 0.08597559 -0.15223372
000040 b2 fc 32 be d2 b2 50 bd e3 1e 0d be 93 0e 12 bf
       -0.17479208 -0.050951786 -0.13781314 -0.5705349
000050 d7 96 33 bd 5d 9a 72 3e 6b bd 6a be 6e 85 03 3e
       -0.043845024 0.23691697 -0.2292382 0.12843868
000060 27 bc b1 be e9 88 3c be 5d 90 b4 be 71 ce db bd
       -0.3471386 -0.18411602 -0.3526639 -0.10732735
000070 1f 4f c9 be b5 fe 4d be d8 ab 88 bd c8 46 e3 3d
       -0.39318177 -0.20116694 -0.066734016 0.11097485
000080 5f 6a e6 be c2 49 3a bf ac 2e f7 bd 02 24 cb bd
       -0.4500303 -0.72768795 -0.12069449 -0.09918977
000090 d3 6f 99 be 50 8d 29 be 4a 1c bc be 69 4c fd bd
       -0.29968128 -0.16557813 -0.36740333 -0.1236809
0000a0 6a 62 c5 be a1 25 3d be ff 9e 03 bf e8 d3 bf bc
       -0.38551646 -0.18471386 -0.51414484 -0.023416474
0000b0 0c 3a 0b bf 6d e0 92 be e6 1d 39 be 74 5c 42 bd
       -0.5438545 -0.28686848 -0.18077812 -0.04745145
0000c0 05 98 1f be 16 db 3f be 5d 85 ba be 46 7e aa be
       -0.15585335 -0.18735918 -0.36429873 -0.33299464
0000d0 ca dc 43 bd 0b a1 7b be 64 4e da be aa fc 3c 3e
       -0.047817983 -0.24573152 -0.42637932 0.18455759
0000e0 24 7e 3f be 72 01 03 bd ec b2 c4 3b c2 57 24 be
       -0.18700463 -0.0319838 0.0060027745 -0.16049102
0000f0 ed 88 69 be 99 68 00 be de 8a 6e be bd 14 31 3e
       -0.2280614 -0.12539901 -0.23295161 0.17293067
000100 82 6c 17 be 86 ae b5 be 46 2f 32 be e9 8f e7 be
       -0.14787486 -0.35484713 -0.17400846 -0.45226982
000110 bd a6 9b bd 30 21 87 3c cf ae 09 bf 9c 54 c9 bd
       -0.07600162 0.016495317 -0.5378236 -0.09830591
000120 88 ae c2 bb 10 41 88 be a2 0e 89 be 46 ee 25 3d
       -0.005941216 -0.2661214 -0.26768976 0.04051044
000130 b3 55 69 be 0b 7c ef be 59 f5 64 be ea f6 9a be
       -0.22786598 -0.46774325 -0.22359218 -0.30266505
000140 3f e5 02 3e 64 95 1b bf 6d 46 b3 be 13 54 7f be
       0.12782763 -0.60774827 -0.35014668 -0.24934416
000150 d1 04 43 be d5 e4 62 be 60 59 86 3c 9e ea 2f 3e
       -0.19044806 -0.22157605 0.01640004 0.17179343
000160 be d8 b9 be 95 98 77 be 2a 08 b3 bb 4d b3 90 be
       -0.36298174 -0.24179299 -0.0054636197 -0.28261796
000170 99 83 e1 bd f0 60 db bd b2 21 91 be 2b bc 68 be
       -0.110114284 -0.10711849 -0.2834602 -0.2272803
000180 7d 4a 72 be 30 17 b5 bc c7 27 88 bd 57 2b a5 be
       -0.23661228 -0.022105783 -0.06648212 -0.32259628
000190 a1 e4 08 bf 2f fc b2 be b9 c8 14 be 4c 83 b1 be
       -0.5347386 -0.34958026 -0.14529695 -0.34670484
0001a0 8b 5c 86 be a9 76 08 3e 84 10 ba 3c a3 55 d1 be
       -0.2624248 0.13326515 0.022712953 -0.40885648
0001b0 40 bd 7c bd 98 e9 a8 be b0 cf 6f be 3a 61 db bc
       -0.06170392 -0.32990718 -0.2341907 -0.02677976
0001c0 fd eb d9 be e3 a7 84 be dd 58 74 be 45 8c 51 be
       -0.42562857 -0.25909337 -0.23862024 -0.20463665
0001d0 26 3f 84 be 03 5b a3 be 81 fa 20 be f0 47 6b be
       -0.25829428 -0.31905374 -0.1572056 -0.2297666
0001e0 09 53 21 be 32 b1 b7 be 42 05 99 bd c0 c0 dd be
       -0.15754332 -0.35877377 -0.07471706 -0.4331112
0001f0 57 73 83 be e6 8e 43 bd 26 ae 4f bf 92 dc 4f be
       -0.25673935 -0.0477437 -0.81125104 -0.20298985
000200 4a ad 17 bf 7c 76 9f be f3 33 70 bc 38 4e 66 be
       -0.59248793 -0.31145084 -0.014660823 -0.22490776
000210 5f a8 3e be 36 38 2b 3e 99 3a 6a be 92 eb 9b be
       -0.18618916 0.16720662 -0.22873916 -0.30453163
000220 68 d2 81 be 7b 09 7c be ba 99 3f be 62 82 b3 be
       -0.2535584 -0.24612992 -0.18710986 -0.35060412
000230 dd de d2 be 0d 21 99 be c5 ed a2 be 87 06 5f bd
       -0.41185656 -0.29908028 -0.3182203 -0.054449584
000240 38 b5 4c be d0 b1 0f be 09 6f c4 be ae 77 ca be
       -0.19991004 -0.14032674 -0.38365963 -0.39544433
000250 fa 1f 78 be c0 b0 50 be 06 e8 52 3d 16 f3 5c be
       -0.24230948 -0.20379925 0.051490806 -0.21577105
000260 45 51 4f bf 6d 45 01 be a2 23 8e be 58 34 af bd
       -0.8098338 -0.1262414 -0.2776156 -0.08554906
000270 f4 f3 34 3e 5d b6 87 be f1 53 d4 be 53 aa 4f 3d
       0.17671186 -0.2650632 -0.41470292 0.050699543
000280 72 4d 63 be 85 58 84 be cb ff 99 bc 60 97 77 be
       -0.22197512 -0.25848785 -0.01879873 -0.24178839
000290 53 86 0a bf 22 d6 a6 be 4b 39 7e be c2 59 a6 be
       -0.5411121 -0.32585245 -0.24826543 -0.32490355
0002a0 73 b6 a0 be ab 32 5e be 2b 67 8e be 6b 61 71 be
       -0.31389198 -0.21699016 -0.27813086 -0.23572318
0002b0 ba a2 ad be e0 57 4e 3e fc 59 fa bd be 0d 8b be
       -0.33913213 0.20150709 -0.122241944 -0.27158922
0002c0 fa 37 96 be 63 89 e2 bc 06 1c c7 3d ce 05 b1 be
       -0.29339582 -0.027653402 0.09722142 -0.3457474
0002d0 e4 6e d0 be a5 0e ad bd 39 2b c6 bd 8e 8c 27 be
       -0.40709603 -0.08450059 -0.09676213 -0.16362211
0002e0 48 fa 61 3e e7 94 b9 bd 2c 6d 23 be 35 b5 b1 be
       0.22068131 -0.09061604 -0.15959615 -0.34708562
0002f0 b9 0a 77 be 1b 74 90 be df fe 44 bf 93 0d 98 be
       -0.24125184 -0.2821358 -0.769514 -0.29697856
000300 56 7c 6a be 71 9e 80 be a1 4b 1e be 64 c9 78 be
       -0.22898993 -0.2512088 -0.15458538 -0.24295574
000310 e8 03 b8 bd 37 72 fe bd 52 ef 85 be 84 7d 7a be
       -0.0898512 -0.124241285 -0.2615915 -0.24461943
000320 f8 5c 92 3e 67 6c 4a be fa 18 58 be 5d 3d 9c be
       0.28586555 -0.19767915 -0.21103278 -0.30515566
000330 51 1e 86 be 80 48 a4 be 98 5f dd 3d d7 ed fd be
       -0.26195005 -0.32086563 0.10809249 -0.4959552
000340 70 f3 09 3d 02 79 76 bc e1 5f bf be 3d 49 33 bd
       0.033679426 -0.015043499 -0.37377837 -0.043771017
000350 79 a7 e0 bd 64 ab a5 be 53 b5 90 be c7 96 45 be
       -0.10969443 -0.32357323 -0.2826334 -0.19295798
000360 74 59 80 be c7 5f 40 be 5a ef 00 bf a4 c7 d1 be
       -0.25068247 -0.18786536 -0.5036522 -0.40972626
000370 4d 81 2c be 31 8a f1 bc e9 94 0b bf ee 8b 98 be
       -0.168462 -0.02948484 -0.54524094 -0.29794258
000380 c6 04 74 be e9 bf c2 be 96 4c 07 be e0 5b 8f bc
       -0.23829946 -0.3803704 -0.13212809 -0.017499864
000390 e7 80 38 be bf fa 01 bf cc 8c 5e be 06 94 63 bd
       -0.18017922 -0.50773233 -0.21733397 -0.055561088
0003a0 d8 c0 2b be 40 4f c8 be 47 48 75 be a0 5f 18 be
       -0.16772783 -0.39122963 -0.23953353 -0.14880228
0003b0 21 5a 38 bd 9b a3 3b 3c 3f de 88 be c8 15 88 be
       -0.04500783 0.011452581 -0.2673206 -0.26579118
0003c0 16 fa b4 be db 64 80 be c1 57 83 be 6e 4b 8a be
       -0.3534705 -0.25076947 -0.25652888 -0.27010673
0003d0 cc da 26 be a8 24 d3 be 60 ef bb be d5 22 ee bc
       -0.16294402 -0.41238904 -0.36706066 -0.029069344
0003e0 c4 56 65 be 61 e4 89 be cf b5 36 3d 45 9f d5 be
       -0.2239638 -0.26932052 0.04460698 -0.41723076
0003f0 fb 78 f2 bd 05 23 a4 be e2 79 ac be 17 e1 49 bd
       -0.118394814 -0.32057968 -0.3368674 -0.049286928

weight f4 [128, 256]
000000 51 a8 35 be 78 b4 3a be 8c 9e 0c 3e 02 b4 21 be
       -0.17739989 -0.18232906 0.13732356 -0.15791324
000010 c0 20 da bc 9e 0d 89 3c e5 df 0e bc 16 71 17 3d
       -0.026626945 0.016730126 -0.008720373 0.03697308
000020 c8 0b 54 3d c9 8e 50 3e a2 ad fc bd 9b f0 c1 3e
       0.051769048 0.20366968 -0.12337805 0.3787888
000030 66 04 69 3e e3 92 fb be 27 1e 0d bd f8 1a 67 bd
       0.22755584 -0.49135503 -0.034452584 -0.056422204
000040 6a b6 57 3d a5 7e ad 3d 16 e4 00 3e 9c 02 73 3e
       0.052664198 0.08471421 0.12587008 0.23731464
000050 5f 5f 66 be 12 f4 50 3d 7f 43 c1 3e 52 4a f5 bd
       -0.22497319 0.051014014 0.37746808 -0.11977066
000060 07 5d 29 3d bd 5e da 3d 9f 47 0d 3e be 63 59 be
       0.041348483 0.10662601 0.13796853 -0.21229455
000070 45 72 fc bd 3e 4f 9d bc 13 5a 7a 3e a7 38 95 3d
       -0.12326483 -0.019202825 0.24448423 0.07286196
000080 22 ae 9c 3d 72 a0 e3 3d f9 2c ad be 5b 1a 2d be
       0.07650401 0.11114587 -0.33823374 -0.16904585
000090 93 ad 33 3e 8a 96 d6 3d 5f 05 d3 3d 6d 94 01 be
       0.17546682 0.10477932 0.10303759 -0.12654276
0000a0 6c 1e 9c bd 89 c6 55 bd 00 e3 de 3e 7e 09 20 bb
       -0.0762299 -0.05219129 0.43532562 -0.002441972
0000b0 9c 32 27 3e fa 67 f6 bd 48 f5 18 3e 14 97 6e bd
       0.163279 -0.12031551 0.14937317 -0.058249548
0000c0 f6 8f 70 3d 32 f8 0c 3e a9 0b 79 3a f3 4a e0 bb
       0.05873104 0.13766554 0.00095003337 -0.006844872
0000d0 dc 68 c1 be 80 68 87 be 40 ae 42 3e 9c 95 42 bd
       -0.37775314 -0.26446915 0.19011784 -0.04750596
0000e0 ed b4 51 bd 55 94 5a be 90 34 1e 3d cf 5b 32 3e
       -0.051197935 -0.21345647 0.038624346 0.17417835
0000f0 08 ed 04 3e 14 46 2f 3e 18 5d 07 3d ea 01 17 be
       0.12981045 0.17116576 0.033047765 -0.14746824
000100 39 45 b9 bd 45 b8 88 3d 0b 10 cb bd 2b e5 a3 be
       -0.09046406 0.066757716 -0.09915169 -0.3201078
000110 5d 2e 4c bd 5f 35 50 bc 79 68 ef bd 7e 0c b0 bd
       -0.049848903 -0.012708037 -0.116898485 -0.08596133
000120 ff 4e a5 3d ca be 30 3e 4a 1e d6 bc 47 9c 46 3d
       0.08071708 0.1726028 -0.02613749 0.04848888
000130 ca 7b 1e 3d 33 84 37 be 30 e6 f0 bd 6e bb fc 3d
       0.038692273 -0.17921524 -0.11762655 0.12340437
000140 31 88 09 bd 00 d3 98 3e 29 3e 39 3e db e5 d3 bd
       -0.033577148 0.2984848 0.18090118 -0.10346576
000150 1a 5a 9c bc 97 1f 0b 3e d6 ed ba 3d 7d fa 16 be
       -0.019085933 0.1358627 0.09127395 -0.14743991
000160 24 5f 0d bc f2 72 34 3c af 42 75 be 41 06 3f 3e
       -0.00862864 0.011013733 -0.23951219 0.1865473
000170 04 80 a2 bd 54 b9 e9 3c 3d 51 99 bc 1c 18 23 bd
       -0.07934573 0.028530754 -0.018715495 -0.039817914
000180 c8 57 b4 3e 26 93 09 3c b9 7f 26 be 1b d6 aa 3d
       0.35223222 0.008396899 -0.1625966 0.083416186
000190 d4 9e 9f 3d 5b ac d2 3d f2 62 be 3e 61 44 92 be
       0.07793966 0.102867804 0.37184864 -0.28567794
0001a0 5c 10 8c 3d 62 9d eb bd c9 a0 56 bd ca e1 92 3d
       0.06839058 -0.11504628 -0.05239943 0.07171972
0001b0 12 0b d4 3e fc 30 dd 3c 75 7a 5a bc 52 ff 88 be
       0.41414696 0.027000897 -0.01333486 -0.26757294
0001c0 0b ea a6 bd 0e 11 c2 bd 45 47 3f 3e fe 97 8c bc
       -0.08150109 -0.09475909 0.18679531 -0.01716232
0001d0 d0 ad 1f bd 22 1a ab 3e 93 71 d4 3b 42 da 81 bd
       -0.03898412 0.33418375 0.0064832657 -0.063404575
0001e0 3c de 21 3e b7 6c d7 bc 6d 24 ff 3c 82 05 94 bd
       0.15807432 -0.026296956 0.031145299 -0.07227613
0001f0 74 af c6 bd 7f fa e2 be 83 b7 21 3e 4f da 47 be
       -0.09701434 -0.44331738 0.1579266 -0.19516872
000200 c6 be 8e 3e ad 8a 4f 3e 70 75 4a bd 1d 2d 4a be
       0.27879924 0.20267744 -0.049428403 -0.19743772
000210 e6 00 26 bd 24 ff 06 be 6d 6d 9b be a9 b3 cc bd
       -0.0405282 -0.13183266 -0.30356923 -0.09995205
000220 d2 a7 b7 39 a9 9f 85 3e 14 82 d0 be 47 ea 14 3e
       0.00035029516 0.26098374 -0.40724242 0.14542495
000230 ac 94 ad 3a b3 f4 32 3e 3c c1 c5 3b 15 78 a4 bd
       0.001324316 0.17476158 0.006034998 -0.08030716
000240 3e 21 91 3e b7 d5 82 bd a7 04 21 be aa 36 ea 3d
       0.28345674 -0.06388419 -0.15724431 0.114362076
000250 f0 4b a8 be 15 c7 82 3c 0b 6e 7e 3e 79 3b 6d 3c
       -0.32870436 0.01596407 0.24846666 0.014479511
000260 6f e1 1c 3d 40 e0 40 be 54 9f 62 3e 2f 56 16 3d
       0.038300928 -0.18835545 0.22131091 0.036703285
000270 43 e6 b7 bd 1f 10 dc 3d bd 50 8e be 85 69 0f bd
       -0.08979466 0.10745262 -0.27795973 -0.03501274
000280 1a 47 a7 bd 0f 93 c9 bb 15 2b c1 3b fc 47 1e be
       -0.081678584 -0.006151564 0.0058950284 -0.15457147
000290 21 10 39 3e d0 9b 1d be ea 6f 76 3e 4b 3f aa 3d
       0.18072559 -0.15391469 0.2406613 0.083128534
0002a0 8c bf ff 3d 3c 36 1a 3e 82 d4 c4 bd 05 db a4 3e
       0.124877065 0.15059751 -0.09610845 0.3219835
0002b0 49 69 c4 bd 90 97 0a be 56 01 91 3e 27 bf b3 be
       -0.09590394 -0.13534379 0.28321332 -0.35106775
0002c0 bd 21 8e 3d 9f 21 09 be 03 40 60 3d 8a 09 34 3e
       0.06940029 -0.13391732 0.054748546 0.17581764
0002d0 51 f4 1d bc 25 f8 f5 bd 37 42 5e 3c 10 0e a7 3e
       -0.009640769 -0.120102204 0.013565592 0.32627916
0002e0 e3 dc 8a be da 0c 65 3e 74 79 51 3d c1 f0 c6 bd
       -0.27121648 0.22368184 0.051141217 -0.09713889
0002f0 bf d4 e5 bd 89 7b 96 3d 8e 3c 48 be db c0 93 3e
       -0.11222219 0.07347781 -0.1955435 0.28858075
000300 28 87 42 3e 36 47 5f be a3 5e ba be 64 c6 a7 3d
       0.1899687 -0.21804509 -0.36400327 0.08192137
000310 4f 8e b4 bc 41 ad 26 be fd a2 1c 3e b4 b1 28 3e
       -0.022040514 -0.16277029 0.1529655 0.16474038
000320 6e 2e 3c 3d 55 6d 73 3e 2a 4d d0 be 46 82 01 3e
       0.045942716 0.23772176 -0.40683872 0.12647352
000330 25 64 01 bd b6 76 e8 3d 3b 04 10 bb 19 db 28 3d
       -0.031589646 0.11350767 -0.0021975178 0.041224573
000340 77 e7 81 3d 7f 0b f7 3d bd 81 e1 bd 0e 58 0c be
       0.063429765 0.120627396 -0.11011074 -0.13705465
000350 0a c6 27 3e a8 5b 4a 3e b8 59 0b be 37 73 10 bd
       0.1638414 0.19761527 -0.13608444 -0.035266127
000360 e0 4a 3f 3e eb 79 a0 3c ae 7a ee bd c8 3c 95 bd
       0.18680906 0.019589385 -0.11644493 -0.07286984
000370 f1 e0 84 be 90 3f 02 3e 0d 71 d7 bd 70 56 21 bd
       -0.25952867 0.1271956 -0.105196096 -0.039389074
000380 04 75 40 3c 59 31 5e be 33 2c 06 be 40 e5 5c 3d
       0.011746649 -0.21698512 -0.13102798 0.053929567
000390 fd a0 a2 3d c6 a4 0f 3e f1 ac d9 3c e6 8f 35 be
       0.07940862 0.140277 0.026571723 -0.17730674
0003a0 2f 19 95 3e a2 7d 9a be 64 4a 8e bd a1 82 57 be
       0.29120776 -0.30173975 -0.06947783 -0.21045925
0003b0 d0 7a b0 3b ff 58 92 bd c3 ae 43 3b 75 56 07 3d
       0.005385734 -0.07145881 0.0029858805 0.033041436
0003c0 ad 60 08 3e 95 93 3e be 0b 68 ce be 4f cc 20 be
       0.13318129 -0.18610986 -0.40313753 -0.15702938
0003d0 f6 a3 99 3d d5 85 3c bd 96 f9 35 bc fc 6b 25 3e
       0.07501976 -0.04602607 -0.011106869 0.16154474
0003e0 3f 7c 0a 3e ca b7 8d be 58 f7 b9 bd ca 87 71 3e
       0.13523959 -0.27679282 -0.0908038 0.23586956
0003f0 15 29 cd 3c 95 9c 44 bc 68 01 c6 3d ad 71 06 bd
       0.025044004 -0.012000223 0.09668237 -0.032823253

bias f4 [128]
000000 7e 76 35 be 36 2e 17 be 00 c4 ca bd 43 71 31 be
       -0.17720982 -0.14763722 -0.09900665 -0.17328362
000010 5a 40 50 bd 9f a1 e3 bd f6 ae 43 be c5 a1 3b bd
       -0.05084262 -0.11114811 -0.19109711 -0.045808572
000020 cc c9 8d bc 74 04 67 be 3e 59 3d be ae ac 9d be
       -0.017308138 -0.22560292 -0.18491074 -0.30795807
000030 48 45 14 bf c0 11 9b be 80 16 4e be 46 02 43 be
       -0.57918215 -0.3028698 -0.2012577 -0.19043836
000040 a7 2e 23 be a5 5e ce bd 3a 64 0b bf c5 76 21 be
       -0.15935765 -0.10076646 -0.5444981 -0.15767963
000050 cb 42 ce bc 0b 66 ac be 53 c7 a9 bc ec ba be be
       -0.025178334 -0.33671603 -0.020724928 -0.37251985
000060 ec 9f af bd 7d e0 eb be 98 3c a0 be 0c 4a a7 be
       -0.085754246 -0.46069708 -0.3129623 -0.3267368
000070 cc fe c2 be 05 d9 81 be bb 8a 0b be 3a d3 38 bd
       -0.3808502 -0.25360885 -0.1362714 -0.045123316
000080 c7 91 41 bc e4 b0 4f be c7 c3 d1 be 58 86 0a be
       -0.011814541 -0.20282322 -0.4096968 -0.1352781
000090 0b c4 50 be 4b 34 43 be f6 a9 39 be e9 9b 90 be
       -0.20387284 -0.19062917 -0.18131241 -0.2824395
0000a0 fc 35 a0 be f7 f7 e1 be a1 9f 31 be 37 71 96 bd
       -0.31291187 -0.44134495 -0.1734605 -0.07345813
0000b0 95 d5 19 bf 63 6f be be 9e 94 f2 be cd 4f cd bd
       -0.60091525 -0.37194356 -0.4737901 -0.100249864
0000c0 df be bc bd 84 2f e1 bc f1 68 2c be 06 87 a2 be
       -0.09216093 -0.027488478 -0.16836907 -0.3174364
0000d0 df 79 74 be c0 58 16 be 42 62 ef bd 8e e0 ac bd
       -0.23874615 -0.14682293 -0.11688663 -0.08441268
0000e0 65 ac 08 bf 7b 24 5e bd 97 57 e5 bc 77 c6 46 be
       -0.53388053 -0.05423401 -0.027995868 -0.19411646
0000f0 17 4a 76 be 45 d0 a2 3d 68 85 64 be 8d 32 42 be
       -0.240517 0.079498805 -0.22316515 -0.18964596
000100 fb d0 64 be 1d c8 0c bf a4 4d 86 be 05 0e 99 be
       -0.22345345 -0.5499285 -0.2623111 -0.2989351
000110 fd 9e df be bb d4 1e be 06 84 aa be 6b 34 dc be
       -0.43675986 -0.15510838 -0.3330385 -0.43008742
000120 ff 32 d3 bd 7e 32 88 be 8c 79 75 be e8 2d 01 be
       -0.10312461 -0.26601022 -0.23972148 -0.12615168
000130 9e f3 4b be 08 36 ea be 81 03 4c be 9e 81 e3 be
       -0.19917151 -0.45744348 -0.19923212 -0.44434828
000140 ec 4c 5e be 95 dd 11 be d1 33 e2 bd d9 34 08 be
       -0.21709031 -0.14244683 -0.110450394 -0.1330141
000150 fb 77 c7 be 92 16 8d be f4 1b 01 bf 35 e6 36 bd
       -0.38958725 -0.27556282 -0.5043328 -0.044653136
000160 c8 9f 0b bf 92 91 e8 bd ae 76 79 be fb b3 eb be
       -0.5454068 -0.1135589 -0.24361679 -0.46035752
000170 3b c1 72 bd 54 91 81 be 69 19 01 3c fc 01 1b be
       -0.05926631 -0.2530619 0.007879593 -0.15137476
000180 cb f1 67 be f9 5a 42 be 0c 64 63 be 6c 94 a7 be
       -0.2265083 -0.18980016 -0.22206134 -0.32730424
000190 be af db bd 27 71 d8 bd fb 89 c5 be e9 f3 68 be
       -0.107268795 -0.10568457 -0.38581833 -0.22749294
0001a0 0a 2b b2 be 15 4f e9 be 89 4a cd 3c 44 e4 a8 be
       -0.3479846 -0.45568147 0.025059955 -0.32986653
0001b0 fe 68 53 be 5f 24 7d be f9 6a 05 bf 99 ab 1c be
       -0.2064552 -0.24720906 -0.5211635 -0.15299834
0001c0 71 de 06 be 9e 96 db be 36 18 9a be cb 71 dc be
       -0.13170792 -0.4288835 -0.30096596 -0.43055567
0001d0 5f 52 8c be 95 cd af be 84 d9 ed bd 4d e3 f3 be
       -0.27406594 -0.34336534 -0.116137534 -0.47634354
0001e0 7e 40 87 be 50 e9 82 be 92 37 9a be e6 98 14 be
       -0.2641639 -0.25568628 -0.30120522 -0.14511451
0001f0 11 a9 04 bd 25 b0 63 be 2f a1 4a bd 35 30 ea be
       -0.032387797 -0.22235163 -0.049470123 -0.45739904

weight f4 [16, 128]
000000 d6 4d a8 bd 10 ce 54 bc 60 ec 5a 3d 71 75 13 3c
       -0.08217971 -0.012988582 0.05344808 0.009000168
000010 0a 5f ae bc 81 a2 9c bc 5e 04 1c bd b8 f8 70 bd
       -0.021285553 -0.019120457 -0.038090102 -0.058830947
000020 82 af c8 bc 78 90 b9 3d 38 74 fa 3c d5 b2 96 bd
       -0.024497751 0.09060758 0.030572996 -0.07358328
000030 a0 3a a8 3c 26 a3 50 bd 99 d6 44 bc 53 1b 16 3e
       0.020535767 -0.05093684 -0.012014055 0.14658861
000040 89 ad d9 3c 79 8e 91 bd cf ba 51 bd 03 a8 2c bd
       0.026572006 -0.07107253 -0.051203545 -0.042152416
000050 16 16 b8 3c 01 31 df 3d ee 16 b1 3d ac d9 9b 3c
       0.022471469 0.10898019 0.086469516 0.019024692
000060 e4 72 f8 3c 6a de 86 3c c5 88 85 3c 1a dc 81 bd
       0.030328222 0.016463477 0.016300568 -0.06340809
000070 2b 5a 4e 3b 0d 9e 1d 3c 91 65 58 bd 82 49 3c 3c
       0.003148685 0.009620202 -0.052831236 0.011492135
000080 80 dd 06 3d fb 12 e0 3c 19 95 2d 3d 2a 07 8c bc
       0.032926083 0.0273528 0.04237852 -0.01709326
000090 65 d3 ba 3d af f8 4a bd 1b 45 f2 3d 19 b5 08 be
       0.091223516 -0.04955357 0.11829587 -0.13350333
0000a0 c8 5d aa bb 7a 82 4e bd 8b c8 d1 3d 3c 3b 1c bb
       -0.005199168 -0.0504174 0.10243329 -0.0023839017
0000b0 6a 98 ca bd 38 b5 90 3c 64 fd 43 3b 59 9c 20 be
       -0.09892352 0.017664537 0.0029905671 -0.15684642
0000c0 87 b6 84 3d 59 b7 95 bd 39 36 b4 bd 68 a1 35 3b
       0.06480127 -0.073103614 -0.08799405 0.0027714614
0000d0 48 d0 41 3c 9e 7c b2 3d f5 c1 56 3c e8 91 89 bd
       0.011829443 0.08715175 0.013107766 -0.067172825
0000e0 b9 d8 22 3e e4 18 9a bc e4 0b 01 bc dd e5 50 3d
       0.15902986 -0.018810697 -0.00787637 0.051000465
0000f0 cd cb 9d 3c f9 75 18 bd 9f 30 c0 3c 99 af 35 bd
       0.019262219 -0.037221882 0.023460684 -0.044356916
000100 3e ee ec 3d 2f 33 99 3d d8 55 7f bd 50 ee ce bd
       0.115688786 0.074804656 -0.062337726 -0.10104048
000110 73 a1 90 bd fc e6 0a 3d f2 3c 09 bd 45 4d c9 bd
       -0.07062044 0.03391169 -0.033505388 -0.09829191
000120 69 f2 e8 39 24 cd a2 bd 2e 61 07 bd 36 e4 09 3c
       0.00044431098 -0.07949284 -0.033051662 0.008416226
000130 57 ad ef 3c 25 62 29 3c fa bb 22 bd d5 6d 1c be
       0.02925746 0.010338341 -0.03973005 -0.15276273
000140 17 31 ab bc ec a3 7d bb 9e 0e 60 3d d2 41 52 3d
       -0.020897431 -0.0038702441 0.05470144 0.051332302
000150 be 48 3f 3d 7d d7 67 3c 7c bb 23 3d 9f e6 0f bd
       0.04670023 0.0141504975 0.03997372 -0.035132047
000160 3f 8d 65 bc 4d 71 49 3c ea d1 bf 3c cc 87 e6 bc
       -0.0140107265 0.012295079 0.023415525 -0.028140925
000170 a3 63 ac 3c 19 89 85 bd 66 99 d8 3d d7 38 23 bc
       0.021043604 -0.0652029 0.105761334 -0.009962282
000180 39 fb 75 bc 18 b0 1b bc 06 54 6a bd cd e2 67 bd
       -0.015013509 -0.009502433 -0.057209037 -0.05661278
000190 af 8a 34 3c ff f2 09 3d e0 79 91 bd 16 51 c3 bc
       0.011019393 0.033679005 -0.07103324 -0.023842376
0001a0 e2 95 40 3d 33 f4 0a 3d cd 57 19 bd c5 e5 b6 3b
       0.04701794 0.033924293 -0.03743725 0.00558159
0001b0 19 40 22 3d c8 11 1e be 40 7a 92 3d 23 36 7b bd
       0.03961191 -0.1543647 0.071522236 -0.061330926
0001c0 85 31 39 bd c4 b7 84 bd ad 16 89 3c 97 dd 92 bd
       -0.04521324 -0.06480363 0.016734445 -0.07171171
0001d0 8b 49 88 bd 41 af 15 be 2f 14 82 bd 13 4f 5e bc
       -0.06654652 -0.14617635 -0.06351506 -0.013568657
0001e0 d2 d4 71 3c 35 10 22 bc 1c cc 0f 3d a8 5a 86 3c
       0.014760213 -0.009891559 0.035106763 0.01640065
0001f0 2a 74 52 3d e4 b1 ab 3d 1c 51 50 3c a9 4a cb bd
       0.051380314 0.08383539 0.0127146505 -0.0992635
000200 03 28 bb bd 83 83 36 3d 4c 05 e2 3c 1f e2 f1 3b
       -0.09138491 0.044559013 0.027590416 0.007381692
000210 bc 57 41 3d 0e 4d 0d 3d 0b ac 25 be eb e4 c7 3d
       0.04720281 0.034497313 -0.1617891 0.097604595
000220 f9 53 26 bb 2b bc 66 bc 8e a8 a6 bc 35 c8 7a 3c
       -0.0025379641 -0.014082949 -0.020344045 0.015306522
000230 cc b5 a8 bc 89 c3 83 bc 50 9c 27 bd 60 cf e2 bb
       -0.0205945 -0.01608445 -0.040920556 -0.0069216937
000240 e0 88 99 3c b3 83 0a 3c 89 eb 89 3d f1 b9 fb 3c
       0.018742025 0.008454251 0.06734378 0.030728312
000250 88 59 43 3b b6 03 2b 3e ba 32 40 bd 06 f3 1f be
       0.0029808003 0.16700634 -0.046923377 -0.1562005
000260 8e 51 38 3c 4a f3 4e bd 0e 25 22 bd 38 9e 34 bc
       0.011249913 -0.050524987 -0.03958612 -0.01102405
000270 1b 13 79 3c e6 43 25 3d 50 aa 21 3a 2c 04 2c 3c
       0.015202309 0.040347956 0.0006167041 0.0104990415
000280 8f f1 aa bc 92 37 78 3c 67 9d 1c 3d 33 01 cc bc
       -0.020867137 0.015149968 0.038236048 -0.024902916
000290 73 b9 63 bc 40 6f ab 3c bc 12 e0 3b 66 e0 48 bc
       -0.013899195 0.020927072 0.006838171 -0.012260532
0002a0 25 c4 1e 3d 9a a2 ec ba 9f a1 34 bc 94 d5 bf 3d
       0.038761277 -0.001805383 -0.011024862 0.09366909
0002b0 6c 33 c6 bc 90 50 d4 bd a1 08 db bd e0 ed a1 3c
       -0.024194442 -0.103669286 -0.10695005 0.019766748
0002c0 46 75 ef 3c 29 4b 11 bd c0 46 1e bc 0b bd 93 bc
       0.029230725 -0.03547207 -0.009660423 -0.018034479
0002d0 a2 e8 2c 3c 8c a7 60 bc 0d 3a 63 3c 3f 66 31 bc
       0.010553511 -0.013711821 0.013868821 -0.0108276
0002e0 11 9b 07 3d e1 54 b8 bd 7a 47 f4 bc 60 ab 33 bc
       0.033106867 -0.09000564 -0.029819239 -0.010966152
0002f0 b1 62 80 bd b0 08 94 bc 32 6c a2 bc b7 a8 86 3d
       -0.06268824 -0.018070549 -0.019826982 0.065751486
000300 68 c6 4e bb 2d 0f ad bd a6 36 fe 3d d4 4c a7 bc
       -0.0031551365 -0.0845016 0.12412767 -0.020422377
000310 ad f3 b6 bd 91 30 61 3c d8 a6 03 ba 5c 31 c7 3d
       -0.08933196 0.013744489 -0.0005022115 0.097262114
000320 00 cb 82 bc 32 f1 0c bc 44 1d 04 be 99 ca b5 3a
       -0.015965939 -0.008602427 -0.12901789 0.0013869583
000330 b3 d5 3c bd 3d 2a 15 3e c7 8c ff 3c 38 a6 5f 3d
       -0.046102237 0.14566894 0.031195058 0.054601878
000340 76 01 94 3b f6 d4 2e 3d 8f d1 b8 3c 22 19 35 bc
       0.0045167757 0.042683564 0.022560863 -0.011053355
000350 15 2b 09 be bf 84 ef bb 82 25 b5 bb f7 7d 80 3c
       -0.1339534 -0.0073095257 -0.005528153 0.015685065
000360 c2 ba 50 3d 6b 74 e4 3c 9a 6b c1 3b ef ac b9 3c
       0.050959356 0.027887544 0.0059027197 0.022665469
000370 f1 18 2d bd 9d 47 bb ba dd b4 05 3b 59 2b 66 bd
       -0.042260114 -0.001428831 0.0020401992 -0.056193683
000380 08 8e 96 3d 25 59 c5 bc 5e 08 2a 3d 25 f8 d5 bc
       0.07351309 -0.024090359 0.041511886 -0.026119301
000390 b2 a4 0c be 1f c4 27 3b 48 07 18 bd 70 7f 1c 3d
       -0.13734701 0.0025599075 -0.03711632 0.03820747
0003a0 01 2d b3 bc af 4e a6 3c b8 53 f3 bb 26 77 f5 bd
       -0.021872045 0.020301191 -0.0074257515 -0.119856164
0003b0 bd ea a1 3d 1f a8 ee bb 90 8f a4 3d b2 03 f6 3c
       0.07906101 -0.007283225 0.08035195 0.030031059
0003c0 a8 e3 98 bd 23 f7 93 3d c1 4b af bc 20 9e 5d 3e
       -0.07465297 0.07224872 -0.021398427 0.21642351
0003d0 70 ab 3f bd 19 0a 54 bd 34 14 17 bc 25 f7 92 bd
       -0.046794355 -0.051767442 -0.009221125 -0.07176045
0003e0 bc f1 3a 3c b5 a2 98 3d 1d d9 6c bc cb 0a 2e 3b
       0.011410173 0.07452909 -0.014456061 0.0026556726
0003f0 9d 46 8c 3c f6 21 c2 bc 62 08 d4 3b 98 ff a4 bc
       0.017123515 -0.023697834 0.006470726 -0.020141408

bias f4 [16]
000000 f4 94 41 3e 56 1a 8a 3d aa 07 26 bd 6f 76 47 be
       0.18904477 0.067433044 -0.040534653 -0.19478773
000010 4a 3d 0b be 73 66 01 3d 9d 44 0c 3e 49 dc cb bd
       -0.13597599 0.031591844 0.13698049 -0.099541254
000020 62 5b 2b bd c6 08 c0 bd 5e 45 46 bc 01 b8 37 3d
       -0.041835196 -0.093766734 -0.012101499 0.044853214
000030 76 65 22 3e 73 55 04 3e 60 39 14 be 51 65 ef 3c
       0.15859017 0.12923221 -0.14475012 0.029223116
