policy/b2/robot_lab/policy.pt (torch, 769376 bytes, 8 tensors)

weight f4 [512, 45]
000000 d0 fa 80 3e 94 f6 c8 3e 4d 85 e7 3c 6b 5f a5 3e
       0.25191355 0.39250624 0.028261805 0.3229936
000010 ff 7d 9e 3e 5c 37 f3 3e 02 bf b4 be f8 fc 1c be
       0.30955502 0.47503173 -0.35301977 -0.15330875
000020 81 c1 42 3e 23 d0 c2 bd b4 72 8c 3b 8a 3f c3 be
       0.19019128 -0.09512355 0.0042861346 -0.38134414
000030 d3 ea e5 3e 77 97 d1 be 80 95 48 be 0a 85 1a 3d
       0.4490572 -0.4093587 -0.1958828 0.037724532
000040 ef 93 c5 3d 84 8d f8 3e 9a 5e f2 3d 43 88 97 3d
       0.09647357 0.48545468 0.1183445 0.07399037
000050 d5 72 7f be c0 59 4b be 9f 30 01 3f 93 9e b7 bd
       -0.24946149 -0.19858456 0.50464815 -0.089657925
000060 9e 8e ce be 8d e8 50 3f 16 5e 0b be 24 25 0c bf
       -0.40343183 0.81604844 -0.1361011 -0.5474417
000070 e7 55 8a bd a5 fa ce be 5d 4b 69 3d 2d 6e 12 3f
       -0.06754666 -0.40425602 0.056956638 0.57199365
000080 92 63 bd 3e ee 41 86 3d 7b 4f 86 bd 2e 0b ab bd
       0.3699003 0.06555544 -0.065581284 -0.08351742
000090 2b 4c 29 bd 49 ae 2f 3e 02 ba 96 3d 82 d8 17 3e
       -0.041332405 0.17156328 0.07359697 0.14828685
0000a0 54 c5 42 3b 67 8d 17 3d 34 0e aa 3d 24 50 b2 bc
       0.0029719668 0.037000086 0.0830349 -0.02176673
0000b0 56 95 3f 3d d9 52 a8 3d 01 56 28 bf c9 bb 81 3e
       0.046773277 0.08218927 -0.6575623 0.2533858
0000c0 55 70 49 bf 6c ba e7 3e c7 31 01 3f 03 f8 03 bd
       -0.7868703 0.45259416 0.5046658 -0.032218944
0000d0 89 21 df 3e 2b d8 c3 3d 13 cb 2b 3c d5 6d 63 be
       0.43580273 0.09562715 0.010485428 -0.22209866
0000e0 af 5a aa be ab 9a ff be 4e 20 a5 bd 39 86 8b be
       -0.3327231 -0.4992269 -0.08062802 -0.2725084
0000f0 a2 e9 2e bf 63 ca b7 bd 70 d1 26 bf da c8 ec 3d
       -0.68325245 -0.08974149 -0.65163326 0.11561747
000100 7e 92 c4 be 65 31 f5 bc 0a 7a 4d 3e 66 5f 58 bf
       -0.38393015 -0.02993078 0.20066085 -0.84520566
000110 7d 65 6b be f9 d9 d1 3e b9 b6 b8 be 98 00 1e 3f
       -0.22987933 0.40986612 -0.36076906 0.61719656
000120 6d ce 3a 3e e2 62 06 be 17 44 1d 3e 8a a8 96 3e
       0.18242808 -0.13123658 0.15358005 0.2942546
000130 00 3b a3 be 1b 26 f3 3d 85 52 ab bd 35 2e b7 3d
       -0.3188095 0.118725024 -0.08365349 0.0894436
000140 ac a6 d5 38 50 22 bf 3c 85 ba 4d 3e 24 7b e6 bd
       0.000101876765 0.023331791 0.20090683 -0.11253956
000150 cf 0d 6e bd 9b 21 e2 3d b4 9f 35 bd 34 4c 02 be
       -0.058118638 0.11041566 -0.044341758 -0.12724382
000160 e0 45 20 3d 96 69 2f 3c ec 09 ed 3e 62 b2 8e be
       0.039129138 0.010706326 0.46296632 -0.2787047
000170 d6 2c 81 be 7a 0d b6 be 8a 92 f8 be 26 a2 6c 3e
       -0.2522952 -0.35557157 -0.485493 0.2310873
000180 51 ec fc bd fa 14 02 3f 55 6c 68 be c0 68 76 be
       -0.12349761 0.5081326 -0.22697575 -0.24063396
000190 c7 ba e5 bd d6 f1 49 bf 3e 77 31 3f 09 99 cc be
       -0.112172656 -0.7888464 0.69322574 -0.39960507
0001a0 6a fb 73 be b0 28 a6 bd 07 e0 41 be fb 31 99 3e
       -0.23826376 -0.08113229 -0.18933116 0.29920945
0001b0 6a d9 8a be f4 17 da be cb 51 bf 3e 0c ef b8 be
       -0.27119 -0.425964 0.3736709 -0.36119878
0001c0 f1 4d b0 bd f9 04 93 be 45 9e d9 3f 96 55 f6 bf
       -0.08608616 -0.2871473 1.7001425 -1.9244869
0001d0 33 ed 90 be 1e 2d 4a 3e 1a fa c5 3d 3e 59 73 3e
       -0.2830597 0.19743773 0.09666844 0.23764512
0001e0 71 1b c6 be f6 2f 1a bf 30 fc 01 bf 6c d3 1f 3d
       -0.3869281 -0.6022943 -0.5077543 0.039019987
0001f0 5f 3f 42 3b e8 f8 2d bd d8 a8 9e 3d 07 e6 4b bd
       0.0029639823 -0.042473704 0.07747048 -0.049779918
000200 41 42 e0 3d be 77 0e 3a 2b 72 67 bc 89 34 1e bd
       0.10950137 0.0005434713 -0.014126341 -0.03862432
000210 b1 d6 70 3d 71 ac 07 3e 98 82 fd bc 86 39 00 3c
       0.058798496 0.13249375 -0.030946061 0.007826215
000220 bc c7 28 bf 29 32 b9 bd e8 4d 2c bf 32 9a d4 3e
       -0.6592977 -0.090427704 -0.67306376 0.41523892
000230 63 aa d1 3e b5 9b d1 be 11 c3 1f be 6d ac 87 be
       0.40950307 -0.40939108 -0.15601756 -0.26498738
000240 93 9d 4b 3d 72 ef 3e 3e e3 e6 18 3f c5 62 a4 be
       0.04971082 0.18646029 0.59727305 -0.32106605
000250 66 f1 c4 3b 51 e0 2b 3e 74 a0 bc 3e 76 f8 51 bf
       0.0060102222 0.16784789 0.36841166 -0.82019746
000260 92 7e 67 3e 8c 2c 55 3f 7b 89 0d 3e 3f f9 66 3f
       0.22606876 0.832711 0.13821976 0.9022407
000270 9c fa d6 3e 9f f8 63 bf e7 84 66 bf 54 4c b6 be
       0.41988075 -0.8905124 -0.9004654 -0.3560511
000280 d7 34 f7 be 83 59 08 bf 05 ac 94 be bf ab 00 3e
       -0.482825 -0.53261584 -0.2903749 0.12565516
000290 a7 a9 96 3c 52 44 f1 3e ce 9f 77 be 95 05 bb be
       0.018391443 0.47122437 -0.24182054 -0.36527696
0002a0 81 cc a2 3c 9b 5a ea bc 14 02 bd 3c 5d d2 96 3c
       0.019872906 -0.028607657 0.02307228 0.018410856
0002b0 d8 e8 cc 3c d1 b0 ae 3d 57 e7 e1 3d 1d eb 57 bd
       0.025013372 0.08529819 0.11030453 -0.052714456
0002c0 cc 35 e9 bc 6d 0a 92 bd 06 74 8b 3d 9f de 48 3d
       -0.028468035 -0.07130895 0.06809239 0.049040433
0002d0 28 89 3f 3e 75 f2 16 bf 61 ad 47 3e 74 75 0a c0
       0.18704665 -0.5896371 0.19499733 -2.1634188
0002e0 8c 5c 84 bf 1c d5 b8 bd 43 fc bf be f5 a0 92 bd
       -1.0340743 -0.090250224 -0.37497148 -0.07159606
0002f0 ac 27 d5 be 96 6e 30 3f b1 e5 72 3e f9 0b 9c be
       -0.4163183 0.6891874 0.23720433 -0.30477884
000300 82 56 8b 3e 67 0f 40 bf 0a 55 ef bd 2c a8 d7 3d
       0.27214438 -0.750235 -0.11686142 0.10530123
000310 8c 97 11 bf 12 46 a2 be d6 9d f7 be f6 00 98 bf
       -0.5687187 -0.31694084 -0.48362607 -1.1875293
000320 eb ea 27 be c6 69 f7 3e 57 34 05 3e a8 3b c0 3e
       -0.16398208 0.48322886 0.13008247 0.37545514
000330 84 5e 80 3e 8a a5 3f 3f 36 e9 45 be 70 ff 9f 3e
       0.2507211 0.7486197 -0.19327244 0.3124957
000340 12 7d 0e bf 0c 0e 35 be 83 98 ac bd 6a 55 c4 be
       -0.5565959 -0.1768114 -0.08427527 -0.38346416
000350 91 38 2c 3d 96 50 01 3d d1 9b 63 bd 07 3a 6e 3d
       0.042046133 0.031570993 -0.05556852 0.058160808
000360 a6 5b 38 3d 13 46 0d be fd e7 27 3d 64 e7 25 bd
       0.045009278 -0.13796262 0.040992726 -0.040503874
000370 0f 21 65 3c 10 37 20 3d ab 55 3b bd 2f e9 e9 bd
       0.013984933 0.03911501 -0.045735996 -0.11421429
000380 8d fe a7 bb 3c cf 47 3e 4c f2 b4 be 29 63 20 3f
       -0.0051267804 0.19512647 -0.35341108 0.62651306
000390 ac b7 45 be ef 0c d1 bc b1 86 4f 3f b8 9d 22 be
       -0.19308347 -0.025518863 0.810649 -0.15880477
0003a0 9d 15 b4 be dd f6 4c be db 94 8e 3c 25 c4 a8 3c
       -0.3517274 -0.20016046 0.017404964 0.020601342
0003b0 fc 2b ff bd c9 a8 b2 3e d3 fe f7 be 97 80 4f 3e
       -0.12459561 0.34894398 -0.48436603 0.20263897
0003c0 19 32 4b 3f bb eb 99 3d 1c 05 ad 3e f1 d6 96 bf
       0.7937332 0.07515665 0.3379296 -1.1784345
0003d0 46 cb 7d 3e bf 32 4c 3e d3 b2 29 be f7 e5 0b be
       0.24784574 0.19941233 -0.16572122 -0.13661943
0003e0 04 72 e7 be f5 6e 37 bd e1 bb 71 be fe b3 19 bf
       -0.45204175 -0.04478355 -0.23606826 -0.6004027
0003f0 53 a9 b2 bc ea dc b7 bd 24 de 54 bc a2 df d6 bc
       -0.021809256 -0.08977683 -0.012992416 -0.026229683

bias f4 [512]
000000 fa a3 23 bc a4 a0 51 3e ae c9 44 bc 56 f3 ae be
       -0.0099878255 0.20471436 -0.012010975 -0.34170026
000010 77 fc 09 3f cc ce 6c be 60 32 14 3e 30 d3 ab 3d
       0.53900856 -0.23125762 0.14472342 0.0838989
000020 6e 73 12 be ec dc ad 3c c3 b8 83 bc 72 5e 78 bd
       -0.14301845 0.021223508 -0.016079312 -0.060636945
000030 3b 7b 44 3d 1e 9b 2c be ae 29 a2 be 2e fd 6d be
       0.047969084 -0.16856048 -0.31672424 -0.23241112
000040 0d ea a7 bf c5 09 06 3e a4 1f 4c be 8e 2b 7b be
       -1.3118302 0.13089664 -0.19933945 -0.24528334
000050 0a fb 2c bd 7d e4 95 bd a5 35 c7 be 51 28 68 be
       -0.042231597 -0.07318971 -0.38908115 -0.2267163
000060 76 02 1b be f4 c8 52 be 67 ee 69 bd 8d 3f 3f be
       -0.15137658 -0.2058447 -0.057112124 -0.18676586
000070 96 47 05 be de 27 a1 3c b0 6d 09 be bc 19 fa bc
       -0.13015589 0.01967233 -0.13420749 -0.03052985
000080 f2 4a 30 bd 23 98 0d be de cb 65 be 9a 3d 47 be
       -0.043040223 -0.13827567 -0.2244105 -0.19457093
000090 bf 29 d5 3e 7f a6 7f be ed ec 92 3c 78 d2 31 be
       0.41633412 -0.24965857 0.01793524 -0.17365444
0000a0 a5 f1 94 3d bc ed 79 be 31 5b dd 3c 62 45 20 be
       0.072726525 -0.24407095 0.027021023 -0.15651467
0000b0 2c bf 7f bd aa f3 e4 be b1 54 a1 bd 66 c4 27 bd
       -0.062438175 -0.4471715 -0.07877482 -0.040958785
0000c0 38 4f 8c bd e0 ad 3d be 2e 43 89 be 92 ca f1 bd
       -0.06851047 -0.1852336 -0.26809067 -0.11806215
0000d0 f9 d2 75 be 02 4f 9e 3e 2e 0a ce bd 86 7c 9e be
       -0.24006261 0.30919653 -0.10060535 -0.3095438
0000e0 63 21 79 3e 6b 7d 83 3e f7 e5 97 bb f4 aa 18 be
       0.24329142 0.25681624 -0.0046355682 -0.14908963
0000f0 e7 53 d2 bc 90 19 5c 3c f8 b5 ab be 8a 16 93 be
       -0.025674773 0.013433829 -0.3353727 -0.28728133
000100 03 8c 86 3e 92 2a 1e 3e d4 b5 42 bd 7c 16 38 3d
       0.26278695 0.15445927 -0.047536686 0.044943318
000110 fb 97 08 3e bc 60 ca be a4 d8 85 3e bf 44 eb bd
       0.13339226 -0.39526927 0.26141846 -0.11487722
000120 2e 10 41 3e db ec 73 3e 63 41 ae be 0d 92 8f be
       0.18853828 0.23820822 -0.3403426 -0.28041115
000130 71 12 37 be b0 26 83 be 13 19 dd bd 7e 3c 75 be
       -0.17878129 -0.25615454 -0.10795798 -0.23948857
000140 b7 79 00 bf df 1e 1c be fa 45 05 be 5f dc 02 be
       -0.5018572 -0.15246151 -0.13014975 -0.12779377
000150 ac 94 49 3e 40 f9 81 bd 72 e6 fe bb e1 0a 1a be
       0.1968562 -0.06346369 -0.007778936 -0.15043212
000160 fd 3e f2 bd da 0b 8c be 68 97 95 be 48 d0 eb bd
       -0.1182842 -0.27352792 -0.29217076 -0.11514336
000170 ee 52 0b 3e 36 b0 bc be da e9 9f bd 2d b4 88 3e
       0.13605854 -0.36853188 -0.078082755 0.26699963
000180 12 18 20 be c4 48 bf bd 54 72 2a 3e af c0 a8 be
       -0.15634182 -0.09340051 0.16645175 -0.32959506
000190 65 30 85 be fb a1 ee bc eb f5 9c be a2 7b a9 3e
       -0.26013485 -0.029129973 -0.3065637 0.33102137
0001a0 3f 2c 3e be 91 e1 1b 3e f5 59 bd be 9f bf 50 be
       -0.18571566 0.15222766 -0.36982694 -0.20385598
0001b0 6a 50 15 be 41 33 80 3c 05 3f d7 bd 31 90 0d 3e
       -0.14581457 0.01564944 -0.10510067 0.13824536
0001c0 c0 25 00 be ad fc 60 be b8 68 fc be b9 72 55 be
       -0.125144 -0.21971388 -0.49298644 -0.20844544
0001d0 a6 ee a8 ba dc c5 8b be bc d7 87 3d c5 4f 08 be
       -0.0012888506 -0.27299392 0.06632945 -0.1331168
0001e0 de 87 98 be 37 9f cf bd 72 a4 9b 3d 53 21 06 bd
       -0.29791158 -0.1013779 0.07599725 -0.032746624
0001f0 00 8d 30 be 87 2c ba be cd ff 85 3e 6d ee 02 be
       -0.17241287 -0.36362097 0.26171723 -0.12786265
000200 5c 09 51 3b be ea 05 bc 50 96 86 bd c6 23 30 be
       0.0031896448 -0.008173643 -0.065716386 -0.17201146
000210 aa 47 6b 3e aa 3f 89 be 10 3f 80 bd 9b a7 4f bf
       0.22976556 -0.26806384 -0.06262028 -0.8111512
000220 ca 99 c1 3d 82 6a e1 be e0 b4 36 3e 36 41 0f be
       0.09453161 -0.44026572 0.17842436 -0.1398972
000230 d7 db 21 be 22 3b 1f be d7 f7 94 be 2d 9f 02 3e
       -0.15806518 -0.15549901 -0.29095337 0.12756033
000240 5f 13 c6 be 9f 2e af 3d 3c 86 c5 be e9 74 d3 bd
       -0.38686654 0.08553814 -0.38578975 -0.10325033
000250 73 b9 d6 3d 66 a8 03 3e 36 a1 0a be f5 e8 c4 be
       0.104845904 0.12857208 -0.1353806 -0.38458982
000260 3b a2 4f be a7 df e7 bc 9d 75 d2 be 2e 76 c3 bd
       -0.2027673 -0.028304888 -0.41105357 -0.09544025
000270 9a 6a d1 bc 71 fc 35 3e f7 1f 5a bd ad fc 29 3e
       -0.025563527 0.1777208 -0.05325314 0.16600294
000280 de e6 5e 3e 46 42 e2 bd 85 cd fc 3c 8d 76 af be
       0.21767756 -0.11047797 0.030859718 -0.34270135
000290 ac 6f cb bd d1 1a df 3d a7 b4 65 be 91 a5 f0 be
       -0.09933409 0.10893787 -0.22432195 -0.47001317
0002a0 8d 3c fd bd c5 1f 2d 3d 4e c6 d5 3e dc ef 56 be
       -0.12365065 0.042266626 0.41752857 -0.20989937
0002b0 88 ea 76 be f8 12 b9 3c 58 e0 84 3d 59 1d cb be
       -0.24112904 0.022592053 0.06488103 -0.39670828
0002c0 6e 13 38 be 9e e5 9e be 13 e4 cd bd a6 11 8f be
       -0.17976162 -0.3103456 -0.10053267 -0.27943152
0002d0 ce d3 ca bd 5f c3 a2 3c 30 7a cc 3a 39 03 7f bd
       -0.0990368 0.01986855 0.001560038 -0.062258933
0002e0 cf 11 74 be a7 b3 0e bc 7b cb ec bc 1e 2d 96 be
       -0.23834918 -0.008709825 -0.02890562 -0.29331297
0002f0 6d 1c 2f 3e f5 5c b5 3d 64 b6 f2 bd 1c 84 2f be
       0.17100687 0.08855621 -0.118511945 -0.1714024
000300 c4 73 0f 3e 70 28 a1 be 42 15 57 be 6f ad 27 3e
       0.14009005 -0.31476164 -0.21004203 0.16374753
000310 e9 13 27 3d cf 35 79 ba 2a 5d 91 3e 60 9a 28 bb
       0.040790472 -0.00095066143 0.2839139 -0.002572678
000320 88 9b aa 3d 77 7d 51 be a4 4e 62 3a e2 dd d1 bd
       0.083304465 -0.20458017 0.0008632934 -0.10247399
000330 a0 32 7a bf 6d a6 ed bd a9 08 c9 3e c7 f7 5b be
       -0.977335 -0.11604009 0.3926442 -0.21481238
000340 a0 3a 45 be 07 6f c9 3d 45 ed 80 be 97 3b ad be
       -0.19260645 0.0983563 -0.25181022 -0.33834526
000350 ac 7f 2d 3e b7 21 db be 79 67 6c bd 2f 41 aa be
       0.16943234 -0.4279916 -0.057715867 -0.33252856
000360 82 41 b2 be bc 4b b3 be 8d 9b b6 bd 68 59 e9 be
       -0.34815603 -0.35018718 -0.08916388 -0.45576024
000370 38 c7 ad be 82 3c db be dd ac c0 be 98 99 b2 be
       -0.33941054 -0.428196 -0.37631884 -0.34882808
000380 dc c5 0a be 5d 87 22 3e d3 1f 2d 3e 50 c0 ff b9
       -0.1355204 0.1587195 0.16906671 -0.00048780674
000390 c6 77 ee 3d 2e ff 95 bd 8b 2a 4d be 40 4a 65 bf
       0.11643939 -0.07324062 -0.2003576 -0.8956642
0003a0 08 e7 9f 3d 7e 21 42 be 7d 83 94 be ba af d5 bc
       0.078077376 -0.18958089 -0.29006568 -0.02608477
0003b0 e5 72 d0 be d1 82 93 3e 5d 12 c7 3e a5 b0 de 3d
       -0.40712658 0.28810742 0.38881198 0.10873536
0003c0 ec 6d 86 be 3b 06 fc bd bf e4 9b be 2a ac 31 3e
       -0.2625574 -0.12305876 -0.30447957 0.17350832
0003d0 58 bb a4 be e1 18 52 be e4 58 e6 bd 64 61 91 be
       -0.32174182 -0.20517303 -0.11247423 -0.28394616
0003e0 98 da dd bd 4d 55 bf bd b3 c1 06 3e b4 0f 0b 3e
       -0.10832709 -0.09342442 0.13159828 0.13580209
0003f0 05 7e 1a be b9 19 4b bd 33 ec 8a 3e 7b 21 18 bf
       -0.15087135 -0.049585078 0.2713333 -0.5942609

weight f4 [256, 512]
000000 0f cd a1 bd 92 cb 3c 3e 55 e5 f0 3d f3 b7 a4 bd
       -0.0790044 0.18437031 0.117624916 -0.08042898
000010 f9 52 3b be 5d d9 3c be 76 db ed ba 61 01 f1 bd
       -0.1829337 -0.18442293 -0.001814707 -0.11767841
000020 01 f8 11 3e 52 ff 00 be f6 68 03 be 12 c9 3a be
       0.14254762 -0.12597397 -0.12833008 -0.18240765
000030 e5 e1 bc 3e e9 31 82 3e 9b 4e bc 3d 5d 55 88 bd
       0.36891094 0.25428703 0.0919468 -0.06656907
000040 79 e5 aa bd e9 67 25 be 0c 85 13 3d 5a 1b 37 3d
       -0.0834455 -0.1615292 0.036015555 0.04470382
000050 e0 67 5f be e8 7f 2a 3e 6c c6 90 bd 31 73 58 be
       -0.21816969 0.16650355 -0.07069096 -0.21137692
000060 91 e3 ba 3d 77 8b 22 bf c3 61 df 3d d7 6c 86 bd
       0.09125436 -0.63494056 0.109073184 -0.06563728
000070 0c 57 f6 3d 14 94 2d 3d e0 29 be bd da a4 09 3c
       0.120283216 0.042377546 -0.09285331 0.00840112
000080 38 e8 cb bc ac 55 e2 3d 5f 77 50 be 5e a6 f2 bc
       -0.024891004 0.11051497 -0.20358036 -0.029620346
000090 08 27 5d be 45 a6 8b 3e 1d cc 29 be 2c d1 7e 3d
       -0.2159692 0.2727529 -0.1658177 0.0622112
0000a0 68 1e a2 bd 92 3f 86 3e ca ac d3 bd 64 b6 30 be
       -0.07915956 0.26220375 -0.10335691 -0.17257077
0000b0 e0 c8 38 3c c0 d7 69 3d 6e 64 ce 3d ce 13 e6 bd
       0.011278361 0.05709052 0.10077749 -0.11234246
0000c0 e9 af 46 3e 3e f5 98 bc 11 9a 68 3d ae e3 2e bd
       0.19403042 -0.018671628 0.056787554 -0.0426976
0000d0 69 41 bd 3d c6 1b f4 bd f4 13 86 bd 9c 26 16 be
       0.092409916 -0.1191936 -0.065467745 -0.14663166
0000e0 61 61 e0 3c 24 eb 27 3e b3 eb 14 be 52 26 69 bd
       0.027390184 0.16398293 -0.14543037 -0.05692131
0000f0 ce 85 15 bd 3d df cc bd d3 d8 95 bc 6b 5e 57 3e
       -0.03650456 -0.10003517 -0.018291866 0.21032111
000100 39 dd ff be 32 f9 11 be 07 7b 43 3e c9 3a fb 3d
       -0.49973467 -0.14255217 0.190899 0.12267072
000110 63 f4 fb bd d1 69 0b 3f b2 35 88 be bc e5 3d 3d
       -0.123024724 0.5445834 -0.26603466 0.04636167
000120 ee 9e 5b 3c 0a e6 d2 bd 70 09 c3 3c 2b b0 b6 3d
       0.013404591 -0.10297783 0.023808211 0.0892032
000130 98 a5 04 be e0 f4 dd 3d b0 a2 bb bd 60 65 d8 bd
       -0.12953794 0.10837722 -0.091618896 -0.10566211
000140 ee e4 73 bd d7 5d 82 bc 52 6b b6 3e 28 c1 ca 3d
       -0.059544496 -0.015913887 0.35628754 0.09900123
000150 d4 a2 d9 3c b3 1f 30 be 50 80 94 3d c8 68 b9 bd
       0.0265669 -0.17199592 0.07251036 -0.090531886
000160 c7 f9 91 3d cb 92 48 3b 8c 7b 63 3e 90 d8 55 3e
       0.07127719 0.0030605074 0.22215098 0.20883393
000170 5f 45 5b 3e 6d 08 86 3e 40 67 ff bc b8 91 19 3d
       0.21413182 0.26178303 -0.031177163 0.037492484
000180 6d 6c 54 be 01 23 3c be c3 70 6b be 34 93 29 3c
       -0.20744486 -0.18372728 -0.22992234 0.010350037
000190 2e 52 1c 3e 1f f5 e2 bd 9a ce 99 3e c8 7e 26 3e
       0.15265724 -0.110819094 0.30040437 0.162593
0001a0 32 19 14 be 45 f1 3b 3d 59 1c 9b 3e a0 77 10 3d
       -0.14462736 0.04588439 0.30295065 0.035270333
0001b0 88 5d 80 3e d1 9f 6c 3d c4 1b da ba fc b4 d4 3d
       0.2507136 0.0577696 -0.0016640355 0.103860825
0001c0 70 a2 2f be dd 9e 36 3e 46 3b 4c be b1 df f1 bd
       -0.17151809 0.17834039 -0.19944486 -0.11810244
0001d0 66 50 31 be 82 6f a1 bd 75 9e e4 3c d1 ac c6 bd
       -0.17315826 -0.078825966 0.02790759 -0.09700931
0001e0 e7 86 a3 bd 14 09 fe 3d d6 3c a9 bd f7 14 a2 be
       -0.07984715 0.12404075 -0.08263557 -0.3165662
0001f0 34 41 6d 3d 96 34 bb 3d 24 57 0d be 7d 84 ae bc
       0.05792351 0.09140889 -0.13802773 -0.02130341
000200 96 83 38 3e ab c4 88 bd 2c 50 97 3c 3b 0b 84 3e
       0.18018946 -0.066781364 0.018470846 0.25789818
000210 9d 0f ac bd db 04 0f be 31 48 a5 be 67 9f ea 3d
       -0.084014155 -0.13966696 -0.3228164 0.11456185
000220 6b 2a e4 3c a8 50 11 be f4 ef 3e bd 6b 4c a2 bd
       0.027852258 -0.14190924 -0.046615556 -0.07924732
000230 35 0e 66 be 80 7e de 3d c3 4e 10 3c 12 be 0e 3e
       -0.22466357 0.10863972 0.008807841 0.13939694
000240 4e 0f 85 3d ff 0f ab 3c c3 94 8e bb 10 b6 a5 bd
       0.0649706 0.020881651 -0.00435123 -0.08091366
000250 30 45 fc 3c 45 2e 8b bd 44 c4 1f bd b6 d2 97 3e
       0.03079471 -0.067959346 -0.039005533 0.29652947
000260 6d 57 31 bd 09 77 be be 30 35 21 be ac 23 f6 bd
       -0.043296266 -0.37200192 -0.15742946 -0.120185226
000270 d8 b5 68 be 34 2c 0d be 49 41 35 be a5 28 dc bd
       -0.22725618 -0.13786393 -0.17700686 -0.1074994
000280 1e c2 b9 3c ba c3 9a be be 4f 9a be 81 23 b3 bd
       0.02267557 -0.30227453 -0.30138963 -0.08747006
000290 4b 88 91 3e 10 99 fa bd b0 88 ac 3d ce 8a ad be
       0.28424296 -0.122362256 0.084245086 -0.33894962
0002a0 2e 36 7b be 7f c4 50 bd 7f fb 0d 3e dc 40 df bc
       -0.24532387 -0.050968643 0.1386547 -0.027252607
0002b0 5b b0 2d bc 02 71 2e 3e db cc 84 3d 15 d5 c0 ba
       -0.010601128 0.17035297 0.064843856 -0.0014711941
0002c0 b1 2d 94 bd c3 00 39 3e 31 b9 a8 3e 00 3a dd bc
       -0.072352774 0.18066697 0.3295379 -0.027005196
0002d0 20 f6 6b be 40 a5 10 3e 53 49 96 ba dd dc 3e be
       -0.23043108 0.14125538 -0.0011465944 -0.1863894
0002e0 09 23 4d 3e e2 28 4c be da 07 85 be eb 61 2d 3e
       0.20032896 -0.1993747 -0.25982553 0.16931884
0002f0 9d 16 23 be 96 a4 d3 3e 5e 9b 40 3d ce 81 03 be
       -0.15926595 0.41336507 0.04702317 -0.12842485
000300 db 17 55 3c f4 42 ef bd 50 90 0e 3e 29 5f 8c bd
       0.013006176 -0.11682692 0.13922238 -0.06854088
000310 95 ad a3 3d 29 72 bb 3d df d0 fe bc d6 87 36 be
       0.079920925 0.09152634 -0.031105457 -0.17825255
000320 f1 b7 5a 3e bf 9f 0b 3d 98 ff a4 bd 73 66 4c 3e
       0.2135923 0.034087893 -0.08056563 0.19960956
000330 dc 96 e2 bd 77 1c b9 3d 51 cb f3 be c9 18 2b be
       -0.110639304 0.09038632 -0.47616056 -0.16708674
000340 97 46 3b bd 4c b6 d8 bc dc 16 f4 3d b5 a8 5b be
       -0.045721617 -0.026454113 0.119184226 -0.21451075
000350 11 79 fb 3d ed ac 03 3d ff cf d7 3d 84 b4 96 be
       0.12278951 0.032147337 0.10537719 -0.29434597
000360 72 88 0d be cb 9a 57 3e e2 63 3f be 1e fa d6 bd
       -0.13821581 0.21055143 -0.18690446 -0.10496925
000370 71 b5 db bd 54 a9 a3 3b 62 9e 97 bd 45 03 c7 3e
       -0.107279666 0.0049945507 -0.07403256 0.38869682
000380 d7 05 a5 3e f1 3b 46 3e df 61 05 3e 60 19 80 3d
       0.32231018 0.19358803 0.13025616 0.0625484
000390 2c 4f 7c be 46 72 a0 be 74 e2 85 3d 38 8f 76 3d
       -0.24639577 -0.31337184 0.06537333 0.060195178
0003a0 71 8c b9 bd a7 f4 24 bd ae 39 b5 3e ef ff e7 3b
       -0.0905999 -0.04027238 0.3539557 0.00708007
0003b0 34 be 68 3d 6a 55 84 bd c4 e5 dc bd c6 88 72 bd
       0.056822017 -0.06461604 -0.10786012 -0.05921247
0003c0 23 b0 16 3d 59 79 3a 3c 4c cb 52 3d 75 5f 2d be
       0.03678907 0.011381471 0.05146341 -0.16930945
0003d0 98 9a d8 3e 6b bb fa bd e2 69 65 be af f9 89 3e
       0.42305446 -0.122427784 -0.22403672 0.26948306
0003e0 1f bf 08 3e 59 79 fb 3d e7 5d 13 be 1d 05 06 be
       0.13354157 0.122790046 -0.1439129 -0.13087888
0003f0 be f5 54 be 09 74 a5 3e 3a 5b 3b be 8e 81 0f 3e
       -0.20796868 0.3231509 -0.18296519 0.14014265

bias f4 [256]
000000 ba 88 73 bd f3 ff a0 bd 02 93 89 be 77 67 c6 be
       -0.059456564 -0.078613184 -0.2686997 -0.38750812
000010 1f 0a a2 be bd 89 b5 be f6 b0 66 be 07 5e 16 bf
       -0.31648347 -0.35456648 -0.22528443 -0.58737224
000020 bd 9c 3e be 5d ac d6 be 64 45 d2 be 6d 99 91 be
       -0.18614478 -0.41928378 -0.41068566 -0.28437367
000030 26 37 91 be 5d d8 47 be b9 b3 93 be 51 b1 aa be
       -0.28362387 -0.1951613 -0.28848055 -0.33338407
000040 88 0a c7 be f2 31 61 3d 80 ee 8b be 2c ce 45 be
       -0.38875222 0.054979272 -0.273304 -0.1931693
000050 f2 03 8e be 3a 47 88 be b7 3e 5f be 71 da e4 3c
       -0.27737385 -0.26616842 -0.21801268 0.027936192
000060 72 55 9b 3e d6 63 b7 be 77 27 62 be 1e 2b a8 be
       0.30338627 -0.35818356 -0.22085367 -0.32845396
000070 84 d7 77 be 97 5d 47 be e9 ca 5a be db 7c ff bd
       -0.24203306 -0.19469295 -0.21366467 -0.12474986
000080 56 14 46 be 6f 17 3d be 52 83 96 be 2d c7 83 be
       -0.19343695 -0.1846597 -0.29397064 -0.25737897
000090 c1 fb 50 be 02 0b 06 bf f8 2c 24 bf 28 d2 81 be
       -0.20408536 -0.52360547 -0.64131117 -0.2535565
0000a0 bf 5d 7a bd 03 04 ff be 76 30 a3 be 6e e4 3e be
       -0.06112456 -0.49807748 -0.3187291 -0.18641827
0000b0 62 6e 1a bf 97 9f 1f be a9 74 aa 3b 49 8a 76 be
       -0.6032468 -0.15588222 0.0052018953 -0.24076189
0000c0 b9 6a b5 be cf f5 8d 3e bd 09 67 bd 2e 6a dc bd
       -0.35432985 0.277266 -0.05640577 -0.1076244
0000d0 10 aa 23 3e c7 53 f8 bd 2f f7 f4 be b5 5d 6c be
       0.15982842 -0.12125354 -0.47844836 -0.23082621
0000e0 d8 67 7e be 96 2c d7 be ba 33 f3 be 23 65 95 be
       -0.24844301 -0.42026204 -0.47500402 -0.29178724
0000f0 c9 3f 6b bd 8a 87 91 be 42 52 bd be 5f fd 52 be
       -0.057433877 -0.2842372 -0.3697682 -0.20604466
000100 74 4b 03 be 25 50 d0 be fd b9 09 bf bf f4 d8 be
       -0.12821752 -0.40686145 -0.5379942 -0.42374226
000110 32 98 73 be 88 ec a4 be e0 4b b8 be b1 bf 73 be
       -0.23788527 -0.3221171 -0.35995388 -0.23803593
000120 3b b1 ce be 58 22 21 bf a6 57 74 be dd 00 23 be
       -0.4036959 -0.6294303 -0.2386156 -0.15918298
000130 3b ef 4a be e5 52 fb bd a9 49 87 be b8 e9 f1 be
       -0.19817822 -0.1227167 -0.26423386 -0.47248626
000140 ce 29 11 be 9f a5 83 be dc 4b 07 bd c2 48 7e be
       -0.14176103 -0.25712296 -0.03303133 -0.24832442
000150 34 78 5e be cf 0a fb be f1 e1 23 bf 09 3b 2a be
       -0.21725541 -0.49031684 -0.64016634 -0.16624083
000160 9c d0 8a be 70 1b 67 be aa 95 d3 be df cc 2b be
       -0.2711228 -0.2256906 -0.41325122 -0.16777371
000170 72 7b 9e be 39 fb 02 be b6 d0 bd be 62 3a 03 bf
       -0.30953556 -0.12791146 -0.37073296 -0.5126096
000180 4f 35 50 be f5 e9 89 be b6 c8 b8 be d0 e7 8f be
       -0.20332836 -0.26936308 -0.3609063 -0.28106546
000190 6f f4 68 be 86 a9 81 bb 6e fc a6 be a7 3c df bd
       -0.22749494 -0.0039569763 -0.32614464 -0.109002404
0001a0 71 6a f7 bd 62 21 52 be df 67 f8 be 8a b5 fa be
       -0.12080849 -0.20520547 -0.48516747 -0.48966628
0001b0 a8 95 91 be c5 94 89 be 18 7a 01 bf 94 ff 39 be
       -0.2843449 -0.26871315 -0.50576925 -0.18163902
0001c0 d6 f4 c4 be fb 9f 30 be d9 c7 96 bd 95 d9 ba be
       -0.38468045 -0.17248528 -0.07362337 -0.36494127
0001d0 41 07 8d be 3b 2f f5 be 91 fc c4 bd c4 42 79 be
       -0.27544597 -0.47887596 -0.09618486 -0.24341875
0001e0 28 b7 b3 bd c8 e1 2f be 5a 54 2c bd 8a ed 73 be
       -0.08775169 -0.17175972 -0.04207263 -0.23821083
0001f0 6d d0 0d be 16 3e 3d be 36 43 6d be 12 bd 5d 3c
       -0.1384904 -0.18480715 -0.2317017 0.013533847
000200 f0 1b 4b be c2 72 f2 be c9 52 48 bc 2c b9 82 bd
       -0.19834876 -0.47353178 -0.012226769 -0.06382975
000210 09 2d a0 be 36 bc 84 be 9d b3 a0 be 95 d6 c3 bc
       -0.3128436 -0.25924844 -0.31387034 -0.023906032
000220 2b e1 b1 be c9 70 be be 9f a5 a6 be 7c 9c cf be
       -0.34742102 -0.37195423 -0.32548234 -0.40549076
000230 7b 6d 11 be d0 71 f2 bd c6 43 c2 be 64 9a 79 be
       -0.1420192 -0.11838114 -0.37942332 -0.24375302
000240 0e 27 85 bd ec 05 7a be 36 17 0a bf a6 5e ee be
       -0.0650159 -0.24416322 -0.5394167 -0.46556586
000250 f5 9d e9 be 2e 82 71 3c e8 33 c0 be 54 4c 44 be
       -0.45628324 0.01474051 -0.375396 -0.19169742
000260 eb 8a 82 3d 47 dc a3 be 5f 43 29 bd 4b 98 c3 be
       0.06374153 -0.32003996 -0.041324016 -0.38202128
000270 75 35 46 be 54 f9 c9 bd 10 d4 d9 bd 96 06 1e be
       -0.1935633 -0.09862009 -0.10636151 -0.154322
000280 24 5b 78 be 94 62 be 3d a3 e1 f3 be 22 b2 78 be
       -0.24253517 0.09296146 -0.47633085 -0.24286702
000290 15 7a 79 be fd 0c b1 be 9e c3 ae be 4f 2b 13 bf
       -0.24362977 -0.34580222 -0.3413362 -0.5748796
0002a0 0d 18 92 be 07 10 45 be 59 c8 ba bd 49 d4 c3 be
       -0.28533974 -0.19244395 -0.091202445 -0.38247898
0002b0 9f 7f d1 bd 45 6a 1d be 61 15 28 be 2d 6d 01 be
       -0.1022942 -0.1537257 -0.16414405 -0.12639304
0002c0 cb 20 c7 bd 75 ef 12 be f6 d1 b6 be ee 4f a5 be
       -0.09723052 -0.14349158 -0.35707062 -0.32287544
0002d0 0f ed 51 be 70 af 96 be cb 6f b2 be ab fd 28 be
       -0.20500587 -0.29430723 -0.34850916 -0.16503017
0002e0 37 f7 b4 bd 1c f5 cb be 7a 6c 8b be a8 08 87 be
       -0.08836215 -0.3983544 -0.272312 -0.26373792
0002f0 e0 13 0c be a4 4e 08 3e 0b 95 a6 be 3a 23 3e bf
       -0.13679457 0.13311249 -0.32535586 -0.742725
000300 b5 49 2a be f6 df 9d be 53 d2 93 3e a2 13 be be
       -0.1662968 -0.3083493 0.28871402 -0.37124354
000310 58 6a 36 3d 25 03 70 be e5 33 15 bf d4 e1 ab be
       0.04453501 -0.234387 -0.5828231 -0.3357073
000320 56 f5 11 be 4a c1 47 be cb f4 e5 be cf 15 c2 be
       -0.14253744 -0.19507328 -0.44913325 -0.37907264
000330 69 dc 10 bd 6e 7d b5 be a1 8e ab be b4 99 de be
       -0.03536645 -0.35447258 -0.33507255 -0.4347664
000340 dd df e5 bd ae 42 2d bc fa f9 70 3b 34 26 51 be
       -0.11224339 -0.01057498 0.0036770091 -0.2042473
000350 f1 1c 30 be 34 67 44 be cc 8d b5 be df 22 2c be
       -0.1719854 -0.19179994 -0.35459745 -0.16810177
000360 41 4b 93 be da c1 d4 be d7 a8 ad be 22 ba d9 bd
       -0.28768352 -0.41554147 -0.33917877 -0.10631205
000370 65 e1 38 be 96 c9 af be db 16 8a be 54 1d 0d be
       -0.18054731 -0.34333485 -0.26970562 -0.13780719
000380 c8 32 8c be b1 81 91 be 4f 8b 88 be 72 87 51 bd
       -0.27382493 -0.2841926 -0.26668784 -0.05115456
000390 ee 77 84 be b4 64 fb be f9 d7 40 3e b1 4d 5f be
       -0.2587275 -0.49100268 0.18832387 -0.2180698
0003a0 41 e4 ac be 8e 15 3c be 4e f5 2c bd ad ac 4b 3e
       -0.33767894 -0.18367597 -0.04222613 0.1989009
0003b0 b8 d8 c5 be 61 ef 6d be 44 9b 1b be 7b 13 00 3d
       -0.38641906 -0.23235847 -0.15195948 0.031268578
0003c0 e0 5d a5 be 54 d4 8f be f9 bc 16 3e 4b 76 ad be
       -0.32298183 -0.2809168 0.14720525 -0.33879313
0003d0 f0 a1 81 be 63 08 16 be 47 85 0e be 9c 27 39 be
       -0.2531886 -0.14651637 -0.13918029 -0.18081516
0003e0 f2 43 91 be b0 5f 05 bf bf 6e 9c be cc 68 f4 bd
       -0.2837215 -0.5209913 -0.30553243 -0.11934051
0003f0 71 d0 0a be 2a 8b 9e bd e3 26 f7 3d 94 53 57 be
       -0.13556077 -0.07741387 0.12067964 -0.21027976

weight f4 [128, 256]
000000 60 7f 08 be 50 c0 ea bd 00 a4 b8 bd 9e e6 5a 3e
       -0.1332984 -0.11462462 -0.090156555 0.21377036
000010 58 56 15 bd 13 fb 19 be eb 20 5c be ae 3f 6b 3c
       -0.036459297 -0.15037183 -0.21496932 0.014358444
000020 89 2a f9 bc 4e d0 17 3c 76 5d cd 3d f9 71 b9 3d
       -0.03041579 0.009265972 0.10027592 0.09054942
000030 44 9e a3 3b ad f7 02 3d 05 99 1b be ba 98 34 bc
       0.004993232 0.031974483 -0.15195091 -0.011022741
000040 19 0f bc be 9f 54 1a 3d f5 9a da bd 56 c0 a5 be
       -0.3673027 0.037678357 -0.10674087 -0.32373303
000050 d0 99 8f bf 05 73 c5 3d ac ab cc bc ce 52 98 3d
       -1.1218815 0.09641079 -0.024984203 0.07437669
000060 b7 cd 0e 3b c7 aa d8 3e d3 d8 62 bc f4 30 15 3d
       0.0021790096 0.42317793 -0.01384564 0.03642364
000070 a2 d6 41 bd 15 8c 37 3e 35 c7 c1 3d 56 5c 77 be
       -0.04732383 0.17924531 0.09461824 -0.24156317
000080 15 b1 38 be 85 13 66 3b 6f 7b 0a 3e 13 3b 9d 3e
       -0.18036301 0.003510685 0.13523649 0.30709133
000090 1d 09 38 3e 21 71 80 3e 63 99 a5 3d bf ad be be
       0.17972226 0.2508631 0.08085897 -0.37241933
0000a0 09 8a ac bd ac e6 61 3d 19 29 6e be e2 41 4d 3e
       -0.084247656 0.055151626 -0.23257865 0.20044664
0000b0 dc d8 bf bd ab da 3e 3e 0e 03 51 be 92 98 9e bd
       -0.093675345 0.18638103 -0.20411322 -0.07743944
0000c0 fe ab 3a bd 75 a0 ed 3d 70 ff 47 be 6a d1 12 bd
       -0.04557418 0.116028704 -0.19531035 -0.035844244
0000d0 42 41 9f bd 4c 77 91 be 2e 1f be bd bb 3d 72 bf
       -0.07776119 -0.2841133 -0.09283291 -0.94625443
0000e0 36 54 92 3e d4 16 e3 bd 89 96 90 bd f0 3d 74 bd
       0.28579873 -0.110883385 -0.07059962 -0.05962938
0000f0 d8 35 4f be 22 5e 1e 3e c9 c5 11 3e a8 4a a3 bd
       -0.20235384 0.15465596 0.14235605 -0.07973224
000100 2f e9 47 3d 09 46 69 3e 03 dd 40 3e fd 93 dc 3d
       0.048806366 0.22780623 0.1883431 0.10770414
000110 b7 fe 9a bc 2c fd 4d 3d 8a 84 e4 3d f1 84 88 be
       -0.018920286 0.05029027 0.11158092 -0.26663926
000120 d9 7d d8 3d 85 9d bd bd 26 a7 35 bd 9d b5 db bd
       0.105708785 -0.0925856 -0.04434886 -0.10727999
000130 48 7d 07 be 94 7b 1e be e1 5b 84 be 08 6a 74 3e
       -0.13231385 -0.15476829 -0.25851348 0.23868573
000140 40 79 0e 3e 4f f6 20 be 7f 86 5c 3e 50 47 f4 bd
       0.1391344 -0.1571896 0.21535681 -0.11927664
000150 9f 05 26 be a8 7d a0 3d d4 d2 25 3e ad eb fe 3b
       -0.16213082 0.07836467 0.16193706 0.0077795596
000160 e8 ab 0d be 2d 08 3c 3e 69 2a 67 be 2d fc d8 3c
       -0.13835108 0.18362494 -0.22574772 0.026487434
000170 61 06 d8 3d 93 7c 75 3d 3a 5b ce bd 09 a7 3c 3d
       0.10548092 0.059933256 -0.10075994 0.046057735
000180 5e d3 b5 bd fb 39 e1 bd a2 e2 0a be 52 a1 85 3d
       -0.08878206 -0.10997387 -0.13563016 0.0652491
000190 e1 41 2b 3e cc 1d a0 bc c6 ff 9e bc 14 82 42 bc
       0.1672435 -0.019545458 -0.019409072 -0.011871833
0001a0 24 70 13 be b1 b4 96 bc 41 b0 9c 3b 19 5d b8 bd
       -0.14398247 -0.018396707 0.0047817533 -0.09002132
0001b0 7f dd 8b 3e 4a ad b8 bd c2 61 68 bd 85 20 fe bd
       0.27317426 -0.09017427 -0.056733854 -0.12408546
0001c0 6a 7f 10 3d aa ad ae be cc 52 d6 be 91 0a b3 bd
       0.03527776 -0.3411687 -0.41860044 -0.0874225
0001d0 b9 73 03 be 14 ba 85 bd e8 bb e3 3d 5b c1 e6 bc
       -0.12837113 -0.06529632 0.11119825 -0.028168371
0001e0 89 65 ca 3d 93 88 1d be 18 c7 64 3d 9a 45 c2 3d
       0.098826475 -0.1538413 0.055853933 0.09485932
0001f0 ac 49 c1 bc 7c d3 27 3d c4 14 2b 3e 95 c3 1e 3c
       -0.0235947 0.04097317 0.1670714 0.009690185
000200 65 8f f2 bd 19 c7 06 be 5e 36 d6 bd 13 74 45 3e
       -0.118437566 -0.13161887 -0.104595885 0.1928256
000210 79 a4 ab be 0c 58 e2 3d 2b 70 8f bd 36 e2 b2 3c
       -0.3352392 0.1105195 -0.07003816 0.021836381
000220 08 20 ae 3e 16 9f d4 3d 00 cd cc bc f1 15 2a 3e
       0.34008813 0.10381906 -0.025000095 0.16609932
000230 cd 69 26 be 8e 7e ab bd 17 bb 9f 3e a8 ae 99 3d
       -0.16251297 -0.08373748 0.31197426 0.07504016
000240 d5 0e e0 bd 7b 85 e6 3b 30 49 ef bc c6 fd 9e be
       -0.10940329 0.007034955 -0.029209703 -0.3105299
000250 fd 04 1d be a5 d4 9b 3e b9 0a 09 bd 6e 9b b2 3d
       -0.15333934 0.30435672 -0.03345749 0.08721052
000260 d7 79 9d be d1 b5 41 bf 52 9f 16 be 25 b4 ff 3d
       -0.3075702 -0.75668055 -0.14709213 0.12485532
000270 09 c3 81 bc c1 89 1a 3e df 01 c3 3d 5c 3b d9 bd
       -0.01584007 0.15091611 0.09521841 -0.10607025
000280 ed 24 bf 3c bb b1 ac bd b2 80 05 3d 1f 68 a5 3d
       0.023333037 -0.08432337 0.032593437 0.080765
000290 b0 d2 14 be 21 d0 fc 3c 58 e0 b6 be ab 96 00 38
       -0.14533496 0.030860962 -0.35718036 3.06579e-05
0002a0 c4 26 03 3e ab 77 79 3e 2a 91 e7 bd f4 f9 2e be
       0.12807757 0.24362056 -0.11306985 -0.17087537
0002b0 0c c5 76 3e 31 aa 96 be 0e da 0c 3e 13 cd 11 be
       0.24098605 -0.2942672 0.13755056 -0.14238386
0002c0 41 13 8a be 56 31 0a be ea f5 07 bc a2 d3 60 3d
       -0.26967815 -0.13495383 -0.008298377 0.05488933
0002d0 20 8e 2f 3c 70 71 97 bd fa 0d 45 3d fc 6e 5f bc
       0.010715038 -0.07394683 0.048109032 -0.013637301
0002e0 88 ca 78 bc 11 ec 07 be 68 1c 2c be e6 0d 84 bd
       -0.015185006 -0.13273646 -0.16807711 -0.064479634
0002f0 81 c8 a8 3d 95 93 62 3d 7f 4e 40 be b8 e2 ec bd
       0.08241368 0.055316526 -0.18779944 -0.11566681
000300 7a 9d b6 3c ff 58 88 3d b9 ae 50 be 01 3e 76 3d
       0.022291888 0.066576 -0.20379151 0.060117725
000310 01 c7 10 3d d2 98 2e bd 14 ce e6 bc c2 0d a6 3e
       0.035346035 -0.04262621 -0.028174438 0.3243237
000320 09 b8 a1 3e fa 40 09 be e3 d6 53 bd f9 77 1a 3e
       0.3158572 -0.13403693 -0.051718604 0.15084828
000330 2c 47 1a be 20 92 91 3d 2c 1c 50 be b2 60 57 3d
       -0.15066212 0.07107949 -0.20323247 0.05258245
000340 13 9d be 3d f5 6e d5 bd 33 d8 83 3d 60 ad 96 3d
       0.09307303 -0.10421554 0.06437721 0.073572874
000350 a2 04 63 3e ab 94 3c 3d 65 e2 18 be 9f ed a4 3e
       0.22169736 0.04604022 -0.14930113 0.3221254
000360 6c e3 ca bd 0e 8b 91 3d 5e 19 58 3d ec 3d c1 3d
       -0.099066585 0.07106601 0.052758567 0.09435639
000370 b5 83 04 3e 5d 62 00 be ca 93 a4 bd 5d f3 7c bc
       0.12940867 -0.12537523 -0.08036001 -0.015438882
000380 78 53 3b be 5a 4e 7a 3d b9 29 8d 3e 3a a9 4f be
       -0.1829356 0.061109878 0.27570894 -0.20279399
000390 03 62 9c 3e c7 56 7f bd 04 c6 06 bc cf 86 81 bd
       0.30543527 -0.062338617 -0.008225922 -0.06324541
0003a0 27 ed 01 be 68 62 6e 3d f0 d8 8e bc 8e d3 ef 3b
       -0.12688123 0.058199316 -0.017437428 0.0073189205
0003b0 ea 45 8e bd 30 53 ad bd a2 ec 13 bd 7c 17 69 3d
       -0.06946929 -0.084631324 -0.036114343 0.056907162
0003c0 7a 49 cf 3d bd 4d 04 be 96 84 17 bd f6 24 9e 3d
       0.101214364 -0.1292028 -0.03699168 0.077218935
0003d0 53 4d 33 bc 54 d1 d7 3d d2 9b 00 be 34 22 25 be
       -0.0109437285 0.10537973 -0.1255944 -0.16126329
0003e0 e9 3d db 3d 52 fb 4c bd dd df c7 3d 60 81 20 bf
       0.10705168 -0.050044365 0.097594954 -0.6269741
0003f0 c3 21 92 bd 74 77 da bc b3 ba 9d be a4 66 80 3d
       -0.07135346 -0.026668288 -0.30806503 0.06269577

bias f4 [128]
000000 8a 2f e9 bd 6e be f7 be da 5f be be 6a c7 c0 bd
       -0.113860205 -0.48387474 -0.37182504 -0.09413035
000010 97 e8 48 be eb f3 a3 be 88 2a d1 be ae 75 22 be
       -0.19619976 -0.32022032 -0.4085276 -0.15865204
000020 35 93 ce be 04 06 a3 be c0 aa ec be 4f b7 2a be
       -0.40346685 -0.31840527 -0.46224022 -0.16671489
000030 0d fe d2 be 29 39 fa be 15 c9 be bd b6 5d 3e be
       -0.4120945 -0.48871735 -0.09315697 -0.18590435
000040 6c 35 b3 be 13 6a 9b be ee ed 78 be 19 5c 11 bf
       -0.35001695 -0.30354366 -0.24309513 -0.56781155
000050 f1 31 11 be f7 52 88 be 4f 92 62 be f7 00 f5 bd
       -0.14179207 -0.26625797 -0.22126125 -0.11963075
000060 cf 88 9f be 37 9a 0c be 5a 99 b2 be 2d 81 8c 3d
       -0.31159064 -0.13730703 -0.34882623 0.06860576
000070 0c 90 21 be ff 26 33 be 06 e1 c9 be e0 72 d6 3c
       -0.15777606 -0.17495345 -0.39429492 0.026177824
000080 03 6a 62 be f1 a1 2d bf b0 20 0d be 84 00 6d be
       -0.22110753 -0.6782523 -0.13782 -0.23144728
000090 1f 2b 97 be ea 35 f8 be 7d 91 97 be 0b fc 14 be
       -0.29525086 -0.48478633 -0.29603186 -0.14549272
0000a0 dc 3c 42 be 56 b5 99 be c4 d3 69 be f5 79 0d be
       -0.18968529 -0.3002116 -0.22834688 -0.13816054
0000b0 a2 80 f0 3d 8f 80 15 be 7d 2c 25 bc a1 6c 1b be
       0.11743285 -0.14599822 -0.010081408 -0.15178157
0000c0 b4 29 49 bc 0f 9e e4 be b5 2b 82 be 19 cd c5 be
       -0.012278009 -0.4465184 -0.2542397 -0.3863304
0000d0 c4 55 98 bd 78 7e a2 be 4c 80 32 be e9 85 e7 be
       -0.074382335 -0.31737113 -0.17431754 -0.45219353
0000e0 39 61 aa bd d7 e0 3d be 5d db 55 be 33 0c 3b bd
       -0.08319325 -0.18542801 -0.20884462 -0.04566593
0000f0 4c ea e0 be 34 3c 84 be a9 40 21 be f6 0c 0f bf
       -0.43928754 -0.2582718 -0.15747322 -0.5587915
000100 64 b3 b3 be 52 75 b7 be 78 d4 8d be 77 e3 6a be
       -0.35097802 -0.35831696 -0.27701163 -0.22938333
000110 c3 80 eb be c8 2b 1c be d6 cf e5 be 4a 2c 47 bf
       -0.45996675 -0.15251076 -0.4488513 -0.77801955
000120 51 5e 02 be f9 87 26 be de 5c 0d bf 13 28 fe bc
       -0.12731291 -0.16262807 -0.5521983 -0.031024968
000130 a5 32 e3 be 5f 27 22 be d2 74 20 be cf b7 12 be
       -0.44374576 -0.15835331 -0.15669563 -0.1432793
000140 90 69 be be b4 a6 ba be f1 7b ef bd 2c 68 6e be
       -0.37189913 -0.3645531 -0.11693562 -0.23281926
000150 70 8a cc bd 0a da 35 bf a4 6b 0d bf e8 34 3b be
       -0.09987342 -0.71035826 -0.5524237 -0.18281901
000160 39 59 81 be 4a 01 a5 be 1e 8b 45 be d9 97 0a bf
       -0.25263384 -0.32227546 -0.1929135 -0.5413795
000170 ce 2b 89 be 65 0c 17 bf e7 7b 48 be aa 91 8e bc
       -0.26791233 -0.5900329 -0.19578515 -0.017403442
000180 66 97 ed bd 09 be 29 be 96 ba 08 bf 5b f8 c0 be
       -0.116011426 -0.16576399 -0.5340971 -0.3768948
000190 ed 56 6e be d5 01 f5 be 23 15 7a be b9 36 8b bd
       -0.23275347 -0.4785296 -0.24422126 -0.06797547
0001a0 79 97 c5 be 5f 83 0c be 1d b7 e6 be 6f 14 fd be
       -0.38592127 -0.13721989 -0.4506158 -0.49429652
0001b0 95 fe cc be 13 de 8b be 55 7b 44 be 72 9c b0 be
       -0.4003798 -0.27317867 -0.19187672 -0.34494358
0001c0 63 11 e4 be df 00 39 be 3b 18 2a be d6 68 9d be
       -0.44544515 -0.18066739 -0.16610806 -0.30744046
0001d0 4d 52 af be 0d 77 71 be 95 ff cf be 09 30 0a be
       -0.34242478 -0.2358057 -0.4062468 -0.13494886
0001e0 3e b6 2b be b0 04 0c bf 8f 66 31 be 94 87 fc be
       -0.16768739 -0.5469465 -0.17324279 -0.49322188
0001f0 47 45 93 be 37 53 89 be 76 41 86 be bf 5f dd be
       -0.28763792 -0.268213 -0.26221818 -0.4323711

weight f4 [12, 128]
000000 bb 18 e1 3d 3a 6c ca bd 8f 5d 76 ba dd 27 94 bd
       0.10991045 -0.09883924 -0.00093980966 -0.07234166
000010 be 70 ac 3c 19 a8 ca 3c 57 c8 58 3c ab 60 b1 3d
       0.021049853 0.024738358 0.0132313585 0.08661016
000020 57 2d ff 3b 97 45 8b 3e 02 5e bf 3c 85 e0 be bd
       0.0077873874 0.2720153 0.023360256 -0.093201675
000030 c4 29 3c bd a0 a1 0f 3d 0e c3 13 3a 80 d5 60 3d
       -0.04593827 0.035066247 0.00056366704 0.05489111
000040 b5 ff 2c 3d 95 7e 6c bc bc d5 3a bd 0d 34 f7 bc
       0.04223605 -0.014434476 -0.04561399 -0.030176187
000050 83 42 0d bc a4 6b 9a 3d a2 1a bc 3d 43 fa 4b 3b
       -0.008621815 0.07540062 0.09184767 0.003112451
000060 e4 32 64 3c 39 fc dd bd a4 86 d8 3c 02 11 93 bc
       0.013928149 -0.10839123 0.02643139 -0.017952446
000070 72 08 17 3c d0 98 9d bc 46 62 a4 3d 60 43 ad bb
       0.009218322 -0.019237906 0.08026557 -0.0052875727
000080 da ab 1d 3d c1 74 06 3e 1b 95 86 bc 17 47 b4 bc
       0.03849397 0.13130476 -0.01642852 -0.022006555
000090 72 b0 7a bb 51 52 0f be 40 42 4e 3d d6 fe 30 be
       -0.0038252142 -0.13996245 0.05035615 -0.17284712
0000a0 93 92 54 3d 63 fb 02 3d d6 7d d2 3c 7c 51 06 3d
       0.051897597 0.031978022 0.025694769 0.032792553
0000b0 a8 9e 8b 3d aa 78 70 bd 65 9d 67 3c 68 53 82 3d
       0.06817371 -0.058708824 0.014136647 0.06363565
0000c0 0e e3 46 bd 4a 9a 2e 3d 3d c5 1d 3d a9 ce 3c 3c
       -0.04855638 0.04262761 0.03851818 0.011523881
0000d0 6e ef bd 3b d0 f9 b5 bc c8 c8 7f bc 48 f9 82 bc
       0.0057963645 -0.022213846 -0.015611835 -0.015988007
0000e0 90 8b f9 3b 6c 45 fe ba 68 09 f4 3d 88 83 01 bc
       0.007615514 -0.0019399351 0.119158566 -0.007904895
0000f0 90 9e 29 3d c6 55 e8 3c 56 15 d0 3c 3d 38 4e 3b
       0.041410983 0.028361212 0.025400799 0.0031466626
000100 f9 db 23 bc c5 67 db bd 32 2b 11 bb b9 ba 22 be
       -0.010001176 -0.10713152 -0.002215099 -0.15891542
000110 7b 94 24 bd 04 c7 cb 3c a2 c1 41 3d 1b 6e 09 bd
       -0.040180665 0.024875171 0.047303803 -0.03355227
000120 5c 1e c5 bb 34 fb 9e 39 a8 d7 60 3c 8c e1 f0 3c
       -0.006015582 0.0003032327 0.013723291 0.029404424
000130 79 68 4e bd e4 3e ca bc cb e2 5d bc 15 ae 23 bb
       -0.0503926 -0.024688192 -0.013542841 -0.0024975587
000140 53 c1 0a 3d 08 b3 b5 bd fb 5c 80 3c c1 82 a6 3c
       0.033875775 -0.08872038 0.015669337 0.02032602
000150 a9 d2 ff bc 5b 67 1b 3c 00 34 b7 bd 44 c3 62 3b
       -0.03122838 0.009485091 -0.08945465 0.003460125
000160 84 23 20 bd eb 8a 7c bd 36 47 7f 3b 32 89 43 3c
       -0.03909637 -0.06165592 0.0038952357 0.011934565
000170 f4 67 a0 3a a6 81 76 3d 03 93 e2 3c 21 e9 0e bd
       0.0012238012 0.060182236 0.027657991 -0.034890298
000180 ae c4 d4 3c da b8 a6 bc 30 d3 11 bd cb 4e 85 3c
       0.02597269 -0.020351816 -0.035601795 0.016272923
000190 a9 2a eb bb 8c 7f b8 bd 09 1c 1d bc 32 9d 0d bb
       -0.0071767163 -0.09008703 -0.009589204 -0.0021608588
0001a0 9c 4b 53 3c 66 39 33 3d 4c eb 84 3c e5 15 56 3d
       0.012896445 0.04375591 0.01622548 0.052266974
0001b0 ce 64 a1 3d 0f fa f4 bc 17 96 50 3e a3 3e a7 bc
       0.07880555 -0.029904393 0.20369755 -0.02041561
0001c0 79 5a e5 3d 83 30 44 3b 5d 28 4c bb 8a 61 80 3b
       0.11198897 0.0029936142 -0.0031151988 0.0039178776
0001d0 c3 f1 43 bd 09 0a 00 bd 38 a0 51 bd 10 d9 8f bd
       -0.047837984 -0.03125957 -0.051178187 -0.07023823
0001e0 d6 f8 29 bc 3b fd a3 3d da 20 88 bc 5a 09 ae bc
       -0.0103742685 0.08007284 -0.016617227 -0.021244694
0001f0 c7 48 86 bd 44 77 9d be ff 1f 54 3c bb b5 9f bd
       -0.0655685 -0.30755055 0.012947082 -0.07798334
000200 31 58 4f bd a3 32 f9 bd d7 af 10 3b a4 77 69 b9
       -0.050621215 -0.12167861 0.0022077465 -0.00022265181
000210 a4 78 29 bc d8 e5 01 bd f1 6b 5f 3d 37 8d de 39
       -0.010343704 -0.031713337 0.0545463 0.00042448353
000220 85 31 f8 3b 4e 94 37 3e e4 f5 d3 3b 7a 08 8d bc
       0.0075742626 0.17927667 0.0064685214 -0.017215956
000230 a8 ca 99 3c ac 20 9d ba c6 cc 3f be 45 0f 14 bb
       0.018773392 -0.0011987886 -0.18730459 -0.002259211
000240 8d 3b 03 3e 1f d8 e4 bc b7 d6 53 3d 21 19 fa bd
       0.12815686 -0.027935086 0.05171844 -0.12211824
000250 4b 23 7f 3c bd c9 5d bd 0d 44 41 3d ae 63 48 bb
       0.015572379 -0.05414747 0.04718404 -0.0030576992
000260 b2 1e 9e bd 24 4d 82 bc 1c 47 8e bc 2a dd 5e 3c
       -0.077206984 -0.015905924 -0.017367892 0.013602534
000270 88 4d 16 3c 9a 32 c2 bd cd fc 45 bd 89 b6 08 3d
       0.009173758 -0.09482308 -0.048336793 0.033377204
000280 d2 ff 30 3d 96 3e b9 bd 6f 46 86 3b c6 c7 cf bb
       0.04321272 -0.090451404 0.004097752 -0.0063409535
000290 64 25 ed bb 9b 38 04 3e d2 15 4f bc 57 91 b6 3b
       -0.0072371233 0.12912218 -0.01263948 0.005571525
0002a0 f0 b7 d8 3c e4 6b ad bc 22 79 19 bd 68 bf 9f 3d
       0.026454896 -0.02116961 -0.037469037 0.0780018
0002b0 e5 60 0c bd cc 90 47 3c 91 8d b1 ba 85 dc 45 bd
       -0.034272093 0.012180518 -0.0013546218 -0.048306007
0002c0 b6 bd 1a 3d df 6c 49 bc f9 72 a5 bb 1e b0 98 bc
       0.03777858 -0.012294023 -0.005049106 -0.018638667
0002d0 02 4c 87 3c 43 ea 91 bc 36 16 d5 3d e8 9c 3e bc
       0.016515736 -0.0178119 0.10404627 -0.011634089
0002e0 4a f3 07 3d 03 3a c2 3c 4f 90 d0 bd 11 22 90 3c
       0.033191003 0.023709303 -0.10183775 0.01759437
0002f0 7b 8e 4c bd f0 ee e6 3c ce d7 47 3b e3 31 db bd
       -0.049940567 0.028190106 0.003049362 -0.107028745
000300 cf 34 8e 3b 17 0e 3b bc c4 ae 54 bd 43 4a e0 3a
       0.0043397914 -0.0114169335 -0.051924482 0.0017111975
000310 c2 8f 87 bd 29 04 b9 3d 2b ce 22 be 2c b8 94 3b
       -0.066192165 0.090339966 -0.1589896 0.0045385566
000320 90 c8 fe bc bc af 2a bb 07 db 61 3b ab e9 32 bc
       -0.031101495 -0.0026044687 0.0034462826 -0.010919969
000330 6f 9f 1b 3d e7 45 0e be 13 1e fb b9 f1 14 6f bc
       0.037993845 -0.13893853 -0.00047896858 -0.014592395
000340 cb 78 92 bc 0a 21 b2 3c 14 07 f9 bb 17 df bf bb
       -0.017879864 0.02174427 -0.0075997207 -0.005855452
000350 dc d9 81 bb a2 3b 47 bc 2a a1 f8 3c cd 4f 96 3c
       -0.0039627384 -0.012160214 0.030350287 0.018348599
000360 3d a7 35 bb 76 4e 1c bc 41 23 8e ba 89 fd 6a 3d
       -0.002771809 -0.009540191 -0.0010844247 0.057370696
000370 b3 82 f8 3c e1 ed 41 3c 93 22 b7 bb fb 4a 12 3c
       0.03033576 0.0118365 -0.0055888384 0.00892901
000380 96 73 79 3c f6 34 7a bc 27 67 26 3d e6 19 37 bc
       0.015225312 -0.015271416 0.040625717 -0.011175608
000390 ba 1b 10 bb f0 48 95 bd d2 ce 9f 3c cb dd cb bc
       -0.0021989183 -0.07289302 0.0195078 -0.024886033
0003a0 77 85 a1 bc 2f f7 f3 3b 9b 98 10 bd df 2a 66 bc
       -0.019716961 0.007445238 -0.035301786 -0.014048307
0003b0 b2 42 ec b9 ae 01 a3 3d dc 55 d8 3b 35 07 12 3d
       -0.0004506312 0.07959305 0.006602032 0.035651404
0003c0 6b a4 fa 3d d6 70 33 3b 9c 7c f0 bc 47 de 44 3e
       0.122383915 0.0027380488 -0.029356293 0.19225417
0003d0 39 f2 b9 bc 59 bb f5 3d 7a ea 7b 3b 8b c9 fd bb
       -0.022698509 0.11998624 0.003843932 -0.007744973
0003e0 97 0d a6 bb 23 15 f1 3c 6d 9c 6f 3d 7f b8 bb bd
       -0.005067538 0.029429024 0.05849879 -0.09166049
0003f0 6e 9c 06 3e fc 80 8a 3e 49 90 f3 bb 42 ed 26 bd
       0.1314561 0.27051532 -0.0074329716 -0.04075361

bias f4 [12]
000000 01 28 5e bd 83 d9 03 3e 4d 07 eb bc 61 2d f0 3c
       -0.05423737 0.12875943 -0.028690005 0.029318513
000010 f9 82 94 3e 11 6f 21 be be 79 33 be 9f f2 2f 3e
       0.29006174 -0.15765025 -0.1752691 0.17182396
000020 46 ad 56 be 0f 96 1c 3e 00 9f 8f 3d 2e 8a 52 be
       -0.20964536 0.15291618 0.07012749 -0.20560524
