src/rl_sar/policy/l4w4/robot_lab/policy.pt (torch, 796064 bytes, 8 tensors)

weight f4 [512, 57]
0.16039944 -0.1900893 1.220468 -0.44167325 -0.54737633 0.24060373 0.15605126 0.06634741
-0.34293666 1.3052152 0.008549405 -0.14533152 0.45527908 -0.17103423 -0.2622999 0.43106607
0.32638276 -0.38398606 -0.32384238 0.34083205 0.028036676 -0.7005541 -0.41830742 0.34107462
-0.7589663 0.49020958 -0.47805756 -0.299739 0.074077815 0.42616084 0.14771421 0.69708437
-1.1870555 -0.788345 -0.06519336 0.97864544 0.27004984 -0.37821704 0.2876642 -0.049610827
0.29643717 0.012493334 -0.028086536 -0.014560575 -0.04034067 0.025223473 -0.04814548 -0.01032994
0.010288548 0.0029782765 -0.031673774 0.029698376 0.007838163 0.05245587 -0.011335125 -0.02025193
-0.021491356 0.28347102 -0.02182721 0.002590819 -1.2293538 0.25882968 0.61702853 -0.3975214
-0.3388485 -0.1995489 0.2306087 -0.055683427 0.21263978 0.81190014 -0.31421474 -0.44144204
-0.24096063 -0.053956527 -0.33082488 -0.49081 -0.8191062 -0.4149996 0.17034271 -0.054640263
0.26366383 -0.09668572 -0.42764515 0.13238901 0.5988366 -0.42445365 0.39456916 -0.30516186
0.63904697 -0.30772325 0.54467314 0.9422526 0.3461492 -0.31619012 0.8306283 0.37097713
0.2594994 0.013269128 -8.5338135e-05 -0.0710254 -0.007386383 0.07243029 -0.0776916 0.0517431
0.097254604 0.042089995 0.010435901 -0.010883692 -0.028403336 0.028374288 0.016687412 -0.045208443
0.017004972 0.05996413 -0.16526304 -0.7754087 0.9473299 -1.3169867 -0.05035533 0.39770514
0.31689924 0.19084486 -0.13633895 1.2109321 -1.427031 -0.3759616 0.71204996 0.19941632
-0.46186244 0.39293766 -0.1797181 -0.08238842 -0.50879693 0.4378578 -0.009151548 -0.2259653
-0.38126984 0.48196474 -0.20457369 -0.0514142 -0.65646505 -0.2264334 -0.115117185 0.10778778
0.61862516 -0.11509004 0.49141976 0.677673 -0.024257092 -0.2225245 0.072893694 0.036178336
0.06292532 -0.10802486 0.2115801 0.06542635 -0.0028780599 0.1331735 0.13322629 0.044182185
-0.03453813 0.056713775 -0.041247595 -0.043166444 0.06866034 0.064642794 0.026233355 -0.0090754945
0.0029058973 0.003741744 -0.028470667 -0.5943765 -0.68078816 -0.4220734 -0.82063204 0.45678285
0.040107783 0.16877 -0.15012978 -0.34473294 -0.019507982 -0.004966082 -0.20219836 -0.8543673
-0.365699 0.30315143 -0.7516321 0.4186348 0.016654609 0.223862 0.32781643 0.21409285
-0.3372765 -0.45251924 -0.23188044 0.3356406 -1.7133222 0.22860715 -0.95703477 -0.35850075
0.11975251 0.33724254 0.06914391 0.032041576 -0.13462466 -0.20901933 -0.5504655 0.22762589
-0.20748377 -0.051882435 0.047296338 -0.18774815 0.04101019 -0.06151526 0.15515316 0.03450568
0.02778326 0.026763065 0.023921646 -0.0113871135 -0.03360379 0.04176338 0.053582724 0.018076573
0.009877065 0.020937674 -0.02015489 -0.038488876 0.4944689 0.14641318 0.6129377 0.46485195
-1.7334378 0.17214225 -0.07234117 0.3728635 -0.35223448 0.69313294 -0.62969196 0.34821305
0.4927853 -0.29075298 0.036227793 0.30393592 0.71516216 -0.3158215 -1.5577544 0.37526378
0.3758801 -0.071361125 0.108595036 0.6187508 0.5616574 0.14993016 -0.5727181 -0.5530468
00000000: c03f 243e c5a6 42be 4c38 9c3f ff22 e2be
00000010: db20 0cbf d360 763e e7cb 1f3e 27e1 873d
00000020: 6595 afbe 4b11 a73f ce12 0c3c c9d1 14be
00000030: 571a e93e 9923 2fbe 2c4c 86be b1b4 dc3e
00000040: a41b a73e d299 c4be abce a5be 8a81 ae3e
00000050: 2cad e53c 8357 33bf 642c d6be 55a1 ae3e
00000060: 9e4b 42bf c0fc fa3e f6c3 f4be 6477 99be
00000070: 1cb6 973d c131 da3e 6542 173e 1f74 323f
00000080: 6ff1 97bf fad0 49bf 1984 85bd 8288 7a3f
00000090: f943 8a3e aaa5 c1be b948 933e b934 4bbd
000000a0: 9dc6 973e d7b0 4c3c bc15 e6bc 7a8f 6ebc
000000b0: 423c 25bd 75a1 ce3c 3234 45bd e93e 29bc
000000c0: 4c91 283c 302f 433b 5cbc 01bd 024a f33c
000000d0: a36b 003c f7db 563d f6b6 39bc 60e7 a5bc
000000e0: a40e b0bc 1d23 913e face b2bc bbca 293b
000000f0: 775b 9dbf 5385 843e 95f5 1d3f ed87 cbbe
00000100: 8d7d adbe 8c56 4cbe b024 6c3e 4e14 64bd
00000110: 3ebe 593e b0d8 4f3f c1e0 a0be b104 e2be
00000120: 62be 76be 8501 5dbd e161 a9be 734b fbbe
00000130: f2b0 51bf d47a d4be 526e 2e3e 78ce 5fbd
00000140: f2fe 863e 2a03 c6bd 4ef4 dabe fc90 073e
00000150: 5b4d 193f fd51 d9be f804 ca3e 2d3e 9cbe
00000160: 9598 233f e78d 9dbe b36f 0b3f 7737 713f
00000170: 783a b13e ace3 a1be 0ea4 543f b7f0 bd3e
00000180: 1bdd 843e c266 593c 90f7 b2b8 c475 91bd
00000190: 7909 f2bb 5556 943d c61c 9fbd 93f0 533d
000001a0: 6c2d c73d 8f66 2c3d 57fb 2a3c 8351 32bc
000001b0: 1dae e8bc 3271 e83c 0ab4 883c 7d2c 39bd
000001c0: 034e 8b3c f39c 753d b73a 29be 2f81 46bf
000001d0: 3684 723f 0593 a8bf 6441 4ebd 02a0 cb3e
000001e0: 9e40 a23e d66c 433e 709c 0bbe d3ff 9a3f
000001f0: f4a8 b6bf 0a7e c0be e848 363f cb33 4c3e
00000200: 3c79 ecbe 202f c93e 0608 38be 43bb a8bd
00000210: 8440 02bf e62e e03e 60f0 15bc 7363 67be
00000220: cd35 c3be 15c4 f63e c47b 51be b297 52bd
00000230: 180e 28bf 28de 67be 8fc2 ebbd d7bf dc3d
00000240: 385e 1e3f 54b4 ebbd 5f9b fb3e fa7b 2d3f
00000250: cfb6 c6bc 76dd 63be 4a49 953d bc2f 143d
00000260: fdde 803d 233c ddbd 74a8 583e 40fe 853d
00000270: d59d 3cbb a25e 083e 796c 083e 61f8 343d
00000280: db77 0dbd b44c 683d 3df3 28bd 4ccf 30bd
00000290: cb9d 8c3d 7163 843d 55e7 d63c 62b1 14bc
000002a0: de70 3e3b 0c38 753b 513b e9bc 0f29 18bf
000002b0: 2248 2ebf 011a d8be f114 52bf 71df e93e
000002c0: 0f48 243d 0bd2 2c3e 9fbb 19be d680 b0be
000002d0: 34cf 9fbc 84ba a2bb 160d 4fbe d1b7 5abf
000002e0: e63c bbbe aa36 9b3e f66a 40bf 4d57 d63e
000002f0: 3f6f 883c 153c 653e 8ed7 a73e 283b 5b3e
00000300: 81af acbe 9ab0 e7be 1172 6dbe 16d9 ab3e
00000310: 244e dbbf fe17 6a3e 3b00 75bf 698d b7be
00000320: ce40 f53d 0eab ac3e 539b 8d3d 073e 033d
00000330: 0cdb 09be 2a09 56be 4feb 0cbf c316 693e
00000340: a076 54be ad82 54bd ceb9 413d 0d41 40be
00000350: 4dfa 273d 6df7 7bbd 78e0 1e3e d455 0d3d
00000360: b899 e33c 373e db3c 54f7 c33c 0491 3abc
00000370: 21a4 09bd 1410 2b3d 8f79 5b3d 5215 943c
00000380: 6ad3 213c 7c85 ab3c de1b a5bc 83a6 1dbd
00000390: 072b fd3e 56ed 153e 7ce9 1c3f 1301 ee3e
000003a0: 4ae1 ddbf 0f46 303e 9b27 94bd f7e7 be3e
000003b0: 1458 b4be 2971 313f 7e33 21bf fb48 b23e
000003c0: 5b4e fc3e 93dd 94be 9863 143d 7d9d 9b3e
000003d0: de14 373f 5bb3 a1be 7f64 c7bf 9322 c03e
000003e0: 5b73 c03e c825 92bd 1367 de3d 7466 1e3f
000003f0: c8c8 0f3f 4b87 193e a79d 12bf 7a94 0dbf

bias f4 [512]
-0.18739946 -0.09263474 -0.3590488 -0.09848768 0.0022341544 -0.3734728 -0.020125622 -0.58855915
-0.12932684 -0.53495175 -0.23731275 -0.1822581 -1.3905318 -0.21624266 -0.42598346 -0.2617144
0.12434378 -0.10706855 -0.073463224 0.20968945 0.32429427 -0.63871735 -0.17712125 -0.2007631
-0.3654536 -0.11300865 -0.83077306 -0.03483337 -0.33599395 -0.7526011 0.10914884 -0.54804665
-0.11222451 -0.33309138 -0.19037312 -0.37503088 -0.50370693 0.24307083 -0.1991501 -0.10451127
-0.102253355 -0.4143903 0.049742725 -0.15431033 0.38771912 0.059270058 -0.37874356 -0.35372666
-0.7249493 0.3687403 -0.08007328 0.19831303 -0.678728 0.0027070276 -0.057628307 0.27053508
-0.35407773 -0.1618862 -0.14246196 0.07676579 -0.11191243 -0.14126484 0.017548071 -0.062977076
-0.45708758 -0.6308981 0.0024370684 -0.5955988 0.17639568 0.12512602 -0.16137023 -0.33224085
-0.11989817 -0.028900437 -0.26881647 0.05182887 -0.108722255 -0.4039476 -0.11455827 -0.15913065
-0.19142246 -0.54127675 -0.073057376 -0.27966872 -0.8760349 0.17706779 -0.10065549 -0.9839976
0.009981223 -0.093921006 -0.11313622 -0.38529578 0.38505843 -0.16581923 -0.44578025 -0.32781228
-0.1731429 -0.16497901 0.058472853 -0.2925815 -0.20382465 -0.057252143 -0.13212073 -0.38572493
-0.41611475 -0.6456998 0.12768207 0.14710163 -0.36493307 -0.1577281 -0.3229226 -0.028915474
0.19930975 -0.32967323 -0.18282025 -0.31520188 0.27857155 0.008536029 -0.59112775 -0.2938206
0.07988808 0.4169987 -0.037234254 -0.08117205 0.6155115 -0.029711157 -0.5458424 0.046779238
-0.2819289 -0.77279687 -0.016878989 -0.17542464 -0.3118108 -0.10814177 -0.5081192 -0.69889224
-0.11153145 -0.46515822 -0.76410156 -0.7386685 -0.17543973 0.22738451 -0.058095675 0.23991962
-0.17283098 0.034932893 -0.5589974 -0.67378175 -0.071732566 -0.10815502 -0.5476972 -0.05566306
-0.28476077 0.45052254 -1.0118074 -0.21870317 -0.20687006 0.40081742 -0.115460314 -0.4928657
0.45027494 -0.30987558 0.35431722 -0.28825924 -0.14611813 -0.007922395 -0.43137184 0.060164183
-0.2949477 -0.72085536 -0.061095864 -0.10464759 0.18476605 0.028668635 -0.51963466 0.08131671
0.23025256 -0.33249322 -0.44603866 -0.5770566 0.1584341 0.0905173 -0.24968348 0.16376865
-0.780023 -0.15327252 -0.43075985 0.012291881 -0.46559998 -0.19609772 0.20322841 -0.79158306
-0.5511329 -0.100645386 -0.11992009 0.061138712 -0.13357052 0.31738538 -0.06996074 -0.22961654
-0.4030312 -0.14389919 -0.16769226 -0.52593094 -0.31824416 -0.57873356 0.09182491 -0.2673872
-0.6132537 -0.69761294 -0.45378384 0.061838996 -0.18978558 -0.010668945 -0.101242065 -0.15808687
-0.30289763 -0.34027183 -0.39663917 0.014776314 -0.7319928 -0.35005692 -0.0628653 0.11298319
-0.7803344 -0.3497142 -0.15397789 -0.72637415 -0.43107852 -0.20937939 -0.23363602 -0.6970899
-0.5937308 0.026860723 -0.693379 -0.18199988 -0.29669634 -0.08352096 -0.1982549 0.58838946
-0.15094951 -0.12351816 -0.030673444 0.67028844 0.12469153 -0.177689 -0.2525073 -0.40782
-0.47504768 -0.26614147 0.6456552 -0.35021472 -0.11280914 0.013900266 -0.17612056 -0.6174021
00000000: a5e5 3fbe 48b7 bdbd 3fd5 b7be e9b3 c9bd
00000010: e46a 123b d437 bfbe 7dde a4bc d0ab 16bf
00000020: 416e 04be 99f2 08bf 1d02 73be dea1 3abe
00000030: f2fc b1bf b76e 5dbe 811a dabe 6eff 85be
00000040: f4a7 fe3d c246 dbbd e373 96bd d5b8 563e
00000050: e609 a63e fb82 23bf 465f 35be d894 4dbe
00000060: bc1c bbbe 1471 e7bd 8bad 54bf 70ad 0ebd
00000070: 6607 acbe 77aa 40bf 6d89 df3d c94c 0cbf
00000080: f7d5 e5bd f48a aabe 2cf1 42be 0c04 c0be
00000090: f0f2 00bf 8fe7 783e 01ee 4bbe 010a d6bd
000000a0: 356a d1bd f72a d4be 07bf 4b3d 8703 1ebe
000000b0: 1f83 c63e 29c5 723d adea c1be a91b b5be
000000c0: 4796 39bf 87cb bc3e 76fd a3bd 9212 4b3e
000000d0: 1ec1 2dbf 6368 313b a90b 6cbd 9383 8a3e
000000e0: ad49 b5be 7fc5 25be 8ce1 11be 6237 9d3d
000000f0: 5832 e5bd bba7 10be f9c0 8f3c 20fa 80bd
00000100: 6207 eabe 8a82 21bf 39b7 1f3b 2a79 18bf
00000110: 12a1 343e 0921 003e 3d3e 25be 791b aabe
00000120: 2c8d f5bd 9cc0 ecbc 50a2 89be 824a 543d
00000130: c6a9 debd 38d2 cebe 879d eabd 25f3 22be
00000140: 4004 44be 1d91 0abf 1b9f 95bd bd30 8fbe
00000150: d343 60bf 4251 353e 7724 cebd 44e7 7bbf
00000160: 4988 233c a859 c0bd f6b3 e7bd 7d45 c5be
00000170: 6126 c53e 84cc 29be 4f3d e4be 03d7 a7be
00000180: 5f4c 31be 42f0 28be 3b81 6f3d 3ecd 95be
00000190: 69b7 50be 3981 6abd a84a 07be bd7d c5be
000001a0: fe0c d5be 954c 25bf 17bf 023e cfa1 163e
000001b0: 82d8 babe 7a83 21be 1c56 a5be 25e0 ecbc
000001c0: db17 4c3e eeca a8be 3b35 3bbe 2462 a1be
000001d0: eea0 8e3e b3da 0b3c 2654 17bf a76f 96be
000001e0: 5d9c a33d db80 d53e f282 18bd 883d a6bd
000001f0: 2992 1d3f d064 f3bc 54bc 0bbf 969b 3f3d
00000200: fc58 90be 04d6 45bf ce45 8abc 84a2 33be
00000210: aaa5 9fbe 6f79 ddbd 1a14 02bf 9aea 32bf
00000220: 9a6a e4bd 3829 eebe 299c 43bf 6119 3dbf
00000230: 79a6 33be 7cd7 683e bbf5 6dbd 7dad 753e
00000240: 9bfa 30be cb15 0f3d 741a 0fbf f67c 2cbf
00000250: 86e8 92bd 6180 ddbd e235 0cbf f3fe 63bd
00000260: 2acc 91be e4aa e63e e882 81bf b9f3 5fbe
00000270: bfd5 53be f137 cd3e 7576 ecbd e558 fcbe
00000280: 708a e63e 03a8 9ebe 1169 b53e b796 93be
00000290: fe9f 15be efcc 01bc c5dc dcbe b86e 763d
000002a0: 6303 97be fa89 38bf a83f 7abd 7a51 d6bd
000002b0: 5033 3d3e 7cda ea3c c706 05bf 6089 a63d
000002c0: 54c7 6b3e 8d3c aabe 2e5f e4be fbb9 13bf
000002d0: 8c3c 223e 2261 b93d 07ad 7fbe f8b2 273e
000002e0: 96af 47bf 79f3 1cbe 8e8c dcbe e363 493c
000002f0: 1f63 eebe d7cd 48be 1c1b 503e 30a5 4abf
00000300: 0c17 0dbf 2b1f cebd aa98 f5bd 966c 7a3d
00000310: b6c6 08be 5680 a23e 9447 8fbd 9920 6bbe
00000320: 1b5a cebe 4f5a 13be 85b7 2bbe 69a3 06bf
00000330: e6f0 a2be e227 14bf b30e bc3d fae6 88be
00000340: 32fe 1cbf c396 32bf 5b56 e8be e34a 7d3d
00000350: 2757 42be cccc 2ebc 0058 cfbd 86e1 21be
00000360: 6615 9bbe 1c38 aebe 4a14 cbbe 5a18 723c
00000370: e163 3bbf a93a b3be 86bf 80bd bb63 e73d
00000380: ffc3 47bf bd0d b3be 61ac 1dbe a8f3 39bf
00000390: 53b6 dcbe 8d67 56be 483e 6fbe 7c74 32bf
000003a0: befe 17bf 050b dc3c 4981 31bf 2d5e 3abe
000003b0: 95e8 97be 090d abbd 5503 4bbe b1a0 163f
000003c0: 8292 1abe 17f7 fcbd e046 fbbc 0698 2b3f
000003d0: 465e ff3d 1bf4 35be a348 81be c8cd d0be
000003e0: 7339 f3be b243 88be a949 253f 584f b3be
000003f0: 7a08 e7bd f1bd 633c f358 34be 100e 1ebf

weight f4 [256, 512]
0.32474166 -0.011155742 0.2798114 0.24398576 0.20457378 0.25682557 0.14617722 -0.24251059
-0.21884575 -0.38132015 0.06613618 0.5393393 -0.0059259715 -0.080005795 -0.11743403 -0.14403813
-0.13572896 0.08474654 -0.46942392 -0.54544044 -0.23830211 0.3419282 -0.12786193 0.21433543
-0.53049064 -0.1055428 -0.085262895 -0.2586839 0.1454648 0.5901581 -0.29795745 0.013801341
-0.063841075 0.08171355 -0.46750733 -0.017178219 0.11311373 -0.18199682 -0.01497561 -0.42094088
-0.09881879 0.05665852 0.21350256 -0.15724021 0.0116830245 0.027145106 -0.11365251 -0.34148607
0.46955726 0.08794694 -0.3964806 0.21168922 -0.28985015 0.16580892 -0.36692622 0.2417875
-0.3344997 -0.020103294 -0.14561349 -0.51019 0.045484304 -0.3669113 -0.0036117663 -0.26447567
-0.37191188 0.07638415 -0.2670868 0.07560403 -0.2750937 -0.0878739 -0.47519344 0.51981574
-0.40101773 -0.3050285 0.06324647 -0.3104899 0.07109643 0.079567716 -0.03873057 -0.096051
-0.18513437 0.16244479 0.16538554 -0.2500402 0.075295985 0.15209103 0.06360303 -0.016106412
-0.14013842 0.33159694 0.024782233 -0.48383483 -0.24064665 0.27422303 -0.33710456 0.12147443
-0.098534554 -0.3224299 -0.23378508 -0.2495118 0.031958845 0.0017289816 0.07421727 -0.23419522
0.25414094 0.18594885 -0.039086442 -0.3319265 -0.090603955 0.0011813943 0.057979118 -0.2072619
-0.079612 -0.20392251 -0.10606907 0.2806684 -0.16073589 -0.20844263 0.17029631 0.059236668
0.07933913 0.14627516 -0.27530792 -0.02663476 -0.15185289 0.031594034 -0.11797336 -0.36751217
-0.02494999 0.1939557 0.048896868 0.032671727 0.0124608865 0.1022493 0.035344094 0.16797869
-0.04213633 -0.30828664 0.03492653 -0.25338522 -0.12967151 -0.46447507 -0.060648806 0.03643327
0.15549058 0.1589951 0.37011752 -0.020078823 0.25279915 -0.10422042 0.060371343 0.19054277
-0.087713376 -0.26001647 -0.04200184 -0.26554263 0.11637375 -0.1361724 0.036957007 0.26614752
-0.116812564 0.3316713 -0.18801938 0.29326963 -0.22038949 -0.0775516 -0.04521786 -0.22854877
0.27136707 0.068974875 -0.025421092 -0.4064887 0.17440096 -0.25477785 0.020571811 -0.07001946
0.03669236 -0.120082304 0.02463389 -0.14542606 0.07774575 -0.23765762 0.09665175 0.10225049
-0.06850198 0.026719967 -0.28500566 0.2698235 0.23862371 0.34954956 -0.31081194 0.03069089
0.071507834 -0.17083988 -0.39516008 -0.0021204117 -0.6366867 0.08052474 0.08183699 -0.2356489
0.36007765 -0.3942556 0.09403555 0.115663595 0.022397785 -0.11040698 -0.25238824 -0.16446476
-0.11906764 -0.02570119 0.24633452 0.0815451 -0.18540731 0.20750345 0.4313548 -0.13572693
-0.033996154 0.17385405 0.17467014 0.47966874 0.17563018 0.15087661 -0.043852 -0.20909022
-0.05276647 -0.38429794 0.03658791 -0.008314314 -0.055587754 0.42455375 -0.22597612 0.07643285
-0.06473713 -0.02963071 -0.28986377 0.16701415 0.17632428 -0.16008429 0.30513522 0.10335788
-0.032256383 -0.094544366 0.19463073 0.03361524 -0.46769214 -0.09826562 0.24899648 -0.06679211
0.035685483 -0.42618626 0.07902881 0.054312907 -0.2155264 0.14932331 -0.024708232 0.097896814
00000000: 8a44 a63e 93c6 36bc 7143 8f3e 67d7 793e
00000010: ca7b 513e a47e 833e 7baf 153e b254 78be
00000020: 1a19 60be 653c c3be 6872 873d 2412 0a3f
00000030: a72e c2bb 14da a3bd 4181 f0bd bb7e 13be
00000040: 88fc 0abe 988f ad3d 5558 f0be fca1 0bbf
00000050: 7805 74be 3711 af3e 3dee 02be bf7a 5b3e
00000060: 3cce 07bf d326 d8bd 509e aebd 3772 84be
00000070: b9f4 143e 9a14 173f e18d 98be 051f 623c
00000080: 1cbf 82bd 6f59 a73d 1f5d efbe 56b9 8cbc
00000090: 2ca8 e73d 605d 3abe 435c 75bc 9085 d7be
000000a0: 8161 cabd c412 683d 6aa0 5a3e 9403 21be
000000b0: 286a 3f3c 6a5f de3c a6c2 e8bd 43d7 aebe
000000c0: cf69 f03e 861d b43d 81ff cabe 0fc5 583e
000000d0: 3d67 94be d0c9 293e c1dd bbbe 2497 773e
000000e0: 8b43 abbe aaaf a4bc b41b 15be d09b 02bf
000000f0: c04d 3a3d ccdb bbbe 62b3 6cbb 5b69 87be
00000100: 3c6b bebe 4b6f 9c3d 9abf 88be 49d6 9a3d
00000110: 15d9 8cbe 3bf7 b3bd 8e4c f3be a512 053f
00000120: 3252 cdbe b22c 9cbe 5e87 813d 88f8 9ebe
00000130: 019b 913d 66f4 a23d f2a3 1ebd 63b6 c4bd
00000140: dd93 3dbe ed57 263e d45a 293e 4505 80be
00000150: c834 9a3d c0bd 1b3e 4e42 823d 98f1 83bc
00000160: 7280 0fbe 13c7 a93e 1c04 cb3c 33b9 f7be
00000170: 136c 76be f666 8c3e f898 acbe 96c7 f83d
00000180: 7ccc c9bd 8815 a5be 5b65 6fbe 0580 7fbe
00000190: 47e7 023d ff9e e23a 39ff 973d dfd0 6fbe
000001a0: c31e 823e 6069 3e3e 1b19 20bd 45f2 a9be
000001b0: 918e b9bd 04d9 9a3a 837b 6d3d 773c 54be
000001c0: 9e0b a3bd 10d1 50be be3a d9bd c5b3 8f3e
000001d0: f397 24be fc71 55be 2862 2e3e 26a2 723d
000001e0: 8e7c a23d 28c9 153e 29f5 8cbe 2431 dabc
000001f0: 537f 1bbe bf68 013d 049c f1bd 8e2a bcbe
00000200: ec63 ccbc 539c 463e 1548 483d cad2 053d
00000210: bf28 4c3c 1568 d13d f8c4 103d 9b02 2c3e
00000220: 2597 2cbd bfd7 9dbe 1f0f 0f3d b5bb 81be
00000230: 9cc8 04be adcf edbe e26a 78bd 0d3b 153d
00000240: ec38 1f3e 9dcf 223e 0b80 bd3e 587c a4bc
00000250: e46e 813e 8471 d5bd f147 773d a51d 433e
00000260: 12a3 b3bd e120 85be 1f0a 2cbd 34f5 87be
00000270: 5c55 ee3d c770 0bbe 3b60 173d 7d44 883e
00000280: 6d3b efbd d2d0 a93e 2788 40be 7027 963e
00000290: c8ad 61be 60d3 9ebd 5d36 39bd b008 6abe
000002a0: a0f0 8a3e b342 8d3d e53f d0bc 491f d0be
000002b0: 2a96 323e 3e72 82be 3786 a83c 5d66 8fbd
000002c0: ba4a 163d b6ed f5bd 03cd c93c 92ea 14be
000002d0: 2a39 9f3d 855c 73be 5af1 c53d b468 d13d
000002e0: c44a 8cbd d5e3 da3c 43ec 91be 4e26 8a3e
000002f0: c659 743e 29f8 b23e be22 9fbe 766b fb3c
00000300: b372 923d a6f0 2ebe 6c52 cabe 9bf6 0abb
00000310: e6fd 22bf 28ea a43d 279a a73d f24d 71be
00000320: 195c b83e dfdb c9be b695 c03d 09e1 ec3d
00000330: 8f7b b73c 0e1d e2bd 0839 81be 7369 28be
00000340: bcd9 f3bd 4d8b d2bc 1e3f 7c3e 1e01 a73d
00000350: 6adb 3dbe c97b 543e 89da dc3e 00fc 0abe
00000360: 8d3f 0bbd cc06 323e bbdc 323e 2497 f53e
00000370: 66d8 333e 667f 1a3e 289e 33bd bf1b 56be
00000380: a721 58bd b3c2 c4be 34dd 153d c338 08bc
00000390: fcaf 63bd 1c5f d93e 4966 67be d388 9c3d
000003a0: e794 84bd 1abc f2bc 0669 94be c205 2b3e
000003b0: 5a8e 343e 23ed 23be af3a 9c3e 4cad d33d
000003c0: 451f 04bd 7aa0 c1bd 474d 473e 22b0 093d
000003d0: 5875 efbe 7c3f c9bd eff8 7e3e 4dca 88bd
000003e0: f12a 123d 1635 dabe dbd9 a13d 3677 5e3d
000003f0: f4b2 5cbe 36e8 183e eb68 cabc 207e c83d

bias f4 [256]
0.012519636 -0.27766463 -0.17684275 -0.38220748 -0.052389637 -0.41899222 -0.20807804 -0.46874946
-0.2959692 0.061272588 0.14899419 -0.7402672 -0.47685528 0.17393753 -0.32225168 -0.3113394
-0.10704108 -0.42020935 0.15812841 -0.16154523 -0.373394 -0.49428117 -0.19417673 -0.30137965
-0.26905993 -0.18785314 -0.067042276 -0.35292906 0.1165557 -0.39836416 -0.35426944 -0.21319437
0.082170665 -0.24200788 -0.03670525 -0.3862427 -0.24400479 -0.53400195 -0.44691664 -0.3589927
-0.36026067 -0.20953143 -0.35146263 0.18587628 -0.20769581 -0.49926758 -0.23725735 -0.09327742
-0.052480366 0.06197139 0.09679255 -0.27790368 -0.17867935 -0.26928765 -0.17170787 -0.08049686
-0.011029144 -0.09411617 -0.13173562 -0.36625126 0.09246853 -0.35463995 -0.2924628 -0.10992269
-0.08447374 -0.102944724 0.056882165 -0.5881693 -0.33142045 -0.2643428 -0.20356797 -0.053629052
-0.41685534 -0.49062353 -0.1283311 -0.5833178 -0.14032017 -0.2536404 -0.35682586 -0.53222877
-0.010914533 -0.27141666 -0.40714598 -0.120291226 -0.21854396 -0.84962493 -0.28197291 -0.24742782
-0.90548253 0.12943056 0.23163588 -0.14168027 0.0021705483 -0.40349656 -0.38752875 -0.20306452
-0.41942036 -0.28551143 -0.3054529 -0.7747898 -0.5110378 -0.47662222 -0.20590378 -0.25325277
-0.23868775 -0.53373885 -0.15812208 -0.26352873 -0.0072715697 -0.5381785 -0.32551032 -0.4546777
-0.19837485 -0.5262516 -0.16767272 0.2289833 -0.5078652 -0.07883287 -0.29915482 -0.3010056
-0.4709449 -0.43055272 -0.0950902 -0.15503392 -0.21863274 -0.6198948 -0.13697128 -0.45411798
0.012491807 0.14168113 -0.18261905 -0.16982245 -0.21937755 -0.14782016 -0.81754696 0.23086053
-0.30259332 0.003974273 -0.57066387 -0.31143048 -0.068875186 -0.2943922 -0.3148722 -0.13992515
-0.48313496 -0.36921534 0.063155994 -0.23383774 0.21660048 -0.53293884 -0.22327188 0.34632918
-0.2053385 -0.4022585 -0.3910907 -0.38627842 -0.34714803 -0.28250593 -0.3056949 -0.10670305
-0.3621743 0.07768521 -0.38529027 -0.3896427 -0.13946977 0.18112804 -0.2745005 -0.19679739
-0.8612345 -0.15948959 -0.34159055 -0.23411635 -0.2816457 -0.50922483 -0.14103526 -0.28703296
-0.48302153 -0.112240165 -0.15227014 -0.24028286 -0.22929335 -0.13621987 -0.25956106 0.17042662
-0.18997315 -0.44244677 -0.41638494 -0.24515021 -0.6187485 -0.47862962 -0.11152594 -0.13390125
-0.20809671 -0.33253396 -0.22133778 -0.6427705 -0.12483221 -0.123868935 -0.5756112 -0.5781067
-0.38789 -0.13000919 -0.53430605 0.0085623795 -0.19475755 -0.40899548 -0.017437305 -0.045853764
-0.34054655 0.013630388 -0.46228722 -0.3219322 -0.12727587 -0.5205366 0.086887985 -0.18081166
0.008835084 0.07909671 0.07096956 -0.2683313 -0.083868906 -0.29052448 -0.059101537 -0.66115254
0.12545168 -0.27409783 -0.12044083 -0.36497825 -0.17545639 0.08537542 0.29544288 -0.371672
-0.23917393 -0.34884328 -0.41624236 -0.37167016 -0.36881715 -0.07608659 -0.08953145 -0.29268226
-0.5235201 -0.08099053 -0.0008727849 -0.40498525 -0.6000038 0.03386885 -0.027617073 -0.59098285
-0.27037835 0.23448019 -0.3145916 -0.02703841 -0.4574886 -0.20238277 -0.37622932 0.071717516
00000000: 291f 4d3c 0f2a 8ebe 4416 35be b3b0 c3be
00000010: 8496 56bd 2686 d6be 6912 55be eeff efbe
00000020: 4689 97be f7f8 7a3d ef91 183e 2782 3dbf
00000030: 6026 f4be ae1c 323e 2cfe a4be e167 9fbe
00000040: 5b38 dbbd ae25 d7be 6aec 213e 1d6c 25be
00000050: 802d bfbe 6c12 fdbe 44d6 46be 6f4e 9abe
00000060: 39c2 89be 935c 40be 764d 89bd 1eb3 b4be
00000070: c1b4 ee3d 63f6 cbbe ce62 b5be a04f 5abe
00000080: 1849 a83d ead0 77be 3f58 16bd 9ac1 c5be
00000090: 64dc 79be 5ab4 08bf 42d2 e4be e4cd b7be
000000a0: 1674 b8be 688f 56be e9f2 b3be 5a56 3e3e
000000b0: 36ae 54be 00a0 ffbe 97f3 72be 3b08 bfbd
000000c0: a7f5 56bd b6d5 7d3d 2c3b c63d 6449 8ebe
000000d0: b8f7 36be 12e0 89be 30d4 2fbe 8adb a4bd
000000e0: 95b3 34bc fbbf c0bd b4e5 06be 4985 bbbe
000000f0: 2460 bd3d 5e93 b5be afbd 95be 261f e1bd
00000100: 9100 adbd afd4 d2bd 46fd 683d 4392 16bf
00000110: f1af a9be f157 87be 1f74 50be 23aa 5bbd
00000120: 106e d5be 0233 fbbe 3a69 03be 5154 15bf
00000130: 17b0 0fbe 28dd 81be e1b1 b6be 2540 08bf
00000140: dfd2 32bc 20f7 8abe 7075 d0be 3f5b f6bd
00000150: fdc9 5fbe 0581 59bf c15e 90be b85d 7dbe
00000160: b4cd 67bf 7289 043e f531 6d3e a214 11be
00000170: c23f 0e3b 1a97 cebe 2b6a c6be 25f0 4fbe
00000180: 44be d6be 8e2e 92be 5364 9cbe a058 46bf
00000190: 60d3 02bf d407 f4be 71d8 52be 59aa 81be
000001a0: 906a 74be 1ca3 08bf c1ea 21be 3ded 86be
000001b0: 5946 eebb 11c6 09bf 4aa9 a6be 84cb e8be
000001c0: c722 4bbe 6db8 06bf 66b2 2bbe 997a 6a3e
000001d0: 7403 02bf 2173 a1bd d22a 99be 681d 9abe
000001e0: b11f f1be 6871 dcbe a7be c2bd 36c1 1ebe
000001f0: 43e1 5fbe 6db1 1ebf 3342 0cbe 2782 e8be
00000200: 70aa 4c3c dc14 113e 7d00 3bbe f0e5 2dbe
00000210: 82a4 60be 2b5e 17be c24a 51bf b466 6c3e
00000220: 83ed 9abe 9e3a 823b 0717 12bf d173 9fbe
00000230: 6f0e 8dbd 93ba 96be ee36 a1be 8a48 0fbe
00000240: 775d f7be cb09 bdbe ee57 813d 2973 6fbe
00000250: 84cc 5d3e ae6e 08bf 62a1 64be 0f52 b13e
00000260: 4144 52be d3f4 cdbe 0a3d c8be 49c6 c5be
00000270: 63bd b1be 9ea4 90be 0b84 9cbe 2187 dabd
00000280: e96e b9be 6c19 9f3d c444 c5be 3f7f c7be
00000290: 2ad1 0ebe a179 393e 548b 8cbe 4185 49be
000002a0: dd79 5cbf 3d51 23be f5e4 aebe 32bc 6fbe
000002b0: dd33 90be 8f5c 02bf 8c6b 10be fcf5 92be
000002c0: 994e f7be 2cde e5bd b4ec 1bbe b60c 76be
000002d0: e0cb 6abe 397d 0bbe 30e5 84be 5184 2e3e
000002e0: 5288 42be 6288 e2be 6830 d5be a808 7bbe
000002f0: 4d66 1ebf f10e f5be b667 e4bd 691d 09be
00000300: 4e17 55be e441 aabe 5fa6 62be 9c8c 24bf
00000310: 08a8 ffbd ffae fdbd 415b 13bf cdfe 13bf
00000320: 8599 c6be 2121 05be 48c8 08bf 3949 0c3c
00000330: 866e 47be db67 d1be aed8 8ebc 28d1 3bbd
00000340: 1e5c aebe fe51 5f3c e9b0 ecbe 4cd4 a4be
00000350: 9b54 02be e341 05bf 54f2 b13d b126 39be
00000360: 07c1 103c 75fd a13d 7d58 913d b862 89be
00000370: 76c3 abbd a0bf 94be 7414 72bd 4b41 29bf
00000380: 6876 003e 8d56 8cbe afa9 f6bd 6ede babe
00000390: d7aa 33be 4fd9 ae3d 4a44 973e cb4b bebe
000003a0: 03ea 74be 969b b2be b81d d5be 8d4b bebe
000003b0: 9ad5 bcbe 49d3 9bbd 445c b7bd 73da 95be
000003c0: 6a05 06bf 5dde a5bd 9acb 64ba 3a5a cfbe
000003d0: d999 19bf 10ba 0a3d 333d e2bc a74a 17bf
000003e0: 086f 8abe 931b 703e 2612 a1be a87f ddbc
000003f0: f23b eabe 6e3d 4fbe 21a1 c0be a2e0 923d

weight f4 [128, 256]
-0.06303522 -0.10064787 -0.12435186 0.022711605 0.05100014 0.049126815 0.0059360624 -0.063730285
-0.012359589 -0.09859877 0.093523614 -0.02831559 -0.13158877 0.083552785 -0.261973 0.0075429166
-0.011450879 -0.05968837 0.25687787 -0.0045899255 -0.1328854 0.10606681 -0.1912166 0.18918142
-0.24309298 0.028837347 0.03545163 0.007266234 0.055415433 0.054705117 0.19265287 0.1102611
-0.20093231 -0.17225622 -0.03469163 0.011281399 0.036846723 0.055659868 -0.054146577 -0.09296296
0.06859996 0.037340254 -0.10450161 0.22397257 0.17254649 0.04055259 -0.01429858 0.019032376
0.025913853 -0.0012261957 0.17111148 -0.16730893 0.18296559 0.0055395206 0.021203978 0.08559415
-0.08540145 0.08977638 0.06181312 0.07196071 0.0563977 -0.0535818 0.13566376 -0.04002859
-0.15995835 -0.019003613 0.11444071 -0.010722533 -0.092978634 0.29401398 0.22234821 -0.28072086
0.2929623 -0.09102225 -0.23050514 -0.20902054 -0.021369006 0.023429478 0.12839618 -0.058414932
-0.11985569 -0.013322196 -0.18504667 0.07812032 -0.043774452 0.07039463 0.024572253 0.0645606
-0.26654068 0.12615213 0.21363369 0.21078676 0.053581752 -0.06032085 0.099422604 -0.048969608
-0.044160753 0.121546045 0.086124174 0.061118346 0.053358693 0.0057530855 -0.22392984 0.20982163
0.05210047 -0.019271197 0.14223371 -0.16641419 -0.049689513 0.14187221 0.13008632 0.07040445
-0.2519408 -0.17824812 -0.2495028 0.02018482 0.072058976 0.040667433 -0.059874393 0.058899023
-0.04705676 -0.066947 0.15339239 0.0072281607 0.012091892 -0.2260314 -0.11949477 0.05639738
0.085802354 -0.14454202 -0.088667974 -0.010621418 -0.012004431 -0.1956189 0.19730394 0.14508808
0.008978016 -0.1835209 0.22906543 0.092915766 -0.06917684 0.06336652 0.059744075 -0.11027578
0.15421262 0.0037123612 0.029584218 -0.029686105 0.13004082 -0.12342904 -0.09301534 -0.057020836
0.042477164 -0.08434561 -0.15197602 -0.07840601 -0.10557123 -0.16821115 -0.10462 -0.34443438
-0.04553804 0.022339193 0.07663971 -0.0018384404 -0.12695451 0.058689743 -0.14303438 0.018620111
0.11803242 0.10432531 -0.24558076 -0.019525632 0.32514134 -0.0443997 -0.051854093 0.17224084
-0.04247617 -0.27216056 0.06737655 0.10340153 0.07534535 -0.041749917 -0.09640955 -0.18166678
-0.20049807 0.12918174 -0.13516597 0.05795923 0.112100065 0.20955393 0.0335889 0.06089067
-0.07665144 0.11548172 0.30367976 -0.022866696 -0.016333586 -0.09694938 -0.1312128 -0.01650567
-0.04158472 -0.0508634 -0.02041535 0.00097570353 0.031843975 0.09666621 0.032063965 0.040194396
-0.08252843 0.15732203 0.004470893 0.013699178 0.008833707 0.054186214 -0.009644593 -0.16403799
0.11113634 0.10686619 0.1075903 0.0023998097 -0.076855436 -0.053130653 -0.014180806 -0.24029514
0.17122933 -0.09721699 -0.12590012 0.091006555 -0.19665097 0.046795 -0.03822349 -0.072828524
-0.14184098 -0.06129213 -0.0035256057 0.10830786 -0.0547626 -0.22488326 0.09724728 -0.12840648
-0.0576247 -0.03804678 0.02553054 0.14036539 -0.1254453 -0.024484137 -0.1011187 -0.09971031
-0.056836486 -0.235882 0.11649625 -0.0909326 -0.38541177 -0.15119833 0.027914284 -0.012918747
00000000: 9c18 81bd 7820 cebd 30ac febd b00d ba3c
00000010: 86e5 503d 3339 493d 4d83 c23b 0685 82bd
00000020: e07f 4abc 27ee c9bd 4f89 bf3d 19f6 e7bc
00000030: 35bf 06be b91d ab3d 5321 86be 922a f73b
00000040: 789c 3bbc cb7b 74bd 7f85 833e 1667 96bb
00000050: 1c13 08be 8e39 d93d 49ce 43be c6b8 413e
00000060: 5eed 78be 4d3c ec3c ba35 113d 9719 ee3b
00000070: 4bfb 623d 7912 603d cb46 453e 92d0 e13d
00000080: 33c1 4dbe ef63 30be d018 0ebd 9ed5 383c
00000090: 97ec 163d 9afb 633d cdc8 5dbd 5d63 bebd
000000a0: 237e 8c3d 18f2 183d f104 d6bd 1159 653e
000000b0: 07b0 303e 791a 263d 9744 6abc c9e9 9b3c
000000c0: 4a49 d43c 4db8 a0ba d937 2f3e 0853 2bbe
000000d0: 555b 3b3e de84 b53b f7b3 ad3c fc4b af3d
000000e0: f5e6 aebd aedc b73d c12f 7d3d 2360 933d
000000f0: 4601 673d 9778 5bbd 71eb 0a3e 05f5 23bd
00000100: 1fcc 23be 77ad 9bbc e45f ea3d 90ad 2fbc
00000110: 956b bebd 0089 963e 40af 633e a5ba 8fbe
00000120: 28ff 953e e069 babd 8a09 6cbe 7b09 56be
00000130: 0e0e afbc 2def bf3c 4a7a 033e 7f44 6fbd
00000140: e676 f5bd 5745 5abc e07c 3dbe 8cfd 9f3d
00000150: d74c 33bd 0f2b 903d c04b c93c 5938 843d
00000160: 0578 88be 062e 013e cac2 5a3e 7cd8 573e
00000170: 8a78 5b3d ff12 77bd 149e cb3d 5b94 48bd
00000180: e8e1 34bd 22ed f83d df61 b03d 3b57 7a3d
00000190: a58e 5a3d 6184 bc3b dd4d 65be 7bdb 563e
000001a0: 4d67 553d a1de 9dbc b7a5 113e 7b68 2abe
000001b0: 3b87 4bbd f346 113e 5935 053e 3530 903d
000001c0: 62fe 80be ad86 36be a97d 7fbe a35a a53c
000001d0: a893 933d e592 263d da3e 75bd 1a40 713d
000001e0: 97be 40bd 821b 89bd e512 1d3e 35da ec3b
000001f0: 121d 463c c674 67be adb9 f4bd f000 673d
00000200: 25b9 af3d d302 14be 8e97 b5bd 7505 2ebc
00000210: 3cae 44bc 5250 48be 0b0a 4a3e f891 143e
00000220: 8718 133c e7ec 3bbe 2190 6a3e 9f4a be3d
00000230: 96ac 8dbd 4ec6 813d 34b6 743d 45d8 e1bd
00000240: eae9 1d3e 164b 733b 9a5a f23c 4630 f3bc
00000250: 6c29 053e 5dc8 fcbd d47e bebd ae8e 69bd
00000260: 89fc 2d3d 64bd acbd 9a9f 1bbe 5593 a0bd
00000270: bb35 d8bd 8b3f 2cbe 0343 d6bd b459 b0be
00000280: 1986 3abd af00 b73c 48f5 9c3d d3f7 f0ba
00000290: 5d00 02be a864 703d 9b77 12be 3489 983c
000002a0: fbba f13d 82a8 d53d 8679 7bbe 38f4 9fbc
000002b0: ed78 a63e 76dc 35bd f564 54bd e75f 303e
000002c0: 7efb 2dbd a158 8bbe b7fc 893d 2ec4 d33d
000002d0: aa4e 9a3d f601 2bbd 5f72 c5bd db06 3abe
000002e0: 5e4f 4dbe 3848 043e f368 0abe a866 6d3d
000002f0: b894 e53d 4e95 563e 8494 093d 7f68 793d
00000300: 6efb 9cbd ae81 ec3d ea7b 9b3e f052 bbbc
00000310: 03ce 85bc 668d c6bd a65c 06be e636 87bc
00000320: bd54 2abd 2456 50bd 183e a7bc 5bc6 7f3a
00000330: d46e 023d eff8 c53d 8155 033d e1a2 243d
00000340: aa04 a9bd 0719 213e 9280 923b 8472 603c
00000350: 41bb 103c 5df2 5d3d 5b04 1ebc 93f9 27be
00000360: 739b e33d a9dc da3d 4e58 dc3d 2046 1d3b
00000370: 6266 9dbd 879f 59bd 9d56 68bc ee0f 76be
00000380: be56 2f3e b419 c7bd f6eb 00be a561 ba3d
00000390: df5e 49be 1dac 3f3d 3c90 1cbd 1f27 95bd
000003a0: c33e 11be 750d 7bbd d90d 67bb 83d0 dd3d
000003b0: c04e 60bd cc47 66be 9529 c73d fd7c 03be
000003c0: e107 6cbd f1d6 1bbd 6c25 d13c f2bb 0f3e
000003d0: bc74 00be f592 c8bc 5217 cfbd eb34 ccbd
000003e0: 60cd 68bd 0d8b 71be 9695 ee3d df3a babd
000003f0: b154 c5be bcd3 1abe 7fac e43c 27a9 53bc

bias f4 [128]
0.044325113 -0.20208547 -0.26912442 -0.24937159 -0.11147801 -0.057077218 -0.26075366 -0.20911942
-0.18363924 -0.10162723 -0.3059127 -0.26159322 -0.42295083 -0.3330559 -0.30811962 -0.18161929
-0.04037304 -0.24697424 -0.64096045 -0.24343756 -0.3260775 -0.20784797 -0.4835533 -0.63935214
-0.25711158 -0.4892386 -0.35539535 -0.16541046 -0.2888293 -0.05020451 -0.3255367 0.028601687
-0.2982601 -0.37619734 -0.35390228 -0.301377 -0.5299164 -0.0636503 -0.21578911 -0.22291344
-0.27830592 -0.39043212 -0.20340641 -0.2602145 -0.13985085 -0.15653959 -0.38835153 -0.70747155
-0.036882352 -0.47350076 -0.72413826 0.060531393 0.041954044 -0.15995051 -0.19865972 -0.337698
-0.38391027 -0.04284437 -0.28121787 -0.62227494 -0.6951743 0.012193258 -0.26484963 -0.45378593
-0.24373314 0.02390042 -0.57850045 -0.22932932 -0.5295396 -0.40022734 -0.5278328 -0.094288945
-0.3025644 -0.43350282 -0.53341013 -0.3891746 -0.14204143 -0.35148782 -0.043123156 0.11670176
-0.25253546 -0.075904354 -0.23372447 -0.53227407 -0.34873143 -0.031481083 -0.07706707 0.10630851
-0.59015846 0.018232457 -0.2750596 -0.16827866 -0.51697993 -0.13700382 -0.34279552 -0.3844897
-0.071585625 -0.10277696 -0.5320313 -0.5494058 -0.23044632 -0.23146817 -0.25004774 -0.0007623463
-0.24275446 -0.19608854 -0.09431367 -0.31122634 -0.29892567 -0.12770948 -0.31836236 0.004909858
-0.059993967 -0.18773523 -0.65768754 -0.105602905 -0.33248362 -0.23550186 -0.4219324 -0.5811123
-0.3055045 0.09768235 -0.68354297 -0.3755773 -0.13844395 -0.1562511 0.010978309 -0.33569363
00000000: 408e 353d 7eef 4ebe adca 89be 445b 7fbe
00000010: 954e e4bd cdc9 69bd 8181 85be 6723 56be
00000020: ed0b 3cbe f021 d0bd 97a0 9cbe 8cef 85be
00000030: 038d d8be 4e86 aabe dbc1 9dbe 68fa 39be
00000040: 335e 25bd d1e6 7cbe fc15 24bf b247 79be
00000050: a1f3 a6be 19d6 54be 4c94 f7be 95ac 23bf
00000060: 21a4 83be 7b7d fabe 61f6 b5be 5c61 29be
00000070: 6fe1 93be 3fa3 4dbd bfac a6be 164e ea3c
00000080: 8cb5 98be f09c c0be ae32 b5be 164e 9abe
00000090: 9aa8 07bf 175b 82bd d2f7 5cbe 6c43 64be
000000a0: 1d7e 8ebe b8e6 c7be c549 50be d63a 85be
000000b0: 1035 0fbe ea4b 20be 03d6 c6be db1c 35bf
000000c0: f311 17bd b16e f2be 2061 39bf c4ef 773d
000000d0: 01d8 2b3d 11ca 23be 746d 4bbe c1e6 acbe
000000e0: e38f c4be 947d 2fbd cafb 8fbe 694d 1fbf
000000f0: f1f6 31bf 3bc6 473c 5f9a 87be a156 e8be
00000100: 2e95 79be d0ca c33c 9b18 14bf 4ed5 6abe
00000110: e88f 07bf 99ea ccbe 0d20 07bf 901a c1bd
00000120: b9e9 9abe 15f4 ddbe 918d 08bf e541 c7be
00000130: 4f73 11be 36f6 b3be e8a1 30bd 5501 ef3d
00000140: 544c 81be be73 9bbd 7855 6fbe 1d43 08bf
00000150: ed8c b2be 4ff2 00bd 57d5 9dbd 47b8 d93d
00000160: a014 17bf 3c5c 953c 9dd4 8cbe 3e51 2cbe
00000170: cc58 04bf bb4a 0cbe e582 afbe d5db c4be
00000180: 7c9b 92bd ba7c d2bd 3433 08bf dca5 0cbf
00000190: 1ffa 6bbe fe05 6dbe 4206 80be 32d8 47ba
000001a0: a094 78be 6fcb 48be 8727 c1bd 0f59 9fbe
000001b0: c90c 99be 46c6 02be 6400 a3be e0e2 a03b
000001c0: 3cbc 75bd aa3d 40be 365e 28bf 5646 d8bd
000001d0: 4b3b aabe 6627 71be 8607 d8be c7c3 14bf
000001e0: 166b 9cbe af0d c83d acfc 2ebf ab4b c0be
000001f0: 40c4 0dbe 4a00 20be 5ede 333c 09e0 abbe

weight f4 [16, 128]
0.0094674425 0.028686944 0.038117245 0.005611912 -0.029879091 0.0009733715 0.086936966 -0.010552288
0.18440925 0.16797093 -0.00062912534 0.06559436 -0.08373583 0.13575846 -0.0049608247 -0.0331605
0.006825836 0.001346999 0.06601048 -0.028531242 0.07334113 0.024313916 0.08941135 0.16709547
-0.009582982 0.034050573 0.03715056 -0.05014889 0.1426055 -0.061596125 0.041582152 -0.0036796953
0.027066609 -0.0010522107 -0.11411154 0.05173884 -0.01934908 -0.032273285 0.11448748 -0.09664984
-0.08109739 -0.08673696 -0.038975243 0.07812601 -0.024784802 0.010116889 -0.20847002 0.004188129
-0.026141422 -0.12637426 -0.03671004 0.059830647 -0.00257744 0.04433756 -0.018983034 -0.055638105
-0.03407342 -0.054309826 -0.02536071 0.00998535 0.12491905 0.041406814 -0.06805883 0.10719743
-0.074146084 -0.059407998 0.115477346 0.04677048 0.08518561 -0.0012185901 0.03708817 -0.027128989
0.045773502 0.0021357702 0.06692039 0.04816101 -0.04505342 0.20209095 -0.03777487 -0.010494977
-0.004714045 -0.010962099 0.031023113 0.02277086 -0.03447027 -0.017297605 -0.051924836 0.04968269
0.10291965 0.057575442 -0.010462145 -0.13642833 -0.025330117 -0.018017547 0.09108548 -0.04529298
-0.01031177 -0.06823141 0.04415549 0.07483966 0.033157732 0.18493402 0.072606675 -0.018789455
-0.10643934 -0.012277905 0.023068035 -0.11233864 0.029411765 -0.07552347 0.13639487 0.07000644
-0.09717846 -0.075740635 0.09120226 -0.041092165 -0.017636985 0.0677722 0.07655206 -0.024576824
0.059909075 0.07143752 -0.09342408 -0.022559553 -0.11521286 -0.0151638035 0.066963814 -0.009094355
-0.008521197 -0.0074937423 -0.000101410755 -0.0048377053 0.06228632 -0.03841207 0.016815934 0.010598701
-0.026274238 0.057696942 -0.035095602 -0.027222764 -0.12117075 0.06287171 -0.019148797 0.049979944
0.005625179 0.048800096 -0.044711996 0.02374189 -0.027414937 0.06316481 0.06682231 -0.14188924
-0.031555694 -0.017951977 -0.05536408 0.027071435 0.008444979 0.010338977 -0.0014387182 -0.0022010366
-0.07350124 0.050985184 0.12075342 -0.05910315 -0.06737129 -0.09682053 -0.048287358 0.004245313
-0.018600082 0.12801315 0.00041493625 0.114782676 0.057031527 0.0049230154 0.05103146 -0.003072406
0.048561636 0.04509649 0.05891346 -0.014652658 -0.022101473 0.0068127303 0.12177319 0.017716499
-0.04313145 -0.020332068 0.11634753 0.077552274 0.076980256 0.033066645 -0.038356014 -0.012869575
0.09871165 -0.04331198 0.007168798 0.0023298166 0.0020866846 0.05676735 -0.018564848 -0.21932688
-0.0619732 -0.042453203 0.09776511 0.12426814 -0.023970045 0.011218753 -0.015597518 0.008328502
-0.017352557 0.0043841316 0.005837906 -0.009183935 0.013002148 0.024028178 0.007625858 -0.022300925
0.046076115 0.032363486 -0.10107085 -0.113813624 0.0154487435 -0.05193252 -0.0997899 -0.0070800963
0.008361405 0.1799625 0.006981744 -0.02046586 0.042271975 0.16423315 -0.014049088 0.031354286
-0.124882504 -0.036886603 0.035783123 0.06354425 -0.005071554 0.16147058 0.11706583 0.0010510705
-0.055624496 0.060972814 -0.07004559 0.14616813 0.0061464747 0.0027200743 0.008703542 0.01436328
-0.018884484 -0.02078448 0.07474378 -0.009964603 0.05558705 -0.03400028 0.024551213 0.036284473
00000000: 551d 1b3c e200 eb3c d420 1c3d 21e4 b73b
00000010: ffc4 f4bc db29 7f3a 020c b23d 81e3 2cbc
00000020: c7d5 3c3e 9200 2c3e e3eb 24ba 5656 863d
00000030: b17d abbd 4404 0b3e 6a8e a2bb 4ed3 07bd
00000040: 43ab df3b c98d b03a 8130 873d 5aba e9bc
00000050: e033 963d fa2d c73c 4c1d b73d 131b 2b3e
00000060: f101 1dbc 9d78 0b3d 302b 183d ec68 4dbd
00000070: 2d07 123e 384c 7cbd 0c52 2a3d 0b27 71bb
00000080: cbba dd3c 55ea 89ba 50b3 e9bd 1bec 533d
00000090: f681 9ebc fe30 04bd 6978 ea3d 5af0 c5bd
000000a0: 6316 a6bd 26a3 b1bd 81a4 1fbd 8800 a03d
000000b0: 7f09 cbbc 4fc1 253c 2a79 55be 933c 893b
000000c0: 8926 d6bc 4168 01be 445d 16bd fb10 753d
000000d0: 45ea 28bb 4d9b 353d 4f82 9bbc c8e4 63bd
000000e0: 9290 0bbd fb73 5ebd 44c1 cfbc 9899 233c
000000f0: 8fd5 ff3d 319a 293d 6e62 8bbd 548a db3d
00000100: e7d9 97bd cd55 73bd 637f ec3d 6792 3f3d
00000110: cb75 ae3d 19b9 9fba c4e9 173d 9d3d debc
00000120: ff7c 3b3d 47f8 0b3b 8f0d 893d 7b44 453d
00000130: ef89 38bd eef0 4e3e d2b9 1abd 20f3 2bbc
00000140: 4778 9abb 609a 33bc 2f24 fe3c f489 ba3c
00000150: b330 0dbd b5b3 8dbc 23af 54bd 1480 4b3d
00000160: 8ac7 d23d 3ad4 6b3d 6b69 2bbc deb3 0bbe
00000170: 1b81 cfbc 8999 93bc 068b ba3d 2285 39bd
00000180: b3f2 28bc e9bc 8bbd 63dc 343d 8945 993d
00000190: 67d0 073d 585f 3d3e cfb2 943d 58ec 99bc
000001a0: defc d9bd 4429 49bc 2df9 bc3c cd11 e6bd
000001b0: f1f0 f03c 0dac 9abd 19ab 0b3e 895f 8f3d
000001c0: 8005 c7bd e81d 9bbd 40c8 ba3d 4250 28bd
000001d0: 707b 90bc 27cc 8a3d 54c7 9c3d 5655 c9bc
000001e0: 3863 753d d64d 923d 2055 bfbd d0ce b8bc
000001f0: b8f4 ebbd 9a71 78bc 5324 893d 7d00 15bc
00000200: 7e9c 0bbc 118e f5bb 7cac d4b8 9d85 9ebb
00000210: f11f 7f3d fa55 1dbd 92c1 893c 2da6 2d3c
00000220: 123d d7bc a153 6c3d 68c0 0fbd 4602 dfbc
00000230: 5f28 f8bd e2c2 803d f0dd 9cbc c5b7 4c3d
00000240: 6c53 b83b 9ce2 473d ed23 37bd 5a7e c23c
00000250: 4a95 e0bc 8d5c 813d 23da 883d 6a4b 11be
00000260: 8b40 01bd 0610 93bc 72c5 62bd eac4 dd3c
00000270: cf5c 0a3c d064 293c 5f93 bcba 443f 10bb
00000280: d187 96bd d7d5 503d 924d f73d 2516 72bd
00000290: f5f9 89bd d849 c6bd f7c8 45bd 441c 8b3b
000002a0: 335f 98bc e115 033e cd8b d939 2e13 eb3d
000002b0: e499 693d 3f51 a13b 5d06 513d 6b5a 49bb
000002c0: 91e8 463d 19b7 383d 3d4f 713d b411 70bc
000002d0: 260e b5bc 533d df3b 3964 f93d 3122 913c
000002e0: 9aaa 30bd 708f a6bc 9d47 ee3d bad3 9e3d
000002f0: d3a7 9d3d e470 073d 321b 1dbd e9da 52bc
00000300: 5529 ca3d e767 31bd 3ce8 ea3b d6af 183b
00000310: c2c0 083b e184 683d 4f15 98bc 3a97 60be
00000320: 9cd7 7dbd 69e3 2dbd 1339 c83d 4b80 fe3d
00000330: d45c c4bc dcce 373c bb8c 7fbc 4574 083c
00000340: f326 8ebc c3a8 8f3b e84b bf3b 3778 16bc
00000350: f606 553c bed6 c43c 55e2 f93b 6eb0 b6bc
00000360: 4fba 3c3d 938f 043d 3cfe cebd 1e17 e9bd
00000370: ba1c 7d3c 32b7 54bd a65e ccbd 2700 e8bb
00000380: 46fe 083c 1748 383e 1dc7 e43b 05a8 a7bc
00000390: 6125 2d3d bc2c 283e 252e 66bc 5a6d 003d
000003a0: 66c2 ffbd 6816 17bd 5391 123d 7d23 823d
000003b0: 472f a6bb 8b58 253e 36c0 ef3d 13c4 893a
000003c0: 83d6 63bd a1be 793d 1074 8fbd 19ad 153e
000003d0: 5e68 c93b 4643 323b 4d99 0e3c f653 6b3c
000003e0: a2b3 9abc 3744 aabc 4413 993d 9342 23bc
000003f0: 3faf 633d e143 0bbd a01f c93c 079f 143d

bias f4 [16]
-0.10594275 -0.012671683 0.012320977 0.05650307 0.031265188 0.07528705 -0.1327476 -0.04180015
-0.18884577 0.06806119 0.031439733 -0.1813381 0.076650865 0.045675766 0.068512134 -0.023785943
00000000: 83f8 d8bd e49c 4fbc ecdd 493c c36f 673d
00000010: ed0f 003d 1930 9a3d fdee 07be a236 2bbd
00000020: c960 41be aa63 8b3d f3c6 003d b2b0 39be
00000030: 21fb 9c3d 8316 3b3d 1750 8c3d bdda c2bc
