src/rl_sar/policy/go2/himloco/himloco.pt (torch, 991615 bytes, 14 tensors)

weight f4 [512, 64]
00000000: d1be 48bd 0054 f4bc 29a6 f1bd f910 513d
00000010: 0598 863d 9767 19be 072b a23e 3e8b 113f
00000020: e1d9 043e e1cd b0be c295 4abc 82a8 283e
00000030: 3e4a 86be 90d2 373e 18af d8bd b0da 3f3d
00000040: 402f 9bbe 29b0 413d ce5d 40be 893d 903d
00000050: c1c9 64be 263e 89be 2d56 f53d d207 c13c
00000060: 5587 1cbe c449 f43d a060 19bd df63 b83d
00000070: f6c5 0bbe ccf4 823d f76d a9be 26f9 d13d
00000080: 7f4a 0e3d a0a6 b4bb b44e ba3d a501 0a3e
00000090: 9e72 5c3d 8377 dcbd cdca bfbc a0de ee3d
000000a0: b684 1abd 0797 14bc 467c adbc 69fb b03c
000000b0: 33bf 5abd f81d ee3d 620e c73d b32c e73d
000000c0: ee85 c1bd 0d20 05be 7051 d03c d6c5 16be
000000d0: d84f 803d 3ac2 253d 113d 49bc 8d44 03bd
000000e0: 4e70 5e3d 110d fa3d 38c5 91bd 6c52 1b3e
000000f0: 0e14 123d 68bf a93d 8219 cdbd f077 a83d
00000100: ef3c 9dbd dfc1 17be b6cd 283e 0e65 a33c
00000110: ad6b 22be 076e 40be e929 453e 179a c8be
00000120: dbfc cb3d 912c 2abe 920a 903d 779e 31bd
00000130: 5559 463e 131d 803d abe2 68be 721e 2f3d
00000140: 3c03 25be c4f7 313c dbde f03e cded bb3d
00000150: ec15 05be e917 b33b 09e4 09be 88e8 17be
00000160: 702d 94be 340d ae3e 71b7 6e3e e407 b93d
00000170: 9547 5b3d 6170 8d3d 2371 793e 94cd 93bd
00000180: aecf 95be f0db 25bd 91f2 aebd 9e25 b1bd
00000190: 4ea0 483d 7d47 ba3c 43cb 963d 5f0a 85bc
000001a0: d927 c7bc 7231 d1bd 5b79 0abd a228 033d
000001b0: 6684 77bd d547 0d3e 9db6 4d3c ff6f e7bc
000001c0: 95a6 b8bd 200c 2cbe bd5c fcbd da1e 23be
000001d0: 7063 013e 8960 9dbd d6fc 98bd 6069 9cbc
000001e0: 2443 993d 33b3 e13d 1e86 233d 6ada d13c
000001f0: 92ea 2c3d 5a87 d83d 6b1d cd3b 885c a73d
00000200: cce7 fa3d 4923 063d 8719 eabe 47b5 823e
00000210: 7d92 83be 7fa9 183e 1118 13be f92a 233e
00000220: d6a6 93bd e20a f13e eca7 6d3e 565c 903d
00000230: 98da b33e 2c82 4e3d 277c 30be 63d5 313e
00000240: b73b 8b3e a19b 81be 00bc d33e c453 6abe
00000250: 05ac bfbc 05b0 f43d 9b8b 84bc cf85 e4bc
00000260: 8e32 fa3d 781b 1abc b6c0 b03d e096 9ebc
00000270: 68a2 0d3e c8d4 acbd 928e 933d 983a 223e
00000280: 0826 743d af25 ac3d 950a e63c 1818 0cbd
00000290: 76e8 7abc 73b9 5b3d 67a4 a73c e826 79bd
000002a0: 6187 003e 07ba 4ebd abf6 a43d 79a9 23bd
000002b0: e779 17bc 15d9 febd 05e6 c9bd bc8d 0b3e
000002c0: e43b abbd 8b46 96bd 2058 00bb b53b f3bc
000002d0: f550 0bbd ed27 67bd 4b29 8bbc 6445 1a3b
000002e0: e570 f1bd b4a4 b33d 6137 6b3d 713f 0dbe
000002f0: dbf0 433d a341 b9bd 1825 42bd cb4e d2bd
00000300: baa7 523b e956 0c3e befe 243f 267b be3d
00000310: 8586 9b3e b6ed 8cbe 8539 2f3f 4c75 12bc
00000320: da10 2c3e 5cc1 e83d 8c70 cdbd 2c98 173e
00000330: 6183 d4bd e931 9e3d f58c 04bd 4bbf 9f3e
00000340: 3eec 46bd a9e0 2a3e 26d0 c7bb b3f2 a43e
00000350: 2a70 febd b01b 383c e05b b03d 8c82 833e
00000360: b473 61be 75d3 573e 3c5b 6a3e 5a77 66bd
00000370: 0339 a8bd ebc1 083e b47b c03b 31ed 333e
00000380: 5f78 bebd 49e1 963b eb6c 15bc ec94 1ebc
00000390: a2dc 1e3d ac62 adbd a0e7 92bb bdc3 4f3d
000003a0: b07a 413a ae0f 66bd 6d5e acbd 73cd 24bd
000003b0: 552a b83c 250d 7dbd 6d59 7bbd d8e9 1d3e
000003c0: 25bb 1fbd cb58 1f3d cd89 a73c ca1a 2b3d
000003d0: fc17 8bbc bf42 173c b127 bebd 8331 603b
000003e0: 4f51 c43c f027 973c 48a2 8dbd a0cb b53c
000003f0: 1a39 6fbd ca62 4f3c c552 373e 6188 fcbb
-0.0490101 -0.02982521 -0.11799271 0.051041577 0.06571964 -0.14980923 0.31673452 0.5685309
0.12973739 -0.34532073 -0.012364807 0.1647053 -0.26228517 0.17951417 -0.105802715 0.046839416
-0.30309486 0.04728714 -0.18785784 0.07042987 -0.22342588 -0.26805228 0.11979327 0.0235633
-0.15286 0.11928132 -0.037445664 0.09003424 -0.13649735 0.063943475 -0.3309171 0.102525994
0.034739014 -0.0055130273 0.09097043 0.1347719 0.053820245 -0.107649826 -0.023412133 0.11663556
-0.03772422 -0.009069211 -0.021177422 0.021604257 -0.053404998 0.1162681 0.0971954 0.112878226
-0.09449373 -0.13000508 0.025429457 -0.14723906 0.06265229 0.040468432 -0.012282626 -0.032047797
0.05430632 0.122095235 -0.071176946 0.1516816 0.035663657 0.08288461 -0.10014631 0.08226001
-0.07677638 -0.1482005 0.16484722 0.019945648 -0.15861388 -0.18791972 0.19254269 -0.3918006
0.09960338 -0.16618563 0.07033266 -0.043364014 0.19370015 0.062555455 -0.22742717 0.042753644
-0.16114515 0.010862295 0.47045025 0.09176216 -0.12996644 0.005465497 -0.13465895 -0.14834797
-0.28940916 0.33994448 0.23312165 0.09034708 0.053535063 0.069062 0.24359564 -0.07216945
-0.2926001 -0.040492952 -0.085423596 -0.08649753 0.048981003 0.022739166 0.07362988 -0.016240297
-0.024310993 -0.10214509 -0.03380714 0.032021172 -0.060429 0.13796933 0.012555745 -0.028251646
-0.09016148 -0.168015 -0.12322376 -0.15929738 0.12635589 -0.07684428 -0.074701 -0.019093215
0.07483509 0.11020508 0.039922826 0.025616843 0.04221589 0.10572691 0.0062596104 0.08171946
0.12251243 0.032748494 -0.457226 0.2552893 -0.256977 0.14908408 -0.1436465 0.15934362
-0.07209556 0.47078615 0.23208588 0.07048862 0.3512771 0.05041711 -0.1723486 0.17366557
0.27193996 -0.25314048 0.4135437 -0.22883517 -0.023397455 0.119476356 -0.01617985 -0.027895836
0.12216674 -0.009405963 0.08630507 -0.019359052 0.13831484 -0.08439022 0.072049275 0.15842664
0.059606582 0.08405625 0.028081218 -0.034202665 -0.015314212 0.053643655 0.020464135 -0.06082812
0.12551643 -0.05047038 0.08054861 -0.039956544 -0.009245372 -0.12443749 -0.09858326 0.13628286
-0.083610326 -0.07337674 -0.0019583777 -0.029691556 -0.034012754 -0.05643456 -0.016987463 0.0023539895
-0.11789111 0.08771649 0.05742586 -0.13793732 0.04783712 -0.09045722 -0.047398657 -0.10268935
0.003214343 0.13705029 0.64451206 0.093008325 0.30376068 -0.2752511 0.6844714 -0.008939099
0.16803303 0.113650054 -0.10031232 0.14804143 -0.10376621 0.07724363 -0.03236099 0.31200632
-0.04856514 0.16687264 -0.0060978113 0.32216415 -0.12423737 0.01123707 0.08611274 0.25685537
-0.22016793 0.21076758 0.22886366 -0.056266166 -0.08213999 0.13355224 0.0058741216 0.1757095
-0.09300303 0.004604493 -0.009120206 -0.00967906 0.03878463 -0.08466086 -0.0044831783 0.05072378
0.00073806476 -0.056167297 -0.08416448 -0.040234994 0.022481123 -0.061780114 -0.06136458 0.15421236
-0.038996834 0.03890304 0.02045145 0.041773595 -0.01697921 0.009232222 -0.09284914 0.0034209199
0.023964552 0.01845166 -0.06915718 0.022191823 -0.058404066 0.0126578305 0.17902668 -0.0077066873

bias f4 [512]
00000000: bdf8 55bd a7ba 00be b488 78be b640 033d
00000010: a603 bf3d 71b0 40be 0ca5 f03c f166 8bbc
00000020: 175c 91bd 7c66 3ebd 72df cf3d b8c3 ba3d
00000030: 012f 79be e024 50bd 4d0f 03be 8b27 fe3d
00000040: ec58 46bd f9da 71be fd5d cfbd 4038 82bd
00000050: 5a34 b6bd 7235 d2bc 60c4 373d 450b c53d
00000060: aa11 b43d 16f7 f4bd 74ed 953c aaaf b3bd
00000070: 3310 ad3c c121 cbbc 7881 f33b b59f 063e
00000080: a689 253c 2dc4 42be f0e2 203e 0a75 db3d
00000090: f771 0f3e 22b2 12bd 0424 be3d 7118 833d
000000a0: 509e 18be 4873 b43d c3be bc3c 476c b3bd
000000b0: 4db4 6ebb 5578 823d cb43 13be b219 44be
000000c0: 06fa 04be fe48 cdbd d3d5 a33d 2d47 e8bd
000000d0: 8367 763d 6d0b 9e3d 83e9 093e a5d3 4cbe
000000e0: 096d 67be f69e 9d3d dc79 8dbd 522b 1ebd
000000f0: 93fa b93d 38a4 1abd 0961 a93d 1c08 f7bd
00000100: bd72 3bbd 9772 0d3e ef12 c0bc bcd9 123e
00000110: 3547 56bd fe7d 423e 0a4d 193e 6d94 9abd
00000120: 710e 4b3c bbfe 1ebd f260 063e 0105 99bc
00000130: 8e90 113e 4710 fd3c c5c1 1dbe ae1a 2e3d
00000140: 9289 67bd 1ca4 86be bce4 823d 54ae 053e
00000150: 4ec2 75bd d888 833d 6029 5e3d 40c7 ac3c
00000160: 1ef4 9bbd e432 c4bd 808b 2fbe c76f 9ebd
00000170: 51b0 103e 531d 46be f2ed 75be 0f83 49bc
00000180: 647b d13c 195f 403e 4359 0cbd 838d 6f3e
00000190: e5dc 78bd 9f47 30bc 18e6 20bd 6302 13be
000001a0: 408c 413e 0b3e e3bd 72e0 ffbd a58f 753d
000001b0: 83bf 353e 960d 253b f86f 913d 9e38 993d
000001c0: 74cd 2fbd 8402 fd3d d728 65be e542 08be
000001d0: 410b 40be ca56 493d 9f2b 41bd 1ecd ee3d
000001e0: b885 8a3c f5bf c43d e40f 2b3e 7945 1c3e
000001f0: c2a7 edbd 2daf 833d efcb 16be e8f3 2f3e
00000200: 09b0 13be 5d30 c93d edd6 f13c 7719 23bd
00000210: 563b 71bc ead2 aebb a95b 503e 6e05 2d3e
00000220: eb51 6cbd 11b0 2cbc 062e d9bd d115 613e
00000230: e78c 223e bf52 7d3d 7f24 c2bd 8752 e83d
00000240: 2c96 40be 5ad5 18bd 306d 97bd 5ee6 94be
00000250: eee0 113e 8be9 533d 6f9f b43d f830 c83c
00000260: 2106 c3bc eb63 6c3e cdb8 db3d 8b39 5e3d
00000270: 5622 29be 97d3 3fbe fe74 e43c edf0 5b3e
00000280: 935b 913d de60 f13d 34d8 23be c690 603c
00000290: aa4f 6cbd ea3c a2bd dbb1 3f3e a005 0d3e
000002a0: c61f 743d d3b7 d63c e058 2f3c 7814 c03d
000002b0: bdc9 38bc 75d9 1cbe 23d4 d7bd f64e f73d
000002c0: ceee 13be 4c97 eabd 4cbb a63d 4397 2f3e
000002d0: f33e abbd 8fc5 76bb 4b0b f73d ded1 803d
000002e0: 4417 edbd 83e3 993d cb44 d3bc 1476 49be
000002f0: 9039 443d 456f 97bd 21d3 60bd add4 87be
00000300: d297 363d 85d1 143e c765 a23d 6214 113e
00000310: b49c 2dbe e1a8 bd3d 4a2f 3dbe 4910 88bc
00000320: 5333 083e dac4 6abe 1bae 18be 8872 97be
00000330: 6ede a2bc 237b 20be 253e 4ebe af2a e83c
00000340: 5fab 4cbd a5f3 4d3e f083 8ebe 2eb7 19be
00000350: 4f20 cebd ea43 1bbc 940e da3d 9f9c b33c
00000360: 8cee af3c fba2 0c3e 25bf 33be 389e 5e3d
00000370: e046 853d 1755 123e e17b 503c 4af1 d8bd
00000380: d726 0ebd f4b7 17be dc13 a63c 7b5f 07bc
00000390: c33b 67be 1d95 993d c698 a33d 7d00 5a3e
000003a0: 332b 91bd 7dd2 b83d cc0a 14be f146 6ebd
000003b0: 487c 6a3d 9859 f6bc b927 1bbd fb27 1ebe
000003c0: b8e7 053d de77 73be 6e83 73bb b938 bdbd
000003d0: f3b5 60bd 44a5 373b 4e7d a63a 421c 2fbe
000003e0: 547e 853c d776 22be e6f6 283e e571 873b
000003f0: f63f 4cbd 25d2 2bbe 655a dc3d d84e e4bd
-0.05223917 -0.12571202 -0.24270898 0.032044135 0.09326868 -0.18817307 0.029375575 -0.01701686
-0.07097643 -0.046484455 0.10150041 0.09119362 -0.24334337 -0.050816417 -0.12798806 0.12409886
-0.048424646 -0.23618688 -0.10125349 -0.06358385 -0.08896704 -0.02566025 0.044865012 0.0962129
0.08792432 -0.119611904 0.018301703 -0.0877374 0.021125888 -0.024796369 0.0074312054 0.13146861
0.010103619 -0.19020148 0.1571157 0.10715683 0.14008318 -0.035814412 0.09284213 0.06401146
-0.14904141 0.08811051 0.023040181 -0.08760887 -0.0036423386 0.06370608 -0.1438133 -0.19150427
-0.12986001 -0.10023688 0.07999768 -0.11341701 0.06015731 0.07717023 0.13467984 -0.20002611
-0.22600187 0.07696335 -0.069080085 -0.038615532 0.09080996 -0.037754267 0.08270461 -0.120620936
-0.04576372 0.13813244 -0.023446528 0.14340872 -0.052314002 0.18993375 0.14970794 -0.07547841
0.01239358 -0.03881715 0.13122919 -0.018679144 0.142153 0.03089155 -0.15405948 0.042505912
-0.05652768 -0.2629708 0.06391284 0.13054782 -0.059999757 0.06422585 0.054238677 0.021091104
-0.07614921 -0.09580019 -0.17143059 -0.077361636 0.1412976 -0.19347124 -0.2401655 -0.012299313
0.025571533 0.18786277 -0.034264814 0.23393826 -0.060757536 -0.010759263 -0.039281934 -0.14356379
0.18901157 -0.11095818 -0.124939814 0.059951443 0.17748837 0.00251851 0.071014345 0.07481502
-0.042920545 0.123539954 -0.2237886 -0.13306768 -0.18754293 0.049155034 -0.04716074 0.11660217
0.016909465 0.096069254 0.1670528 0.15260877 -0.11604263 0.064298965 -0.14726232 0.17182887
-0.14422621 0.09823678 0.02952143 -0.039819207 -0.014723619 -0.0053352015 0.20347466 0.16896603
-0.05769531 -0.010540024 -0.106044814 0.21980979 0.15874062 0.06184649 -0.09479617 0.11343866
-0.18807286 -0.037312843 -0.07393873 -0.29082006 0.1424596 0.051736396 0.08819472 0.024437413
-0.023806633 0.2308499 0.10728607 0.054254096 -0.16517004 -0.18733059 0.027887817 0.21478625
0.070975445 0.11786054 -0.16000444 0.013706392 -0.05769316 -0.07921775 0.1872019 0.13771677
0.059600614 0.026210701 0.010702342 0.09378904 -0.011278567 -0.15317328 -0.10538509 0.120756075
-0.14446566 -0.11454639 0.08141193 0.17147546 -0.08361616 -0.0037654375 0.12062701 0.06290029
-0.11576703 0.075140975 -0.025789639 -0.1967395 0.04790646 -0.0739427 -0.05488885 -0.26529446
0.04457838 0.1453305 0.07929569 0.14167932 -0.16954309 0.09260727 -0.1847507 -0.016609328
0.13300829 -0.22926655 -0.14910166 -0.29579568 -0.019881453 -0.15671973 -0.20140894 0.028340666
-0.04996812 0.20112474 -0.27835035 -0.15011284 -0.10064756 -0.009476641 0.10647312 0.021925269
0.021476053 0.13734047 -0.17553385 0.054350108 0.06507659 0.14290272 0.0127248475 -0.10592897
-0.03470501 -0.14816266 0.020273142 -0.00826251 -0.22581391 0.07499144 0.079881236 0.21289249
-0.07088318 0.090245225 -0.14457244 -0.058173124 0.05724743 -0.030072019 -0.03787968 -0.15444939
0.032691687 -0.23776194 -0.0037157196 -0.092393346 -0.05486102 0.002802209 0.0012702139 -0.17100623
0.01629559 -0.15865646 0.16500434 0.0041334503 -0.049865685 -0.16779383 0.10759429 -0.11147851

weight f4 [256, 512]
00000000: c269 03be 29fb e83d 6d27 833d c6dc e83c
00000010: 7878 6bbd b23b 8f3d 6eda d0bc 85a2 a5bd
00000020: 7bb7 d0bc c9be a9bd 39f3 883d 3daa 64bd
00000030: 4253 ea3c a12d 9a3b f8ef 873c fec9 8f3d
00000040: 0c38 67bd 742e ab3d 17ed 863d f497 81bc
00000050: 49e5 21bd 54b5 f93d b79b b4bd 6b95 e93a
00000060: eec3 6d3c c971 68bd 637a 1a3d 150c b5bd
00000070: c9ea 09bd eaf2 66bd f974 813b e3d7 853d
00000080: e556 28bd b3bf 9b3a 1fe5 3dbd 31f7 903b
00000090: 9c12 6c3c b25e 60bd 633a 1ebc 2891 5a3d
000000a0: 1db4 38bd d608 8f3a 9f04 13bd b885 e5bc
000000b0: eaaa d53d 6007 85bc 24ce 533c db61 eabd
000000c0: 4f29 e5bd cb62 f53d bd6b 933d 357d 1a3d
000000d0: 65b4 5e3d 1e29 a23d ab9d 55bc a1ef c83c
000000e0: cac9 503d 37d2 7c3d 08c2 2d3d 2d37 8cbd
000000f0: 3bb0 d83d 5c1d cd3b c133 1f3d 7829 c7bd
00000100: 8e45 3b3c 78c6 e93d bafc cfbd 284d a63c
00000110: 5b6d 37be be49 56bc 491c 80bd daab 25bd
00000120: 73d8 5cbd eedd f1bd 68a2 573d 30aa b13d
00000130: 7787 3dbd 4527 193d 4449 a03c 4f25 babd
00000140: 1c0e 693b f33b 613d a3a4 ab3c c075 dbbc
00000150: 7b62 853d 9638 7abd 3d03 243e 1632 c5bc
00000160: 72df a0bd 8b06 9cbd e5c3 583d 9e45 7b3d
00000170: d190 d23d 0f56 193d 237a e43c 609f 4bbd
00000180: 49f6 8ebd 2fa5 2bbc 7025 b43c 02bb 363d
00000190: c83f 07be 0e32 fdbc 862a 12be a9ac 9abc
000001a0: 38e5 5b3d be25 083d bcd9 093d 9016 7fbd
000001b0: 5b9b 9f3d dec6 80bd de0e 093e c2ff dbbd
000001c0: 46b9 973d 0388 a5bc 746f aebb 7cc5 a2bd
000001d0: 1693 363d cd1c a7bd 7354 83bd 9644 1dbe
000001e0: 860d 00be 233c 43bd cdea 61bb cbc0 ac3c
000001f0: 1efa 3abd 61b3 5ebd 1974 de3d 8b36 a33c
00000200: 8d4c c7bc 1099 16bd 5d1a 10be 2956 41bd
00000210: f84d 24bd 6c18 e3bd 6b77 343c 3de9 3ebe
00000220: c077 703c 9e0e 06bd df2f 583d 30ba 00bd
00000230: 125a 8fbe 3448 d43d 99d0 0abd c1c0 9fbd
00000240: ccb2 d03c d452 bdbd bd0a cc3d 9b87 9c3c
00000250: 5980 19bc 63bc c2bd 271a d03c 18f4 683d
00000260: 8b90 003e 7277 853d 0be4 b23d a14a f6bd
00000270: 041e 203d 4e05 f13c 472b 483d ca02 33bd
00000280: 5dd6 54be eb63 c7bb 1d0b 0bbd 0e92 0f3c
00000290: 9a29 07bd 7c4b d8bb cbc1 1d3e 7ec4 4fbd
000002a0: 9002 efbd 5ac2 f6bc 4093 e1bc 45ce ca3c
000002b0: 428e cb3d 39cd 90bd 2e87 5cbd 96a8 99bd
000002c0: 6604 95bd 2f39 83bd eaa3 4cbd 8eb3 a6bd
000002d0: d6b1 f23d 5a98 353d 8a94 afbd d3a7 f6bd
000002e0: 537b 65bd 6450 033c 6e25 643d 5abf 6bbd
000002f0: d5a8 553d c845 713d 9db4 94bc 7ff0 343d
00000300: 66fa e03d 48c1 bfbd 1e6a 62bd 1c13 bd3c
00000310: d1f0 3cbd 362d d8bc d29e 4a3c 702c 9e3d
00000320: e2cd 83bd e07c 38bd c1c5 413d f2bc 8b3d
00000330: 678b cbbd 8f91 babd 64e5 d4bc ae98 50bd
00000340: c4df 77bd aa27 c43c eaa1 313d c84f 39bc
00000350: 2a33 3a3b a171 7b3d 8df8 0dbe 221b e7bd
00000360: 9610 13be ba58 8abd 0ab9 ab3c af09 afbd
00000370: 85fb 013d 4339 93bb 7a9b f1bd c120 48bc
00000380: 703d e8bc 0ba5 023d 3da5 fdbd 2016 bcbc
00000390: b9e7 d2bc ef11 383e a174 c3bd 6066 d93d
000003a0: 9a9d e13c 3373 9abc 5bb6 bf3b c8e8 0d3d
000003b0: e746 793d 2876 b4bd 660b 1abd edc4 e5bd
000003c0: 084f 30bd 497a b1bc 4de9 07bd 6b2f 3b3d
000003d0: 6c98 a7bc 0a06 a43c d4ad c73c 2479 b2bc
000003e0: b035 c43c 0bc5 353c 65f5 bcbd 8702 acbd
000003f0: 2004 883d ce33 143e d7a1 253c eb8a a0bb
-0.12833312 0.1137603 0.06404004 0.028425585 -0.057487935 0.06993808 -0.02549478 -0.08087639
-0.025478115 -0.082883425 0.06687016 -0.055826414 0.028604154 0.0047051464 0.016593918 0.07020949
-0.056449935 0.083584696 0.0658819 -0.015819527 -0.039525304 0.12192789 -0.08818763 0.0017821019
0.014512045 -0.05674914 0.037714373 -0.08840195 -0.033671174 -0.056384005 0.003950712 0.06535318
-0.041098494 0.0011882692 -0.046361085 0.0044239988 0.014408734 -0.05477781 -0.009657475 0.053361088
-0.045093644 0.0010912667 -0.03589308 -0.028017864 0.1043299 -0.016238868 0.012927566 -0.11444446
-0.111895196 0.11981734 0.07198284 0.037717063 0.054371256 0.07917999 -0.013038079 0.024528326
0.05097369 0.061723914 0.04242137 -0.068464614 0.10580488 0.0062596034 0.038867716 -0.097247064
0.011430157 0.11414808 -0.10155626 0.020300463 -0.1791281 -0.013079105 -0.06255395 -0.040447094
-0.05391736 -0.11809908 0.052645117 0.08675039 -0.046271767 0.037390966 0.019566186 -0.09089147
0.0035561388 0.054988813 0.020952528 -0.026789546 0.06512924 -0.06108912 0.1601686 -0.024071734
-0.07855119 -0.076184355 0.052921195 0.06134569 0.10281528 0.037435587 0.02789027 -0.04971254
-0.06980569 -0.010476395 0.021990508 0.04461194 -0.13207924 -0.030907657 -0.14274034 -0.018881159
0.053685397 0.03323912 0.033654913 -0.062277377 0.077933036 -0.06287931 0.13384578 -0.10742141
0.07408385 -0.020206457 -0.005323345 -0.079478234 0.044573866 -0.0815979 -0.06412592 -0.15358195
-0.12505159 -0.047664773 -0.0034472228 0.021088025 -0.045648687 -0.054370288 0.108619876 0.019923469
-0.024328494 -0.036767066 -0.14072557 -0.04720131 -0.04011342 -0.110886425 0.0110148 -0.18643661
0.014676988 -0.032728784 0.05278003 -0.031427562 -0.27998406 0.10365334 -0.03389034 -0.07800437
0.025475882 -0.09244314 0.09962986 0.01910763 -0.009368979 -0.09508588 0.025403095 0.05687341
0.12555139 0.06516923 0.08734902 -0.12025953 0.039091125 0.029421475 0.048869397 -0.04370383
-0.20784898 -0.006084909 -0.033946145 0.0087628495 -0.03299866 -0.0066007953 0.15405957 -0.0507245
-0.11670411 -0.03012197 -0.027536035 0.02475656 0.09939243 -0.07070393 -0.053839855 -0.07502858
-0.072762296 -0.06407391 -0.049961008 -0.08139716 0.11850326 0.044334747 -0.085732535 -0.12043729
-0.056025814 0.008014772 0.05569976 -0.057555534 0.052162964 0.05890444 -0.01815253 0.044174667
0.1098526 -0.09363037 -0.055276982 0.023080401 -0.046128098 -0.026388746 0.012366967 0.077233195
-0.064357534 -0.045040965 0.047307733 0.06823148 -0.09938698 -0.09109794 -0.025988288 -0.050926857
-0.060516134 0.023944695 0.043367304 -0.011310525 0.0028411844 0.06138766 -0.13864346 -0.11284472
-0.14361796 -0.067552045 0.020962257 -0.08546769 0.03173401 -0.00449291 -0.11797233 -0.01221484
-0.028349608 0.03189568 -0.12385032 -0.022959769 -0.02574526 0.17975591 -0.095437296 0.106152296
0.02754097 -0.01885376 0.005850596 0.034645826 0.060858633 -0.08811599 -0.037608527 -0.11219201
-0.04304412 -0.021664755 -0.033181477 0.04569952 -0.020458423 0.02002241 0.02437488 -0.02178628
0.023951381 0.011094342 -0.09226493 -0.083989196 0.06641412 0.14472887 0.010109386 -0.004899373

bias f4 [256]
00000000: 14b8 40bd e0ee 0dbe 2196 a4bd c791 8cbd
00000010: ea48 e1bd 59fa 7bbd ec9b 52bd 9cf7 a03a
00000020: 5bee dabd 234c 12bd 5a20 02bd ea12 25bd
00000030: 9478 8f3c 5b6a c3bd 13e2 f6bc c6c2 34bd
00000040: 2ecd 0bbe 4f43 57bd 91c4 8fbd a535 5ebc
00000050: 5653 dbbd 44b6 9b3b 3dd9 f1bd 7810 40be
00000060: 29d1 abbc 1af3 0cbe 2c6b 06be 6f24 1bbe
00000070: 3c5f c5bd 25f0 eabd 44fd 03be 759c cdbd
00000080: 16fe c7bd 168b c8bd 04b1 f5b8 19a9 ebbc
00000090: 5345 dcbd 770e 2bbd ca0e 5abc 3b5d 85be
000000a0: 194d e4bd ea0c 6fbd e6db 9abd 32ec c4bd
000000b0: bc21 90bd c4ed 48be 6e46 e7bd eb59 7ebd
000000c0: 3dc7 11bd 8fa4 f7bd 836e 45bd 3038 a4bc
000000d0: 5de2 efbd b747 333d 5977 97bd 3c95 d4bd
000000e0: 3248 933c c786 fabd 696a f5bd 5dc0 a6bc
000000f0: d949 adbd 9e13 1abd 1b62 3cbe f99e 1bbd
00000100: e4b1 51bd c9e9 cebd 5f5a eebd 7ef8 5bbd
00000110: 1798 6fbe 6931 babd 676d 14bd a7a0 aebd
00000120: 37c2 bdbd 9586 cabd d4c6 d3bd 682d 90bd
00000130: c553 e7bd beef f1bd 52bd c3bd a2f4 f4bd
00000140: 4fd4 83bd b716 c5bd 809c 5dbd d5ff 03be
00000150: 0146 1ebe 55c3 d8bd e79d 64bd c2a9 b3bb
00000160: bc31 74bd 8743 bbbc e101 19be cfd6 90bd
00000170: 4f91 62bd 087e c5bd 6ddb 15be 542a 0dbe
00000180: 085e dbbd 91b9 8cbd e5ea 1bbe 0ed4 f7bb
00000190: 54f5 d1bd 030e a73c 732c dabd 3da1 21be
000001a0: 5500 c3bd 988a 12be d3a5 86bd 79b3 b9bd
000001b0: 4daa c8bd 8fee 1fbd 70bf 8abd ef03 b9bd
000001c0: ce5a edbc 9d30 e5bd 603c 78bd a337 99bd
000001d0: 61f4 c1bd dbcc f8bd 23ef 00be ced5 2dbe
000001e0: 97dd 29be 893f febc 21bc c4bd c1f3 96bd
000001f0: db00 8bbe 41fb 93bd d779 b4bd 0b6e a93c
00000200: a81a 83bd d97e f3bd 1279 6abe f782 38be
00000210: c5f3 b5bd 26ef 89bd c5c8 13be 83bb c3bd
00000220: fb56 95bd f86e 13be be8c 0bbe 735a 15bb
00000230: 0beb 0fbe 123f 5bbe a05f a1bc 5a47 59bd
00000240: 6bbd cdbd 8526 99bd 7886 cfbd 079a 923c
00000250: a28a 05bd 583f c5bb 4c07 e9bc 576c 4fbd
00000260: 9d45 e2bd 4701 e3bc 1c85 7cbd 5be8 36bd
00000270: 5d5a 26be b9c0 30be 6e83 28bd 5975 bcbd
00000280: 2961 14be 9773 81bd 2c53 b2bd 125c 12be
00000290: 2ae9 8dbd 080c 00be 55f1 9cbd 8892 4cbe
000002a0: 1801 87ba d2ac 68bd 51f2 91bd 9d96 9bbd
000002b0: d668 8fbd ada9 76be 050b 0ebe 7a94 5bbd
000002c0: 5062 13bd 69c0 79bd e26c 30be 65b5 1bbe
000002d0: b8a5 f0bd 9072 f0bd 3d69 82bc a00c e4bc
000002e0: 1b54 2cbe 158d 7fbd f736 aebd 5bbe bdbd
000002f0: 88f4 0dbe 9c89 06be ff9b c7bd bf93 cfbd
00000300: b7d0 42be cd14 65bd d3ea 2ebb ca17 10be
00000310: 8d47 7abd 5486 1bbe f3d1 2ebe 45ec 5cbe
00000320: 48a2 cabd 7e56 a6bd 3221 89bd 2f7e 27bc
00000330: 04ca 16bc c917 a4bd 3173 5bbd 7cd6 3dbd
00000340: 4acf 8bbd 814a 5ebd 89df dbbd f375 eebd
00000350: 6253 a5bd 7725 34bd a9d9 05be 220b 06be
00000360: 47fd b4bd 0314 62be bdd2 f5bd 20f3 85bd
00000370: ea9d 06be 13a7 c6bd 7c6c 96bd 6ed2 dbbd
00000380: 2b02 86bd ae00 23bd 197b 11be 671e 61be
00000390: 3072 a2bc a34d d2bc 47ba f7bd f628 a2bd
000003a0: aeb4 bebd 2e15 6cbc 9b66 d1bd 6565 23bd
000003b0: 24b6 29bd 6c96 2cbd b9ac fcbd 36ac 64be
000003c0: ec43 02be e9b9 0bbe 2c1e cdbd 7b0f a9bd
000003d0: c435 3dbd 9146 4cbc 6240 b1bd e262 6abd
000003e0: f340 16bd 0402 64bd 9906 afbd 9ee8 52bd
000003f0: f55a d6bd 3564 9cbd 42be c3bd 817a ccbd
-0.04705055 -0.13860655 -0.08036447 -0.06863742 -0.110002354 -0.061518047 -0.05141823 0.0012280825
-0.10689994 -0.03571714 -0.031769134 -0.04030124 0.01751355 -0.0954177 -0.030137097 -0.044131063
-0.13652489 -0.052554425 -0.07019914 -0.013562595 -0.107092544 0.0047519524 -0.11809013 -0.18756282
-0.020973759 -0.13764611 -0.1312682 -0.15150617 -0.09637305 -0.11471585 -0.12889582 -0.100396074
-0.0976526 -0.097921535 -0.00011715482 -0.028767155 -0.1075541 -0.04176184 -0.01330919 -0.26047692
-0.11147518 -0.058361925 -0.075614735 -0.09615363 -0.07037684 -0.1962195 -0.1129273 -0.06209747
-0.0355904 -0.12091934 -0.048201095 -0.020046324 -0.11713097 0.043769564 -0.07395811 -0.10380027
0.017978761 -0.12232738 -0.11983187 -0.020355398 -0.08461351 -0.037616365 -0.183968 -0.037993405
-0.05119504 -0.10103185 -0.11638331 -0.053703777 -0.23397861 -0.090914555 -0.036237147 -0.08526736
-0.09265559 -0.09888951 -0.10340658 -0.070399106 -0.11295275 -0.11813305 -0.09557594 -0.119607225
-0.06436979 -0.09623473 -0.05410433 -0.12890561 -0.15456392 -0.10584132 -0.05581465 -0.005482883
-0.059617743 -0.022859348 -0.14942123 -0.070722215 -0.05531436 -0.09643179 -0.14634486 -0.13785678
-0.107112944 -0.068713315 -0.15226324 -0.0075631207 -0.10251871 0.020392423 -0.10653009 -0.15784164
-0.09521548 -0.14310682 -0.06574597 -0.09067435 -0.09798107 -0.039045867 -0.06774795 -0.090339534
-0.028973963 -0.11190913 -0.060604453 -0.07481315 -0.0947044 -0.12148448 -0.12591223 -0.16976091
-0.16588436 -0.031036155 -0.09606195 -0.07370711 -0.2714909 -0.07225657 -0.088123016 0.020682355
-0.06401569 -0.11889429 -0.22897747 -0.18018709 -0.08884386 -0.06735067 -0.14432056 -0.095572494
-0.07291981 -0.143978 -0.13627908 -0.0022789508 -0.14054506 -0.21410778 -0.019698918 -0.05304656
-0.10045894 -0.0747805 -0.1013307 0.017895712 -0.032602914 -0.006019514 -0.028445862 -0.05064043
-0.11048434 -0.02771057 -0.06165038 -0.044655185 -0.16245408 -0.17261018 -0.041140966 -0.0920207
-0.14490189 -0.06320875 -0.0870727 -0.14292935 -0.06929238 -0.1250459 -0.07663218 -0.19977772
-0.0010300009 -0.05680544 -0.07126296 -0.075970866 -0.07002418 -0.24088164 -0.13871391 -0.053608395
-0.03598243 -0.060974512 -0.17229035 -0.15205915 -0.11750358 -0.11740601 -0.015919322 -0.027838051
-0.16828959 -0.062390406 -0.085065775 -0.09264823 -0.13862813 -0.13138431 -0.09746551 -0.10135602
-0.19024931 -0.05592804 -0.002669026 -0.14071575 -0.061103392 -0.15187961 -0.17072277 -0.21574505
-0.09894234 -0.08121966 -0.06695785 -0.010222956 -0.009203438 -0.08012349 -0.053576652 -0.046347126
-0.068266466 -0.05427027 -0.10735995 -0.11643591 -0.08072545 -0.04398104 -0.13071312 -0.13090184
-0.08837371 -0.22077946 -0.12003086 -0.06540513 -0.13146177 -0.09699836 -0.073449105 -0.10733496
-0.06543382 -0.03979557 -0.14207114 -0.21984254 -0.01982984 -0.025671786 -0.120960765 -0.07917969
-0.09311806 -0.0144093465 -0.102246486 -0.03989162 -0.04143347 -0.04213564 -0.12337632 -0.22331318
-0.12721223 -0.13645138 -0.100155205 -0.08254906 -0.046193853 -0.012467996 -0.08654858 -0.05722321
-0.036683034 -0.055665985 -0.0854618 -0.051491372 -0.104665674 -0.076363005 -0.09557773 -0.09984303

weight f4 [128, 256]
00000000: 0cf3 b63c 8672 3b3d ed4b 93bd 473c 343e
00000010: 9532 a8bc 54a0 aabc eb52 dcbd 266b 81bc
00000020: 5b0e 8b3d 0219 88bd a934 aabd 479e 93bd
00000030: dc59 573b 6f02 c6bd 8b8b cc3c b04e 65be
00000040: a5be 373c 2e7c f6bc d4e9 493c 7313 be3d
00000050: 8eb6 9dbd e773 083d 38fc d6bd cb2f 26bd
00000060: 15d3 c13d 5852 81bd f094 103d 6527 83bd
00000070: c0f6 d03c 90d2 2ebe 7b78 f0bd 1807 9f3c
00000080: 8f07 4eba 3de5 0a3d 22df 0dbd 9039 f83c
00000090: d486 d03d 1432 443d ea0e 38be a483 fe3c
000000a0: a7f4 8d3d b926 97bc f8b5 583d 4890 ff3c
000000b0: 1a07 a33c 27d7 64bd cb03 073e 5a10 8f3c
000000c0: 6815 b6bc 8e2b 68bd ece3 29bd 29f0 05bd
000000d0: 656e 5abd 4e30 aebc 5d1a f3bd 1d53 693d
000000e0: 55de 53be ca52 803d 22cd 073d 10c5 70bd
000000f0: 5caf b9bc 8a22 263c 71ef 07be 0b70 8cbd
00000100: 2ba4 eb3d aed0 8cbd ae6f 9ebd c605 9a3d
00000110: 8048 29be 5762 a53c 4f1d 093c 08f8 a13d
00000120: 3feb 36bd 8e1e 08be a3c1 1cbd 1e45 4bbc
00000130: d0cc 053e b342 a93d d49b a3bc 942d aa3d
00000140: d423 4abd ebc5 bd3c 5e88 c23c 9e10 cebd
00000150: 23cb 803e becc 1e3c 5aa3 00be e98c d93d
00000160: 8baa 1d3c c053 d6bd e270 463d 5c6c 71bb
00000170: 0a08 6f3d 23b8 acbd 6288 eb3d 6c1e f33d
00000180: 6a53 1a3d 6a21 05be 43ac ab3d 991b 76bd
00000190: fffb 30be d7ce bebd fdac 00be 3f1a 36bd
000001a0: b383 45bd 7313 a3bd 9f6e 973d 653c 02bd
000001b0: 76a3 62be 0962 7d3d 5bdd 473d 6458 17bc
000001c0: 2ff8 023b e193 fbbd 73e0 2fbc eb9a 1d3e
000001d0: 4cda e6be 6b3d 2f3d 41a4 9d3d d8f7 063c
000001e0: 8d9b f93b 8894 b1bc 9eea a33c b70c 1abe
000001f0: b30a 0d3c cbe7 88bc 1899 5d3d b1f3 ce3b
00000200: 0c05 ffbd 4966 15bd 8a5e b9b9 cb9c 78bd
00000210: fe9d dfbd d20f 91bb 915f ed3c da58 893c
00000220: 610f 863d 484d aabd 7863 633e 6233 1dbe
00000230: 5824 3fbe 4828 e73d 44c3 16be 05bb 55bd
00000240: d4ee 093d 5821 113e 2e20 053d 2e24 acbd
00000250: b342 f2bc 690e 2fbd d3d4 a73c e831 20be
00000260: 02fd 02bb 4bc8 14be 9d02 c13c 2f92 2abd
00000270: bac8 553d 0ab3 873b fb1c 8bbd 5414 bfbb
00000280: caeb 973d 31be 85bb 2b09 a53c 1f90 023e
00000290: c4f9 023c 4694 f23d bfbf 403e 937c 1b3e
000002a0: fe94 723c d7ce 12be 6a29 353c d8a2 a43d
000002b0: 04df a83c 1a5b b83d d997 49be 23e6 ddbd
000002c0: 9751 d83b 989c e53c c2bb 7f3d f468 1abe
000002d0: 2bf2 12be 7034 b4ba b396 2ebd 6fe8 26be
000002e0: a860 70be bfe9 be3c f37a bfbc 43d7 9dbd
000002f0: 8795 97bd 35e5 1e3e c576 d63d a009 243d
00000300: a5c9 f13c 5e75 cc3d 8c15 863d 4a3b bc3d
00000310: 8f1c d73d a103 34bd 57de 08bd 3801 243e
00000320: 5715 38bd 95d0 d1bd 97e5 933c b372 c03d
00000330: 8ae0 5b3c 955b a1bc 73d2 113d 7d6b fcbc
00000340: b1ce 523d 7a94 ddbb fb4e 1ebe e6d0 1ebe
00000350: 07cf a8bc 6a14 c8bc 3561 eebd 212c e73d
00000360: 803e 743c c928 9cbd 29e8 e73c 1aa5 68bd
00000370: 9e70 833d 39a6 193c 1889 42bc b607 66be
00000380: cc12 033e 0242 6abd 32b5 9abd f958 30bd
00000390: 179a ef3b 97a9 373d d088 8d3d deca 93bd
000003a0: 0502 13be d1ff 11bd c812 c33b 424f bd3d
000003b0: 83b8 54bd dad4 1cbe 55bd 06be 7135 5bbd
000003c0: 1b55 b23c 105c 82be 7d54 e5bb cb85 17be
000003d0: 3abc 063e a9e1 9abd 56dc eebc 8910 31bc
000003e0: f6d6 55be 05ca 97bd a6ac cebd a8ba c23c
000003f0: b6d1 9c3d 26e5 aa3d f5f3 1a3e 42d6 583d
0.02233269 0.045763515 -0.07192216 0.17601119 -0.020531932 -0.020828404 -0.10758003 -0.015798163
0.067898475 -0.06645395 -0.083108254 -0.072079234 0.0032859957 -0.09668433 0.024968883 -0.22393298
0.011214887 -0.03008851 0.012323815 0.092810534 -0.07700835 0.033313658 -0.10497326 -0.040572923
0.09464089 -0.06314534 0.035298288 -0.06403998 0.025508285 -0.1707251 -0.1174173 0.019412562
-0.00078594027 0.033910025 -0.034636624 0.030300885 0.101819664 0.04789932 -0.1797444 0.03106863
0.06931429 -0.018451082 0.052907914 0.031196728 0.019900847 -0.055869248 0.1318504 0.017463852
-0.022227004 -0.056682162 -0.04147713 -0.032699738 -0.053327937 -0.021263268 -0.11870263 0.05696403
-0.20690282 0.06265791 0.033154614 -0.058781683 -0.022666626 0.010140071 -0.13274933 -0.06857308
0.11505922 -0.0687574 -0.07736145 0.075206324 -0.16531563 0.020188494 0.008368804 0.07908636
-0.044657942 -0.13292906 -0.038270604 -0.012406616 0.13066411 0.08264675 -0.019971766 0.083094746
-0.049350575 0.023165664 0.023746666 -0.10061763 0.2515498 0.009692369 -0.12562314 0.106225796
0.00962318 -0.10465193 0.048447497 -0.003683827 0.058357276 -0.08433559 0.11500622 0.11871037
0.037677206 -0.13001028 0.08382466 -0.060084913 -0.17283629 -0.09316795 -0.1256599 -0.044458624
-0.0482213 -0.07962694 0.07394146 -0.031795878 -0.22132668 0.06186107 0.048795085 -0.009237383
0.0019984355 -0.12284065 -0.010734665 0.15391128 -0.45088422 0.042783182 0.076973446 0.0082378015
0.00761742 -0.02167727 0.020009335 -0.15043913 0.008608508 -0.01671209 0.05410108 0.0063156714
-0.124521345 -0.0364745 -0.00035356387 -0.060696404 -0.109188065 -0.0044269348 0.028976234 0.016766
0.06545902 -0.083155215 0.22205913 -0.15351632 -0.18666208 0.1128698 -0.14722925 -0.05218031
0.03367503 0.14172876 0.032501392 -0.08405338 -0.02957282 -0.042738352 0.020487225 -0.15644038
-0.001998723 -0.1452953 0.023560816 -0.041643318 0.05219338 0.004141216 -0.06792637 -0.0058312807
0.0741802 -0.0040815105 0.020145973 0.1275029 0.007994119 0.11844687 0.18823145 0.1518424
0.01480603 -0.14336716 0.011057237 0.080388725 0.020614155 0.09001751 -0.19686832 -0.10834911
0.006601523 0.028028771 0.06243492 -0.15079099 -0.14350192 -0.0013748538 -0.042624187 -0.16299604
-0.23474371 0.023304818 -0.023374056 -0.077070735 -0.07401567 0.15517123 0.10471872 0.04004824
0.029515097 0.099833235 0.065470785 0.09190996 0.10503494 -0.043948773 -0.033415165 0.1601609
-0.044942226 -0.10244862 0.018053813 0.09396877 0.0134202335 -0.01969699 0.03560109 -0.030812973
0.051466648 -0.0067620846 -0.15459816 -0.15509376 -0.02060653 -0.024423797 -0.116396345 0.11287714
0.014907479 -0.07624967 0.028308945 -0.056798078 0.064179644 0.0093780095 -0.011873506 -0.22463879
0.12800139 -0.057191856 -0.075540915 -0.0430536 0.00731207 0.044839468 0.069108605 -0.07216428
-0.14356239 -0.035644356 0.0059531666 0.09243633 -0.051933777 -0.15315571 -0.13158162 -0.053517763
0.021769097 -0.25460863 -0.006998597 -0.14797132 0.1315774 -0.075625725 -0.029157799 -0.010807165
-0.20882782 -0.07411579 -0.10091524 0.023770645 0.07657187 0.08344488 0.15132125 0.052938707

bias f4 [128]
00000000: 54d6 00be a1fc 0fbe c7d7 15bd bfe0 dabd
00000010: 2fce 95bd d0f8 8ebd fe55 2cbd cfe6 6eb9
00000020: e3bf b4bd f7cb 54be 51bb f1bd f581 3ebd
00000030: 4f0c 41bd 5160 b9bc eabc 72bd 3dd6 31bd
00000040: 25bc 9fbd bce3 13be b18e dfbd a282 c6bd
00000050: 1e29 f6bd b186 9abc 138d b3bc bf55 a3bd
00000060: f6b1 4cbc 461f d1bd 2d3f 94bd 922d c4bd
00000070: c896 cdbc d0dc 96bd c643 cfbc 7cae a8bd
00000080: b229 1ebd da9b 3abe 6328 80bd 0498 0dbe
00000090: 770f 14be a47a c7bd 5f0f b0bd 3591 81bd
000000a0: ea5c 8ebd 3b8b dbbc 26da 26bd 59d3 c1bd
000000b0: a0a6 38bd d73c 26bd bf81 23bd a088 33bd
000000c0: 7c2e 1dbd b83d dbbd 6bdf edbd d698 7cbd
000000d0: b75f 60bd 01fe 77bd d79d e5bc ca01 75bd
000000e0: a965 d1bd 6851 f7bc bd37 62bd 8caf 2cbe
000000f0: 9ce9 babd e9f1 20bc c099 eabd 2103 65bc
00000100: 806f a5bd 91b7 c5bd 1384 6bbd 32bf 4cbc
00000110: 9d35 89bd ebde dbbc 9247 70bd 0318 40bd
00000120: 8748 13be 56db 933c 8f04 09be f3b9 e63d
00000130: f419 0dbd 43bb 0fbd f8bf 06bc 02f7 673c
00000140: e975 193e 4258 a4bd b396 85bd ee46 72bc
00000150: f623 63bd 932f b63c a207 a6bc d3aa 71bc
00000160: 44d8 30bc 55e4 31bd 868e cebd 29c2 8dbd
00000170: 0c3c 7dbd ec42 3abd 5301 6ebd 578a 41bd
00000180: a807 b1bc 2b94 42bd c1cb a1bd 1fc8 12be
00000190: f4aa 52bd ac13 c5bd e8b8 70bd 4c29 b5bd
000001a0: 01a7 fabd e83e f7bc 1f9c 6fbd cbb1 26bd
000001b0: 2ffe 4bbd f679 c7bd 5889 31bd b048 0bbd
000001c0: 98c0 02bd f1dc 1bbe 6b33 e3bd bb35 9fbd
000001d0: 278f 04be d3f1 02bd deba 6cbd 6034 22bd
000001e0: 3ff0 bf3c 100d 003a 40d7 fbbd 274a 47bd
000001f0: 6a6b 33bd 7531 84bd f3aa 8cbd f5c7 2b3c
-0.1258176 -0.14061214 -0.036582734 -0.10687398 -0.07314717 -0.06981051 -0.042074196 -0.00022783432
-0.08825662 -0.20780931 -0.11803306 -0.046510655 -0.04713088 -0.022628935 -0.059262194 -0.043417204
-0.077995576 -0.14442343 -0.10915888 -0.09692885 -0.12019561 -0.018863054 -0.021917855 -0.07975339
-0.012493601 -0.10211043 -0.07238612 -0.09579004 -0.025096312 -0.073663354 -0.025300872 -0.08236405
-0.038613982 -0.18223515 -0.06257703 -0.1382752 -0.14459024 -0.09740189 -0.08596682 -0.06326524
-0.06951316 -0.026799789 -0.040735386 -0.094641395 -0.04508078 -0.040585365 -0.039918657 -0.043831468
-0.03837441 -0.10705131 -0.11614879 -0.061669193 -0.05477878 -0.06054497 -0.028029365 -0.05981616
-0.10224468 -0.030190185 -0.055228937 -0.16863841 -0.09126589 -0.009823301 -0.11455107 -0.013977797
-0.080779076 -0.09654153 -0.057499003 -0.012496756 -0.06699679 -0.026839694 -0.058662005 -0.0468979
-0.14383136 0.018048923 -0.13380645 0.11265936 -0.03444858 -0.035090696 -0.00822448 0.014158012
0.14986385 -0.08024646 -0.06522884 -0.014787419 -0.055454217 0.022239482 -0.020267311 -0.0147502
-0.010793749 -0.043430645 -0.10085778 -0.06921799 -0.061824843 -0.045473978 -0.05810673 -0.04725107
-0.021610096 -0.047504585 -0.07900191 -0.14334153 -0.051432565 -0.09622893 -0.05877009 -0.088457674
-0.12238885 -0.030181363 -0.058498498 -0.0406969 -0.049802955 -0.09740059 -0.04334387 -0.034004867
-0.031921953 -0.15221001 -0.110937916 -0.0777392 -0.12945233 -0.031968903 -0.057795398 -0.03960073
0.023429988 0.0004884759 -0.12296915 -0.0486547 -0.04380361 -0.06454746 -0.068685435 0.010484685

weight f4 [12, 128]
00000000: a5c8 f4bc ae4f beb8 30ad 4dbc dedb bc3b
00000010: bed0 bdbd 7b5c 683c 1705 f2bc 4de5 093d
00000020: bcbd 14bd ec82 333d 78db 3f3c e264 9dba
00000030: c834 873c acdb b2bc 8d5b 0e3c f65d f53d
00000040: 519d 8e3c 8cb2 acbb 2f99 f73c 55a5 963c
00000050: 0024 a93b 8434 ebbc 5627 e9bb 382f e63c
00000060: 0636 46bb 1e38 413a 8a07 293d fd4b 1fbc
00000070: a0ce 13bd 29f8 953b 4c38 543d 32ce 123d
00000080: d9c8 f9bc 8913 c4bb 4dcb 753c 2c66 ab3c
00000090: ddcf 6d3d d95c 103b 0779 173a ec8f 513d
000000a0: 07c7 7639 a9b8 bebb 2c72 6bbc 9ecd f73c
000000b0: 7b93 233d 287d 59bd 951f 3f3b 3b06 113d
000000c0: 1223 fb3c 7389 e93c d0b4 fe3c d957 613d
000000d0: 0b0b c83c 6c14 89bd c142 213c 1b05 c0bd
000000e0: d64f 543d 7ecf a8bd 0e50 163c 5a07 de3c
000000f0: b150 e8bb fe38 233d 4f99 bc3c a3f3 c73c
00000100: 640f 6cbd e04a e53c 8e43 e2bc a5aa 76bc
00000110: d22b b73c 7cff 76bd 096d 1f3c 47b6 2b3d
00000120: 533a 71bd 9498 cfbc 2405 46bc 0d4c 75bd
00000130: 569f 073d b17f aa3c 48e9 a8b9 bd99 3a3d
00000140: cc27 a83d 2d9a bdbc 2524 d3bc 5983 a23d
00000150: c058 7dbc b7da f73c 69f9 483d 844c f43c
00000160: e383 39bd 8c5e 9b3d 395d debb f110 64bc
00000170: 208f 38bd a7de e53b 6e5c 8d3b 2d9c 8dbd
00000180: 4f64 7ebd 89ae 81bd b87c 77bd 9ec8 273d
00000190: 36a4 81bc 4565 093d 16f5 c0bb 0741 b3bd
000001a0: 5b70 e13c 0def f1bc 0323 4f3d 0b3e bf3a
000001b0: 8403 fa3c 70ca 53bd 08fc 76bd 3b64 ffba
000001c0: 0f57 073d 8fe7 32bc 8809 153d 672b 4d3a
000001d0: 5e6e b93d ebf0 c6bc 6ec4 6abd 2204 b03c
000001e0: 6fc6 293d 458d ba3b ae75 14be bf50 77bc
000001f0: 7e5e dc3c 8133 f33c 9cc6 cabc 8e63 e9bc
00000200: 3ff8 41bd df7f 7c3d c4e6 d73c 01a4 ef3c
00000210: dccd 183d fde1 fb3c fa3b f23a cf45 9c3d
00000220: 40cf 3b3d 344a 7dbc 8d3d b2bc 52bd 083d
00000230: 52c2 5cbc df19 dabc 2fbc de3c 2810 c23c
00000240: e818 c53c 4912 7bbc a03a 7b3d 8ec8 94bc
00000250: 2eef 49bc d43c db3c 4d41 98bc 1044 293c
00000260: 12b8 8239 4dce 993d 8398 d0bc 6ff7 fb3c
00000270: c036 2fbc 078f 183d 7e27 253d 7b55 653d
00000280: 73a6 ce3c e31f 503d ec9f 463b bad7 3b3c
00000290: 3c91 1a3e d3b0 5c3b cf8e 0dbc 1016 fdbd
000002a0: 22b4 40bd 439b 13bd 42dc 77bd f411 a83b
000002b0: da91 e8bc c10a a3bc d2bd 06bd 065e dabc
000002c0: 0c45 9cbd 057e 093d e931 80bd 84b6 bbbb
000002d0: bc4e a2bb d4c2 a0bd 7a04 87bd 5e20 a7bd
000002e0: 01e5 d43b 09ef e3bc f598 b43c 0af5 f6bb
000002f0: ac77 4b3d 81d3 b0bd 2739 083d 94ae f83c
00000300: d2dd 83bd 5228 26bd 2b6e a1bd 07aa 903d
00000310: 1a20 2fbc 3095 c4bd 6255 60bc bd64 3c3d
00000320: 973a 48bd 58fc d23d 6de4 aebd 9396 dbbd
00000330: 4ad8 143c 9f49 143d 6aea 433d 9707 1cbc
00000340: e5ca adbc 9236 c43d 0e1f 50bd 2acc 75bc
00000350: cda0 0ebc 21a1 b03d b832 f23b b85b d53c
00000360: edb4 753d 532a 443d 761b 0ebd bdb5 8c3d
00000370: ade0 043d 9cd4 b9bc e481 6fbc 117e 92bc
00000380: 279b 8ebd 7404 a83d 3298 853c cd60 05bc
00000390: be91 4f3d ca37 31bd 7710 433c 011d c43c
000003a0: d48d e3bc 9734 a438 60a6 d33c 6434 88bc
000003b0: 976a ddbd bccb a93b 90bd ac3c ca55 aebc
000003c0: 2fbe 87ba 5538 143d db63 fe3d f988 2e3c
000003d0: d9aa 34bb 9a81 283e 4cd6 67bd 9c0a 41bd
000003e0: 1c1f eabd 7e35 87bb fd39 2e3d 3282 11bc
000003f0: facb 38bd e8be 6dbc 18cf 90bc 1ae4 5a3b
-0.029880831 -9.0747475e-05 -0.012553498 0.005763515 -0.0926833 0.014182205 -0.029543443 0.033665944
-0.036313757 0.04382603 0.01171004 -0.0012008215 0.01650466 -0.021833263 0.00868882 0.11980812
0.017408999 -0.005270308 0.03022441 0.018389383 0.0051617622 -0.028711565 -0.007115285 0.028098688
-0.0030244603 0.0007370728 0.041266955 -0.009722707 -0.036085725 0.004576702 0.0518115 0.035841174
-0.03049128 -0.005983774 0.015002084 0.020922743 0.058059562 0.0022027998 0.00057782274 0.051162645
0.00023534532 -0.005820353 -0.014370482 0.030249413 0.03993557 -0.053097874 0.0029163111 0.035406332
0.030656371 0.028507924 0.031092077 0.05501542 0.024419328 -0.06693348 0.0098425755 -0.09375974
0.05183395 -0.08242701 0.00917436 0.027103115 -0.0070896973 0.039849274 0.023022322 0.024408167
-0.057631865 0.027989805 -0.027620103 -0.015055333 0.022359762 -0.060302243 0.009730586 0.04192188
-0.058893513 -0.02534131 -0.012086187 -0.05988698 0.03311094 0.020812841 -0.00032217265 0.045556773
0.08210716 -0.023144806 -0.025774071 0.07935209 -0.015463054 0.030255659 0.04906598 0.029821642
-0.045291793 0.07586393 -0.0067860154 -0.013920055 -0.04505837 0.0070150676 0.004313997 -0.06914554
-0.06210738 -0.06332118 -0.060421675 0.040962808 -0.015825372 0.033543844 -0.0058885915 -0.08752637
0.027519396 -0.029532934 0.0505705 0.0014590634 0.030519255 -0.05170673 -0.06029895 -0.0019484827
0.03304201 -0.010919466 0.036386043 0.0007826597 0.09054254 -0.0242848 -0.057316236 0.021486346
0.041449007 0.00569311 -0.14498016 -0.015094935 0.026900526 0.029687645 -0.024752907 -0.028489854
-0.047355887 0.061645385 0.026355155 0.029253008 0.037305698 0.030747408 0.0018481009 0.076305024
0.045851946 -0.015459586 -0.021757865 0.033383675 -0.013474064 -0.026623664 0.027189342 0.023689345
0.024059728 -0.015324184 0.061335206 -0.018162038 -0.012325091 0.026762404 -0.018585825 0.010331169
0.00024932675 0.07510052 -0.025463348 0.030757634 -0.010694206 0.037245777 0.040320866 0.055989724
0.025225854 0.05081166 0.0030307723 0.011465007 0.15094465 0.0033674731 -0.008640005 -0.12357724
-0.047046788 -0.03603674 -0.06051279 0.0051290933 -0.02838986 -0.019902589 -0.03289587 -0.026656162
-0.07630357 0.033567447 -0.062595196 -0.0057285447 -0.0049532335 -0.078496605 -0.06592651 -0.081604704
0.006497026 -0.027823942 0.022045592 -0.007536535 0.049674675 -0.08634091 0.03325763 0.030356683
-0.06438793 -0.040565796 -0.07882341 0.0706368 -0.010688806 -0.09598768 -0.013692232 0.04599451
-0.048884 0.10302037 -0.085396625 -0.10722079 0.00908477 0.036203023 0.047830977 -0.009523294
-0.021214912 0.09580721 -0.050810866 -0.01500229 -0.00870533 0.08624483 0.0073913 0.026044711
0.059986997 0.047891926 -0.034694158 0.06870601 0.03244083 -0.022684388 -0.014618371 -0.017882379
-0.06963187 0.08203974 0.016307924 -0.008140755 0.0506761 -0.043266095 0.011905781 0.023939611
-0.02777759 7.829925e-05 0.02583617 -0.016626544 -0.10811346 0.0051817577 0.021086484 -0.021281142
-0.0010356362 0.036186535 0.1242139 0.010652774 -0.0027567653 0.16455689 -0.056600854 -0.04712926
-0.11431715 -0.00412625 0.04253577 -0.008881139 -0.045116402 -0.014510848 -0.017676875 0.003340012

bias f4 [12]
00000000: 81b6 ec3c 481e 8c3d b02a 3dbe 9489 07be
00000010: 2168 c1bd e02a 26be 8356 103e cb1b 2ebd
00000020: 9368 35be 7d1d f4bd 0127 ccbd 41de ffbd
0.028895618 0.06841713 -0.18473315 -0.13236076 -0.09443689 -0.16227293 0.14095502 -0.042506974
-0.17715673 -0.11919687 -0.09968377 -0.124935634

weight f4 [128, 270]
00000000: 276b 823c 100f bf3c 50a6 8d3d c721 a83e
00000010: 3d32 debe 0f7e febe 2e9e afbe 05bd 8b3e
00000020: fc5e 76bd ceb5 b4be 436b e63e 7e25 08be
00000030: 345d 703b e191 7e3e c239 333e 6238 ccbe
00000040: 74d5 073f 32d3 993e 7172 d53e 98a7 1f3f
00000050: 281b e43e 42f1 be3d 6059 76be b5cc d33d
00000060: b738 f9bc 7ac2 8fbe 6647 be3c 9825 4abd
00000070: d80d 0ebd 9d67 3f3e 1e2e 113f 7383 2b3f
00000080: b556 e63e 7d6d 6f3d 770b d0bc 6c61 003d
00000090: f246 88bc 524e abbc f167 923c 5210 a53c
000000a0: 23bb c6bc 8d35 c4bc b93d 823d 359f 8f3d
000000b0: 4151 8cbd 1fbf 173d 8b63 a7bd f78f 033e
000000c0: 6612 ed3d 690e babb 0167 56bd d59b dfbd
000000d0: 124e b63e 1498 c0bd b4b2 19be 71c7 003e
000000e0: b3d8 613c e031 b6bd 6f67 643d 714c 933d
000000f0: 1bed c3bd c0fb a93e 0008 203e 524e 733d
00000100: 422d 8f3e d78e 983e 0c64 083e 0238 23be
00000110: d130 ba3c 89a0 d8bd 3a3d 33be 3c4c 8eba
00000120: b10b f23c ae72 22bd b67b 83bc 67f9 4a3e
00000130: 19c5 603e 129e 6c3e b1a8 2f3c fcbd 8abc
00000140: 2180 873c df20 e5bc fcd4 1b3a 7c8a 39bc
00000150: fd5a 9bbb 3c7b 18bd a370 7aba e430 483d
00000160: c3e8 5d3c 9f42 dd3a 6b82 723d 92d7 a9bd
00000170: 4176 c33d 31a8 c73d 3500 28bd fcef 8cbd
00000180: 0159 a53d 8be3 9b3e 8359 02be a422 41bd
00000190: 893c 183c bfe3 a93d 160a d5bb ce92 14b9
000001a0: 2706 87bd 93d2 82bc 594a 473e 33c1 993b
000001b0: ee28 06be 5a66 c73d e8a7 473e 621f d43d
000001c0: 636e f1bd 3c4e 833a 52d0 9cbc 1d27 01be
000001d0: d9bc 05bd 0e0b d93d c68d 87bd 40e6 c2bd
000001e0: 7b49 f43c 44f2 013d 7642 aabc e582 c2ba
000001f0: 37af 48bc 7f37 3d3c 9240 20bd 0063 68bc
00000200: 1f55 7dbc ddd4 b939 b654 0fbd 341a 953b
00000210: 0b66 1b3d 92cc 583c 242e 263c 23a1 2c3d
00000220: d999 023d 58b3 003d dd06 bc3d efba e53b
00000230: 1517 8ebd 1cdd 1e3e ed9d 053e 0fcd d3bd
00000240: 2a04 593d 404c 55bd 9823 253e 6705 5e3d
00000250: 28be e3bc 46ce 42bd d35e 263c 4207 a03d
00000260: f97a 97bc 3f49 5dbe 4d4f 25bd d737 a63d
00000270: d761 873d 4926 0ebd 5cf2 b1bb 0d17 1e3d
00000280: 7d86 e6bc 9998 9ebc 59b3 023e e6f1 5bbd
00000290: 6408 2fbd a472 72bc 05de 04bd 5ace 223d
000002a0: 27c6 fdbb 2f05 20bc 4b44 983a d236 0bbd
000002b0: e71c b2bc 5367 20bc 5ca8 803c 1fa0 aebc
000002c0: 4556 98bb 1766 e43c 697a d33c f164 cabc
000002d0: d517 36bd 57e5 1a3d f28e 45bd b017 823d
000002e0: b326 0a3d cdc7 a43c 1b7b 7e3e 2ce1 d1bc
000002f0: cc73 d6bd 52a3 0d3d ae5c ab3c b210 073e
00000300: b6eb 433d 3783 92bd 09de 6abd a6df 6dbc
00000310: 53ac bb3c 93ec 353d 7784 49be 45ee a6bd
00000320: 4a46 7a3d 5dcb a4bb 107c dbbc 93b5 91bb
00000330: 0e7a 933d 6368 f03c 216d 4f3a 81b5 023e
00000340: 1ad3 1abd a123 f7bb ca55 82bd 8ffd 02be
00000350: fc0d 94bb 0512 923a 03db d8bb 2075 d9bb
00000360: 5dce 94bc a1ae a9bc 99f0 f5bb 0683 813c
00000370: 0786 fabb 217d b7bb ed12 c03c 8bf4 bb3c
00000380: bcc5 40bc 9816 b9bd 4031 7e3d 91da 40bd
00000390: fa72 75bb ac40 ca3d c1ef ac3c 6830 c03e
000003a0: 3e16 fbbd 2add d7bd 6383 113e 3511 2fb7
000003b0: 958f 053e f4c4 ba3d 5792 b6bd 35af 39be
000003c0: d471 2b3d d4b6 abbd 0335 293d 7638 9abe
000003d0: 5bea 12be d192 463c d91f d5bd ffc2 2bbd
000003e0: 6eef 77bc 3a62 383c c799 e93c 2c82 47bd
000003f0: f0d1 3cbb ef77 9ebd a9d2 8ebd 5721 69bd
0.015920235 0.023322612 0.06916487 0.3283827 -0.43397704 -0.4970555 -0.3430037 0.27292648
-0.060149178 -0.35294956 0.4500371 -0.13295552 0.0036676647 0.24860336 0.17502502 -0.39886767
0.5306008 0.30043942 0.41688874 0.623651 0.4455197 0.0932336 -0.24057531 0.10341779
-0.030422552 -0.2807806 0.023227405 -0.04935226 -0.03468117 0.18691869 0.56710994 0.6699745
0.44988027 0.058454026 -0.025396092 0.03134291 -0.016635392 -0.02091137 0.017871829 0.020149384
-0.024259156 -0.023951316 0.06359429 0.07012788 -0.068514355 0.0370475 -0.08173283 0.12847887
0.11575775 -0.0056779874 -0.052344326 -0.109183945 0.35606438 -0.094040066 -0.15009576 0.12576081
0.013784575 -0.08896232 0.055762704 0.071923144 -0.09566709 0.33199883 0.15628052 0.059400864
0.27964216 0.29796478 0.13319415 -0.15939334 0.022728356 -0.10577495 -0.17503825 -0.001085646
0.02954659 -0.03966015 -0.0160502 0.19821702 0.21950187 0.23107174 0.0107213715 -0.016936295
0.016540589 -0.027969776 0.0005944518 -0.011324521 -0.0047410713 -0.0372269 -0.00095535273 0.04887475
0.013544264 0.0016880817 0.059206408 -0.0829307 0.095440395 0.09748877 -0.041015822 -0.06881711
0.08073617 0.3044704 -0.12729459 -0.047152176 0.009291776 0.08295392 -0.0065014465 -0.00014169069
-0.0659297 -0.01596955 0.19461955 0.0046922206 -0.13101551 0.09736319 0.19497645 0.10357548
-0.11788633 0.0010017822 -0.019142304 -0.12612577 -0.032650802 0.10597812 -0.06618838 -0.09516573
0.029820194 0.031725183 -0.020783644 -0.0014840035 -0.012248806 0.011548876 -0.03912408 -0.01418376
-0.015462189 0.00035444545 -0.034992896 0.004550243 0.037939113 0.013232367 0.010142837 0.04214586
0.031885 0.031421036 0.091809966 0.0070108096 -0.06937996 0.15514034 0.13048525 -0.10341846
0.052982487 -0.05207467 0.16126859 0.05420437 -0.027800635 -0.04756 0.010154444 0.07813884
-0.018491255 -0.21609972 -0.04035883 0.08116119 0.06610458 -0.03470448 -0.005430503 0.0385962
-0.0281403 -0.019359874 0.12763728 -0.05369749 -0.04273261 -0.01479784 -0.032438297 0.039747573
-0.007744569 -0.009766861 0.0011617033 -0.033987828 -0.021742297 -0.009790259 0.01570528 -0.021316586
-0.004648956 0.027880711 0.025815206 -0.024706336 -0.04445632 0.03781637 -0.048232026 0.06352174
0.033728313 0.020114804 0.24851649 -0.025620066 -0.10471305 0.034579583 0.020918217 0.13189963
0.047832213 -0.071539335 -0.057340655 -0.014518654 0.022909319 0.044415068 -0.19679438 -0.08150915
0.06110219 -0.0050291256 -0.026792556 -0.004446694 0.072010145 0.02934665 0.0007912685 0.12764551
-0.03779898 -0.007542089 -0.06364019 -0.12792037 -0.0045182686 0.0011144286 -0.006617905 -0.006636277
-0.018164808 -0.020713152 -0.007505488 0.015809547 -0.007645372 -0.0055996333 0.023446525 0.022943756
-0.011765894 -0.090375125 0.062058687 -0.04708344 -0.0037452565 0.098756164 0.021110417 0.3753693
-0.12260102 -0.105402306 0.14210276 -1.0434819e-05 0.13043053 0.09119597 -0.08914631 -0.18133242
0.0418566 -0.08384481 0.04131032 -0.301212 -0.14347212 0.012119965 -0.10406465 -0.04193401
-0.015132768 0.011253888 0.02851571 -0.048708126 -0.0028811656 -0.07737719 -0.06973774 -0.05691656
