src/rl_sar/policy/l4w4/legged_gym/policy_n1600.pt (torch, 450308 bytes, 14 tensors)

weight f4 [256, 76]
00000000: fdc2 98bd d6e2 c43f a629 b3be a60a b83f
00000010: a80c 3b3e 8a3f 2e3d 2797 d63d dcf0 11bd
00000020: 30a4 d43d af66 51bf f6ab 103f bc49 19be
00000030: a11d bbbe cd99 3dbf beee d8be 4fc7 043f
00000040: 8ea7 fa3e 0b91 963f 12e0 75bf 5678 843c
00000050: 75b1 debe 5785 cb3e bfac e93e 6359 5fbe
00000060: 2773 a63e 39b6 81bf 0ff8 1d3f 9e05 4f3f
00000070: d924 76be 6454 993f cd90 113d 9674 9f3e
00000080: 7d3b 9fbe f5ba 9f3c d717 94be 7203 253f
00000090: d2f6 4f3c b884 34bf 9092 813f 1a05 74bf
000000a0: 7a84 e03c 11a1 183d 8ce0 bc3c 26da 1bbe
000000b0: 47db 9e3d 3e83 40bb c318 e13c c293 ab3d
000000c0: 41e8 5a3d 3e68 fabd b881 953c 310d 973e
000000d0: 8997 abbc af41 0abd 6318 ce3d a459 0abe
000000e0: a58a 59bd c1be 483d 1681 acbc 6161 c63e
000000f0: 1382 5bbd 3a72 563e 1c8b 13bd 28bc 3b3e
00000100: 0ca0 36be 9004 2ebe 2da7 80be adc6 8dbe
00000110: 4f93 6d3e 0d86 5dbd f046 1bbe 2340 47be
00000120: 80de 4dbe 1261 1bbe c2ca 813d 4477 e83d
00000130: 6c4d 603e 3b67 ec3e a0c6 693f e041 ec3e
00000140: b755 aabd 2faa 1cbd bf0e 4d3d 96b7 cfbd
00000150: d060 b2be 430b 473f a276 843f 61ba 993e
00000160: 1e58 21be 5b06 b03e cafe 74bf 5bd9 c1bc
00000170: ed06 933d 96ca a6bf 090d 353f 765d ab3f
00000180: b44e df3c 4263 763f ae04 3b3f d1df 93bd
00000190: f409 75bf bfdd b13e 622f de3e 553d e83e
000001a0: e90f 3a3e 3ce2 523f a48e 0fbe 6fe2 883e
000001b0: f64f adbd 7efe be3e fea4 bcbb b789 803f
000001c0: 885e b2be 0534 7ebf 5f0f 0c3f 42c0 52be
000001d0: 656f 38bb 2bd4 21bc 25bc 12bd 50fb 68bc
000001e0: 1b64 c4bc d786 b5bd f606 143d 33e3 b63c
000001f0: f409 a0bc 9b16 0c3e fcc9 97bd 0297 193e
00000200: 23ba 6a3c ad06 6f3c e393 e3bd 0825 f13d
00000210: 362b bebc 351c fbbd 3795 f23d ec34 83bd
00000220: 2274 f8bd 5d8e f33d 2c1e 9fbd 71f2 62bc
00000230: 1a0b 6fbd de72 123d 3220 1cbe 94e8 5b3d
00000240: 84b9 e7bc f124 b8bd 5ef8 463d 9f7a 68bd
00000250: 0fd7 0abd 46b7 98bc f92a a73d f374 843c
00000260: 8246 34bc b48f 33be b6fc aabf a5f6 0b3f
00000270: f50c efbd 9e6f ef3d ce09 933d af1e 923d
00000280: cd2b b53f 5646 89bd cc63 c93e 5bd4 41bf
00000290: e81e 4abf 09cf 2ebe c257 9b3f 217e e43f
000002a0: 8524 1bbe 0302 96bf c87b 90be 1b04 1f3f
000002b0: 3440 2e3f 66a0 8c3f daa6 a8be e12e 3ebf
000002c0: 066f 663f cbc8 c13d dd59 8fbc 59c3 bc3d
000002d0: 88c5 e03c 1acb 323f 2e0e a33f e246 6f3f
000002e0: d8b6 71be a33c 52bf 6f3b 3dbe c56b a5bd
000002f0: f4ec b53d f9d1 2d3f 93e3 e6ba a1b0 273f
00000300: dfd5 963e 057e a43c 9cc2 383e d469 eebc
00000310: 80ec c6bb bf63 14be 3268 e23d 396d 60bc
00000320: 357d 693d faa1 873d 7c66 27bb 23ae bcbd
00000330: f160 37bb da35 ef3d 6467 4a3e 4e88 f93d
00000340: cd7a bbbc 7be5 08bd 349d babb ae05 683e
00000350: e59e 11be eaa0 003e 1179 f4bd 1e4d 033e
00000360: bac3 08be b14f b6bd e11b a2be 6b4a 91bd
00000370: e757 af3e 41f0 53be eb72 63be 5152 57be
00000380: 5473 81be a813 d7bd d820 1abe fa59 653e
00000390: 2a92 4dbd eb59 8d3a 165a 0a3c 3cd5 75bf
000003a0: 9831 c1bd 275e 523e 6310 88bd 447e 8fbd
000003b0: b4ea 0c3f a7c2 473f 4b38 6c3e 1693 e8be
000003c0: 7346 803e d0e2 48bf 4195 babb 54ad a4be
000003d0: 489e f2be 9a33 453f dba4 1abf 3022 453d
000003e0: dc92 c6bd d13e 6cbf 8eb2 b03f 8ad2 3f3f
000003f0: 57a6 e7be f584 633d 311f 1f3f 819f 9b3e
-0.07459066 1.5381725 -0.34992713 1.437825 0.18266547 0.042541064 0.10478049 -0.035630092
0.10382879 -0.8179731 0.5651239 -0.14969534 -0.36546043 -0.74062806 -0.42369646 0.5186662
0.4895596 1.1763014 -0.9604503 0.016170662 -0.43494764 0.39750168 0.45639607 -0.21811442
0.3250973 -1.0133735 0.6170663 0.80867946 -0.24037494 1.1978879 0.035538483 0.31143636
-0.31100073 0.019498328 -0.28924438 0.6445838 0.012693124 -0.7051501 1.0122852 -0.95320284
0.02740692 0.03726298 0.023056291 -0.15219936 0.077566676 -0.0029375101 0.027477628 0.08377792
0.05344415 -0.12226914 0.018250331 0.29502252 -0.020946281 -0.033754047 0.10063245 -0.13510758
-0.053110737 0.049010042 -0.021057647 0.3874617 -0.053590845 0.20942011 -0.036021337 0.18333495
-0.1783449 -0.16993928 -0.25127545 -0.2769064 0.23200725 -0.05408292 -0.1516378 -0.1945806
-0.20104408 -0.15173748 0.06337501 0.11350873 0.21904534 0.4617251 0.913187 0.4614401
-0.0831713 -0.038248237 0.05006289 -0.10142438 -0.34839487 0.7775156 1.0348704 0.30025008
-0.1575627 0.3437985 -0.9570128 -0.023663213 0.07179055 -1.3030574 0.70723015 1.3387897
0.027259208 0.96245205 0.73054016 -0.07220424 -0.9571831 0.3473949 0.43395525 0.45359293
0.18170132 0.82376456 -0.14019257 0.26735255 -0.08462517 0.37303537 -0.0057569733 1.0042027
-0.34837747 -0.99298126 0.54710954 -0.20581153 -0.0028142568 -0.009877245 -0.03582396 -0.014220074
-0.023973515 -0.08863609 0.03613945 0.022325134 -0.019535996 0.13680498 -0.07411572 0.14999011
0.014326605 0.014588994 -0.111121915 0.11774641 -0.023213964 -0.122612394 0.11844867 -0.064065784
-0.121315256 0.11892388 -0.07769427 -0.013851748 -0.058360197 0.035754077 -0.15246657 0.0536886
-0.028286703 -0.08991421 0.048576705 -0.056757566 -0.033896502 -0.01864208 0.08162493 0.016169047
-0.0110031385 -0.17535287 -1.3358371 0.54673225 -0.11672393 0.11691211 0.071796045 0.07134759
1.4153992 -0.06702869 0.3933395 -0.75714654 -0.7895341 -0.17071165 1.2136157 1.7850991
-0.1515065 -1.1719364 -0.28219438 0.6211564 0.68066716 1.098645 -0.32939798 -0.7429028
0.9001316 0.09462126 -0.017498905 0.09216947 0.02743794 0.6984116 1.2738702 0.93467534
-0.23604906 -0.82123774 -0.18479703 -0.08077196 0.08883086 0.6789852 -0.001761543 0.6550389
0.29460046 0.020079622 0.18042988 -0.029103197 -0.0060706735 -0.14491175 0.1105503 -0.013697916
0.057004172 0.066226915 -0.0025543263 -0.092129014 -0.0027981366 0.11680193 0.19766003 0.12184201
-0.022885704 -0.033421975 -0.0056950096 0.22658417 -0.1422077 0.12561384 -0.11937154 0.12822387
-0.13355914 -0.08901919 -0.31661895 -0.07094272 0.34246752 -0.20697118 -0.22211806 -0.21027495
-0.252833 -0.10501796 -0.15051591 0.22397605 -0.05018822 0.0010784244 0.00844433 -0.96028495
-0.094332874 0.20543729 -0.066437505 -0.07006505 0.5504563 0.7803139 0.23068349 -0.45424718
0.25053748 -0.7847109 -0.005694062 -0.3216349 -0.47386384 0.7703186 -0.604078 0.048128307
-0.0969598 -0.9228335 1.380449 0.7493063 -0.45244095 0.05554672 0.6215697 0.3039513

bias f4 [256]
00000000: ae94 d1be 2fd7 253e d044 b1be f1ba ac3d
00000010: a58c 2ebe 6579 833d fe7e a4bd 838b af38
00000020: 5009 f43c 8e36 a1bf ae04 84be 6272 b6be
00000030: ca84 b63d 271b e7bd 79d6 8abe 671c c5bd
00000040: d25a d6be 9ab2 94bf d4f9 afbe 65ce 10be
00000050: 4b00 24bf 7e90 17bf 180b dfbe 8351 1cbe
00000060: a490 ca3d 2e43 95bb 56fb 87bf f4a3 b3be
00000070: f0a0 183d 0a2d a83b aa19 783e 4d88 223d
00000080: ae08 7ebc 7b1c 2fbe 8460 03bf ba29 29be
00000090: b046 1abd 0876 32bf dac8 1bbe 5477 c8be
000000a0: 745f 92be 69f4 abbe 6190 2fbf 2c07 adbe
000000b0: f059 20be e319 403c 8ee8 bbbe 790f 0dbe
000000c0: 4ac1 afbd c7b3 84bd 1275 4fbf c291 75be
000000d0: 6e51 0bbf 22b9 e4be 134e 753e a201 a2bd
000000e0: d52f 1abe 7cdf 633d 2b02 f33d b60d 9ebf
000000f0: ee3b c5bf 170f 52bf 7aa1 25bf 66a5 a03e
00000100: aa9a a5bd bb6a f7be b382 d3be 3462 4f3e
00000110: 61e6 60bf 9f68 1c3d 4d4d a6be 3800 67be
00000120: 2479 a73e e5c2 e33d 9781 86be 0d16 e43e
00000130: 3118 34bc 75d4 143e caee e3bd 5ff0 32bf
00000140: 6dc8 d53d b91c c2be c573 79be 14f2 ebbb
00000150: f90e f83c 90aa d0be 856f 983e 70e3 42bf
00000160: 3d49 94be 2e5c 0dbd 376e d83c ab81 27bc
00000170: aaf0 e9be 5874 0e3e 1910 0cbe 1103 75bb
00000180: 6191 19bc 4a04 22bf d17b 6a3c c038 b7be
00000190: 607a bcbc 0357 6e3e 7b61 09bf a731 6ebe
000001a0: 0014 3dbf 9b2e 8dbd f9fc cebe ad3b ddbe
000001b0: 521b 0fbf 328a f6be ab0b 9f3d 7da9 22be
000001c0: 7b96 26bf 0f67 58be 42c7 523e 17c6 9abe
000001d0: d105 4dbf a7ee 9d3d 1995 303d ee22 4a3d
000001e0: 0a91 0abf 5da1 d4bc f176 57bf 66e1 afbe
000001f0: 84ff d1bd ca58 69be 16cd e23d 26d6 97be
00000200: 283b f4be c239 86bd 47a2 8ebe 6f46 a93c
00000210: 7f79 8ebe c812 c7be 09cb 26bf 44fe cbbe
00000220: 1a14 04bf a28f f2be 2861 2ebe 3b8d 3bbf
00000230: e718 2b3e 63c2 913d f690 3cbf 6b2f ddbd
00000240: 3f9e b6be bfc9 fd3d 8e20 c9be 1ec1 5e3e
00000250: 9f97 ebbe a29e 51be 963d 68be 7b8c 06bf
00000260: 5294 833e 7a72 babe 5485 813d edda f7be
00000270: 16e1 b9be 7f1a 9ebd 23be 82be 62ff 313d
00000280: cc08 c23c b6b3 55be 7ebf 50bd 4ada 42bf
00000290: 59a3 adbe b5db c13d 89c7 15bf 06ff 9fbd
000002a0: 8f84 6bbe 9311 65bd c732 4abf ca48 20be
000002b0: 8ce1 343e c8e0 8abe 3646 a13c 20ce 35be
000002c0: ff1c 01bd b531 fcbe cf65 60be a35f b63c
000002d0: cd02 79be 8ef2 dabc 86a0 15bf aed3 acbf
000002e0: 3fae c8be 582a 09bf f32c 06be 6472 5cbe
000002f0: d5d4 01bf 3ac8 403d efd0 81be cff7 8ebc
00000300: f24e 8dbf 8b91 0abd e254 98be 9854 4fbe
00000310: c5e8 aebe f0be ed3d d950 24be b32a c2be
00000320: 438a 68be 0ff1 8cbd b898 01bf 9cdc 1f3a
00000330: cfda 7bbe befb 52be d1e1 0cbf 16e0 11be
00000340: ca35 35be 0c0a 0fbf fdb3 f63d 8113 fe3b
00000350: bd2b a8be a691 7dbd 38c6 9abe 22b1 c23a
00000360: 48c2 61bf 154c 0c3e f098 07bf 2d5d 61be
00000370: 8a79 ddbe 5875 023d a0b2 c6bd 491a 69be
00000380: a191 5ebe e196 cc3d 061d 8a3e 49dc 613d
00000390: f3cf bdbe 2adb 26bf 9960 f5be 88aa 31be
000003a0: 4c1b 8ebd d8cc c6be 8aaa 31bf ec57 d4bd
000003b0: 724a 16bf 6115 dabd dabb 6dbe dfa1 1cbe
000003c0: d55b 1dbd b1df 833c 6e3d 6abe 52bc 01bf
000003d0: e55b 79bd 6e29 dbbe ce14 c03d 8248 8ebf
000003e0: 0fce 823d 8735 b5be 6784 4ebe 34f1 c43d
000003f0: c27e 993e d8d2 6bbe fb01 65be 0c73 003e
-0.40933746 0.16195367 -0.34622812 0.08434094 -0.17045839 0.064196385 -0.08032034 8.370636e-05
0.029789597 -1.2594774 -0.2578482 -0.35634142 0.08912046 -0.11284476 -0.27116755 -0.09624558
-0.41866165 -1.1617005 -0.3437029 -0.14141233 -0.6406295 -0.5920485 -0.4356315 -0.15265469
0.09890869 -0.0045551276 -1.0623577 -0.35086024 0.037262857 0.005132322 0.2422854 0.039680768
-0.015504999 -0.17100708 -0.51319146 -0.16519824 -0.03766507 -0.6971135 -0.15213338 -0.3915354
-0.2858845 -0.33584908 -0.6857968 -0.33794534 -0.15659308 0.011724922 -0.36700863 -0.13775434
-0.08581789 -0.06479602 -0.8103801 -0.23981383 -0.54421127 -0.44672495 0.23955564 -0.07910468
-0.15057309 0.055633053 0.11865648 -1.2347934 -1.5408914 -0.82054275 -0.6469952 0.3137619
-0.080861405 -0.48323616 -0.41310653 0.20252305 -0.8785153 0.038185712 -0.3248085 -0.22558677
0.3270961 0.111211576 -0.26270744 0.44548073 -0.010992096 0.14534171 -0.1112953 -0.6989803
0.10438619 -0.3791254 -0.24360569 -0.007200489 0.030280577 -0.4075513 0.29772583 -0.7612829
-0.28962126 -0.034511738 0.026419742 -0.010223786 -0.45691425 0.13911569 -0.13678016 -0.003738586
-0.00937304 -0.63287795 0.014311747 -0.35785484 -0.023007572 0.2327538 -0.5366437 -0.23261128
-0.7385864 -0.06893655 -0.40427378 -0.43209592 -0.5590106 -0.4815231 0.07765897 -0.15884967
-0.65073365 -0.21133064 0.20583823 -0.30229256 -0.80087 0.07711535 0.04311094 0.049349718
-0.5412756 -0.02595585 -0.84165865 -0.34351653 -0.10253814 -0.22787777 0.11074273 -0.2965557
-0.47701383 -0.06553985 -0.27858183 0.020663468 -0.2782707 -0.38881516 -0.6515356 -0.39842427
-0.5159317 -0.47375208 -0.1702925 -0.73262376 0.16708718 0.071171544 -0.7365869 -0.1080006
-0.35667607 0.12391996 -0.3928265 0.21753356 -0.46014115 -0.2047067 -0.22679743 -0.52558106
0.25699097 -0.36415464 0.063242584 -0.48409215 -0.3630454 -0.077198975 -0.25535688 0.043456443
0.023685835 -0.20869336 -0.05096387 -0.7611433 -0.33913687 0.09465734 -0.5850759 -0.07812314
-0.22999786 -0.055924963 -0.7898373 -0.15652767 0.17664164 -0.2712462 0.0196868 -0.17754412
-0.031521793 -0.49256673 -0.21913837 0.0222624 -0.24317475 -0.026726987 -0.58448064 -1.35021
-0.3919544 -0.53580236 -0.13103084 -0.21528012 -0.5071538 0.04706595 -0.25354716 -0.017452149
-1.1039717 -0.033830207 -0.2975226 -0.20247114 -0.34161964 0.11608684 -0.16046466 -0.37923202
-0.22708993 -0.06881916 -0.50623655 0.0006098242 -0.24595188 -0.20603845 -0.5503207 -0.14245638
-0.176963 -0.55874705 0.12046049 0.00775379 -0.3284587 -0.06190648 -0.30229354 0.0014853815
-0.88187075 0.13700898 -0.5296774 -0.220082 -0.4325679 0.03185019 -0.09702039 -0.22763933
-0.2173524 0.09989715 0.26975268 0.05514172 -0.37072715 -0.6517817 -0.4792526 -0.17350209
-0.069388 -0.38828158 -0.69400847 -0.10368332 -0.58707345 -0.10648609 -0.23216191 -0.15296124
-0.038417656 0.016097875 -0.22874996 -0.5067798 -0.060878653 -0.42805046 0.09378968 -1.1115878
0.06386959 -0.353924 -0.20167695 0.09616318 0.2997952 -0.2302965 -0.22364037 0.12543887

weight f4 [128, 256]
00000000: 5545 0a3e 1052 a03a 0834 acbd a0fd 2cbe
00000010: c842 36be a889 dabc afaf dbbe e7c3 1dba
00000020: 54fb 04be 7a99 063e 984f d6bd 5d92 d0be
00000030: bc0f a23c faf1 1abf 4eb3 a23d 0bda 603d
00000040: 106a 2d3d 49fd d2bc 48a5 ef3d 0afa d63b
00000050: fbbe 4c3e d86f ae3d d4a8 8fbd a19f 063e
00000060: 0627 3cbd c916 44be bb22 013e df0a ebbd
00000070: 13fa eebd 3bf9 f4b9 8088 f2bd 1258 b43d
00000080: b8a9 52be 1239 58be 24ac 8b3a e815 a43a
00000090: 37e0 803d ccec 193d a185 073d 3af4 9cbe
000000a0: f9b9 af3d 457f 1fbd d8fe 323d 57df ddba
000000b0: 0218 b9bd d800 4b3d 58df 923e 1c4b bebd
000000c0: 1975 263e 2e91 5fbe dc01 913e f43a 993e
000000d0: d4ce 7a3d e175 843e 0ff0 15be b7a8 32be
000000e0: b82e 223d c853 ce3d 3606 283d 944d 013e
000000f0: 3085 9a3d b090 51bd bfb2 96bd 6d2f bd3d
00000100: b4b9 9cbd b4c3 c53d 9483 21bd ed82 dabe
00000110: d7c8 9b3d 9ac9 e2bd 999c 78be 0ea1 3b3c
00000120: 9d07 103e efb0 e43c 4d04 ec3d 5b5e 8cbe
00000130: cd13 17bd 02b9 273e 9934 583d 4c7e d5bc
00000140: 8b8d 4a3e 945b 063e 5ad3 9bbe 63c2 59be
00000150: a4e4 23be 6733 123d 26de 88be bb79 b7bd
00000160: ba03 01bd eb02 7e3d e7b3 95bd 0c4b e7bd
00000170: 4595 9abd d27d 07be 0017 503e 9883 d13d
00000180: 692e 93bd 567b 313d 7e3f bbbe 542a ce3d
00000190: cccc 27be 9366 35bc 0e89 9cbe 767e 24be
000001a0: c981 ee3e 4fb1 233e bea9 22be ce8b 423d
000001b0: b17b 043e cf2d 2f3e f7fe 91bc fea2 41be
000001c0: d7bd 613d 0023 54bd cbfa ff3d 581c 56be
000001d0: e81b 933e c111 e4bd 49cd 37be b1a4 8dbe
000001e0: 2627 1ebe e6f6 4abc 779f 3c3e 75f9 d33e
000001f0: fb8d ff3d 0aa1 85bd c4b5 0abd 5d73 6a3d
00000200: 12c5 343d 0e14 5a3b 2fc3 863d 6b61 cdbd
00000210: 9400 673e 76e8 3cbd 9e32 8dbd 7a55 afbd
00000220: df16 003e 0108 713c 24a2 a2be b5a1 ce3d
00000230: 7f31 19be 5950 df3c 342d 12be 544f 86be
00000240: 62d3 a33d 021f 9cbe 8ba8 4dbc 7e66 703e
00000250: b36d 4dbe 56c8 e0bd 1773 0dbd fbb8 c1bd
00000260: ee75 20be 6bde 393e 5f86 d3be 5853 273e
00000270: a508 bfbd 425d 563e 34d2 8abe 0267 b1bd
00000280: 0473 763e e859 7cbe cd59 e4bd 56d4 7a3e
00000290: e77a b1bd a126 613d 5695 123e 3cb3 e83c
000002a0: 4198 19bd 91e1 f33d 702a 70bc 1ada d2be
000002b0: eb11 72be 35d2 4e3e a5d0 9bbe b839 f1bd
000002c0: e712 e5bd 1fc5 2fbe 616a ae3d d9fd c03e
000002d0: 38f8 ae3d f141 bdbe 0cc2 bbbb 4020 8d3e
000002e0: deae 8c3d 180c 2fbc b6bd 37be 7fdb f6bc
000002f0: ae7c 31be bee1 ba3d 9b79 dc3d ff9b 93be
00000300: 070a 6e3d 01d3 8f3d cf0b 0ebd f330 8e3e
00000310: 0987 9abb 4a9b 17bd 05de c23d 62d9 a3bd
00000320: 5cb6 bebb 1f40 2ebe fe88 c43d 7fbe a23d
00000330: d097 64bd 27b9 0ebe 1818 5a3d 4399 173e
00000340: 7244 9abe e6b4 00be b11b afbe fb6e 01be
00000350: c967 7f3d 4e28 09be 6c0d 843c aa43 213e
00000360: 8cbc 6b3e ac26 1abd 3c26 ba3e d4ff 52bd
00000370: b0ae 033d 0d26 5cbd d8c9 80bd 038f c83d
00000380: 2ca5 003c 1229 1b3e b4cf a1be 1976 3a3d
00000390: b86e aebd d002 a93d de9d 27be 4ea1 163e
000003a0: 5708 873c 38a0 ed3d 6801 913d a8cb d43c
000003b0: c94c 8bbd 06e3 bf3d b88f ae3d bc50 66bc
000003c0: f41f 1ebe c3ca 723e aa8a 823e a443 703e
000003d0: 6638 7dbc 428c 803d 33a7 193e 8fd0 3b3e
000003e0: 24cd edbd e491 0e3d 5afe 813d c354 093d
000003f0: d270 133e a10d 8d3d b172 b6bd 246f 063e
0.1350301 0.0012231488 -0.08408362 -0.16893625 -0.17798913 -0.026676968 -0.42907473 -0.00060182664
-0.12986499 0.13144484 -0.104644 -0.40736666 0.019782893 -0.60525477 0.07944356 0.054895442
0.042337477 -0.025755541 0.11701447 0.0065605687 0.19994728 0.08517426 -0.07014623 0.13146831
-0.045935653 -0.19149317 0.12610905 -0.11476683 -0.116687916 -0.00046724998 -0.118424416 0.088058606
-0.20572555 -0.2111552 0.001065616 0.0012518736 0.062927656 0.037579343 0.033086423 -0.3065508
0.08580393 -0.038939733 0.04370007 -0.0016927522 -0.09037782 0.04956135 0.28686023 -0.0929167
0.16255607 -0.21832725 0.2832173 0.2992779 0.061232403 0.25871184 -0.14642356 -0.17447172
0.039595336 0.10074574 0.04102155 0.1262725 0.07544935 -0.051163375 -0.07358312 0.092375614
-0.076526076 0.09656468 -0.039432123 -0.42678013 0.076066665 -0.11073609 -0.24278487 0.011451973
0.14065404 0.0279164 0.11524258 -0.27415738 -0.036884118 0.16379169 0.052784536 -0.0260612
0.19780557 0.13120872 -0.30434686 -0.21265559 -0.16005188 0.035693552 -0.26731986 -0.08958765
-0.031497695 0.0620145 -0.07309704 -0.11293611 -0.07548002 -0.1323159 0.20321274 0.10230178
-0.071865864 0.043330513 -0.36571878 0.10066667 -0.16386718 -0.011071819 -0.30573314 -0.16063866
0.46583393 0.15985607 -0.15885064 0.04749661 0.1293781 0.17107318 -0.017821772 -0.18909833
0.055112686 -0.05179119 0.12499007 -0.2090925 0.28732228 -0.11136199 -0.17949404 -0.27664712
-0.15444621 -0.012387967 0.18420206 0.41401258 0.124782525 -0.065248564 -0.03386475 0.057238925
0.044133253 0.0033276114 0.06580197 -0.10028347 0.22558814 -0.04612013 -0.0689442 -0.08561225
0.12508725 0.014711381 -0.31764328 0.10089437 -0.14960288 0.027259992 -0.14275056 -0.26232398
0.079993024 -0.30492407 -0.012552391 0.23476598 -0.20061378 -0.10975711 -0.034533586 -0.0945911
-0.15669987 0.18151252 -0.41313455 0.16340387 -0.09327821 0.20934013 -0.27113497 -0.08662225
0.24067312 -0.24643672 -0.11149941 0.24495062 -0.0866602 0.05496848 0.1431478 0.028405778
-0.037498716 0.11908258 -0.014658555 -0.41182023 -0.23639648 0.20197375 -0.3043262 -0.11778587
-0.11185246 -0.1716504 0.08516384 0.3769367 0.08543438 -0.36964372 -0.0057299193 0.27563667
0.06869291 -0.010684036 -0.17943463 -0.03013396 -0.17332718 0.09125088 0.10765382 -0.28829953
0.05811503 0.07022668 -0.03467923 0.2777172 -0.0047158045 -0.03701333 0.09515003 -0.08000447
-0.005820079 -0.17016648 0.09596442 0.079464905 -0.055808842 -0.13937818 0.053245634 0.14804558
-0.30130345 -0.12569007 -0.34200814 -0.12639992 0.062354837 -0.13394281 0.016119681 0.15748468
0.23021144 -0.037634537 0.36357296 -0.051513508 0.032149017 -0.053747226 -0.06288499 0.09792902
0.00785188 0.15152386 -0.31603777 0.045522783 -0.08517212 0.082524896 -0.16368815 0.1470997
0.016483469 0.11602825 0.07080346 0.025976017 -0.06801755 0.09369473 0.08523506 -0.0140573345
-0.15441877 0.2371016 0.25496417 0.23463303 -0.015455341 0.06276752 0.15005188 0.18341278
-0.11611393 0.0348071 0.06347342 0.0335281 0.14398506 0.06887365 -0.089085944 0.13128334

bias f4 [128]
00000000: 06f4 1dbe 322a 6dbe dc93 46bf 610d 30be
00000010: 351e 86be 771d 0abf 2b69 66be e91e b0be
00000020: b15b aebe fa2a e4be 6746 f6be cb6f bebd
00000030: 1aa2 38be 6b4e 34be ee91 c3be d03c 34bf
00000040: 114a e83c 6ad8 7ebd ed32 d0be cfb5 e2bd
00000050: 61dc 7fbf 7157 eebe 156b 52bf 44c4 5bbd
00000060: 64f3 debe 6b66 b3be 0135 8bbd b30b babf
00000070: ac0d 01bf 6921 c6bd 4880 54be ea08 81be
00000080: 9c47 0abe 8b20 b5be 8d68 67be 0a9e 7bbe
00000090: 2406 1abe a0a0 c0be e041 2ebe 4d84 a9be
000000a0: 63ea 16bf 13aa 94be 91cb 00bf ef69 82bf
000000b0: d19f 45bf 96a9 82be 8ddf 3dbd 5ab1 33be
000000c0: 216a 9fbe fad7 5abe 39e8 0fbf 54f5 e1be
000000d0: 6a5f e6be e295 e7bd 704c 03be 7901 14bf
000000e0: ab38 e53b 3978 65be d2b7 16bf 84c0 4cbe
000000f0: 5625 82bf 88be 00bf 7670 33bd 93f9 8bbd
00000100: d918 b8bd 7da0 81be 1b8e af3c af0b acbf
00000110: 560c 2dbf ae90 62bd b55c 18bf 8847 a4bd
00000120: 58f8 13be 6e00 8dbe c5d2 5cbe 35be d93d
00000130: 77d5 26be 7e50 e6bd 9e1f e6be 85f0 cabe
00000140: ab9b 8fbe 3db2 21be c712 1bbf 0db6 56be
00000150: 695e d5be e65b febe cecb 3abf 5f69 9dbe
00000160: 16be 17be a3dd 13be 2004 39be c57f cfbe
00000170: dc9d 96be 35f4 9dbe de3e 5ebe 5b38 43be
00000180: 3f44 8dbe 4a95 71bc 3d29 6ebe c669 79be
00000190: ea89 abbd 6158 073e aa86 e9bd 7ebe 03bd
000001a0: 0c98 77be 7bb4 8ebd 3775 83be 7eec 20be
000001b0: 871c 6dbf 17cf 47be 7b1a 0abe 358d 18be
000001c0: 53d0 9abd 0e55 cabe c84e 8e3d 1fdd 8fbf
000001d0: 930f a5be 895e 82be 31d3 9dbe 4fa7 59be
000001e0: bc8d 29bf 7fd6 c2be f197 1ebf 7e20 39bd
000001f0: e2e1 59be f5d0 77bd 48ca acbe 253a 88bf
-0.15425119 -0.23160627 -0.77569366 -0.17192604 -0.2619492 -0.5395121 -0.22501056 -0.34398583
-0.3405433 -0.4456404 -0.48100588 -0.092986666 -0.18030587 -0.17608039 -0.38197273 -0.7040529
0.02835563 -0.062218107 -0.40663853 -0.110698335 -0.99945647 -0.46551087 -0.82194644 -0.05365397
-0.43545067 -0.35039076 -0.06797219 -1.453482 -0.50411487 -0.09674341 -0.2075206 -0.25202113
-0.1350388 -0.3537639 -0.22598477 -0.24572006 -0.15041405 -0.37622547 -0.17017317 -0.3310875
-0.58951396 -0.29036006 -0.5031062 -1.0188578 -0.77196985 -0.2552001 -0.046355773 -0.17548123
-0.31135657 -0.21371451 -0.5621372 -0.44132483 -0.4499467 -0.11307885 -0.12822127 -0.5781475
0.0069952807 -0.22409143 -0.5887424 -0.19995314 -1.0167644 -0.5029073 -0.043808423 -0.06834712
-0.08989114 -0.25317755 0.021430066 -1.3441066 -0.6759695 -0.05531376 -0.5951646 -0.08021456
-0.14450204 -0.2753939 -0.21564777 0.10631982 -0.16292368 -0.112458214 -0.44945997 -0.39636627
-0.28048453 -0.15790649 -0.60575527 -0.20967884 -0.41673592 -0.49679488 -0.7296723 -0.30744454
-0.14818606 -0.14440016 -0.1806798 -0.40527168 -0.29417312 -0.30850378 -0.2170367 -0.19064467
-0.2759113 -0.014745066 -0.23257919 -0.24356756 -0.083759144 0.13217308 -0.11402638 -0.03216409
-0.24179095 -0.06968018 -0.25675365 -0.15715215 -0.92621654 -0.19512592 -0.13486664 -0.14897616
-0.07559266 -0.39518017 0.0694862 -1.1239356 -0.32238445 -0.2546275 -0.3082519 -0.2125523
-0.66231894 -0.38054273 -0.61950594 -0.045197003 -0.21277574 -0.06050201 -0.33748078 -1.0642744

weight f4 [64, 128]
00000000: e883 35be 19b3 4fbe 0938 ebbd 65fe 733d
00000010: 402a dc3d e114 233e 2b37 9ebd 8fcc 753b
00000020: f2a0 30bd 23c8 b33e d71d 0e3e 44f7 32be
00000030: 86e5 9dbc 9a6a a4bd 90d1 bbbd f8a4 6b3d
00000040: cd78 28be 7d8f 323d d716 38be 6e60 c3bd
00000050: be9c 1d3d 374f 32bd 2b85 3d3e 6608 d93d
00000060: a89a 08bf cce9 4b3d a310 9e3d 0a81 52bb
00000070: 44a6 f73d ee94 5a3e f3fa 11be 9914 a13d
00000080: d05c 0c3e ff2a 07be cad1 04be ef20 a9bd
00000090: b57a 593d 9ab3 5a3e f38b 1cbe 1ea6 8c3e
000000a0: a618 fb3d 720e edbd 1e9a 6b3c 0804 1dbd
000000b0: 9b94 69be df5b 823e 25a8 9b3e e0d5 2f38
000000c0: cf5e 163c e882 7fbe 27a0 3bbe 3e0a 073e
000000d0: 4d31 113c 6955 5b3e 3ba7 c03d 05e1 a03d
000000e0: fdaf 1bbe c4aa 873d 0415 84be 4959 12be
000000f0: 27dd fd3d 3509 28bd 68ac 543d 5880 c3bd
00000100: ccf5 093e eaf2 e5bd d315 1d3e 0c86 d03d
00000110: 00d9 e0bc fa13 743d fe33 a73d 575e 053e
00000120: b373 413e 8551 48be e6c6 a53d 73a4 34bd
00000130: 4223 353e 8ca4 923d 7c82 f0bd f153 873c
00000140: c3d0 963d 1505 5f3d db8d 773c a4d0 cb3b
00000150: 878e 5abe 15da 873d b1b6 9e3c 3d8a 1b3c
00000160: c96f d8ba dd10 aabc 974e fcbd d625 223e
00000170: 80d5 66be acc2 fdbc d87d cb3d 700f c5bd
00000180: c605 d8bb c715 97be 940a c43d 0e00 153d
00000190: 316c 293e de82 37bd 654a 33be f9da a8bb
000001a0: ac70 083d 6512 7a3e d732 cebd c7d6 123c
000001b0: c180 efbb 1e53 bd3e 1487 e9bb 7655 45be
000001c0: 250b 90bd 80a9 a83d 91cb a33d ee94 9d3e
000001d0: 76fb 9bbe ce35 e5bd 6b0c 54bd 22fc 21be
000001e0: 9f7f 963d c4e3 df3d ddb4 e73d 5782 17bc
000001f0: 52cc 303d c434 aebd 9e9d b8bc fb9e b73c
00000200: 8939 45bc e0bc f2bd d671 573d 382f da3c
00000210: b477 6b3d 0f64 4abb c2ee 84bd 620e 183e
00000220: af11 a53d d315 de3d c6bb c83d 63dc 933d
00000230: fd91 243e c523 3abe 4e93 21bd 5156 cbbb
00000240: f3ba d43c f667 de3d 8590 f03d 9684 513d
00000250: 68df fe3d da7b bdbc 4d07 413e 2c2f 973d
00000260: af3d 963c 273a 2c3d fcde 0bbd e7d3 2d3e
00000270: 4098 7abe 187f 84be 205d 5cbd add2 323d
00000280: cb48 81bd e153 81bc ae8e 2dbe 9bdd 07be
00000290: b212 853d f10c 3bbe e86b 8bbb e4b8 98bc
000002a0: 9c35 6dbe 97b5 43be 6da1 debd c2ad 21bd
000002b0: eef3 94be 00a4 26bd e78c 943d 8959 283b
000002c0: f7e2 823e b21f 5c3d 01c2 c1bd fd8d f23d
000002d0: 0f28 92bd 31b2 3bbe b939 df3d 6ad9 583e
000002e0: 464e 873e 80cc b73d 09c8 753e 9fb6 33bd
000002f0: 5121 f1bc 9242 e63d 66f4 293d 5f4c 7abe
00000300: b40c 2f3d 6171 b2bc 4d0c c4bd 5828 79bd
00000310: 0210 9cbc f802 30be c54d 813c 1dfc 853d
00000320: 431d 263e d7ed c5bc 57b9 53bc ff73 263d
00000330: 58ab 2c3e 523f 1a3e c8f0 f63d 89c7 983d
00000340: b686 c9bd f24d 3c3d d202 0a3b ff40 93bd
00000350: 8f3a d0bd 45c9 ab3d c9b6 283a f919 3dbd
00000360: be9b a93d 61e2 13bd 7138 7a3c 19f9 80bb
00000370: 5b9f 483d 124a 00be e2be 8c3d 0539 ef3c
00000380: dda9 babd ab4e 2bbd 1751 553e 1133 9ebd
00000390: d019 963d f6e8 c03d 3eba 1c3e 7db3 babd
000003a0: 7777 073c 6485 f63d f208 d6bc 2188 4cbd
000003b0: 0148 bfbe 01af 60be 07ff b9be a4a9 063e
000003c0: 82f7 0b3e 9660 e23d 7b2e 48be e0bd a73d
000003d0: 61b7 273e 13f2 993c 2bfd 953d c430 c63d
000003e0: d50c bf3d a1ab 453e 1e1e 953d e6fe 55be
000003f0: baa8 d0bd 00da 05bc 6f0c 6b3d 0ed7 ea3d
-0.177261 -0.20283164 -0.11485297 0.05956878 0.10750246 0.15925933 -0.07725366 0.003750596
-0.04312224 0.3511363 0.1387857 -0.17477137 -0.019274484 -0.08028145 -0.0917083 0.057530373
-0.16452332 0.043593872 -0.17977463 -0.09539877 0.03847956 -0.043532576 0.18507831 0.10597305
-0.53360987 0.049783513 0.07718017 -0.003212037 0.120922595 0.21345875 -0.14255886 0.07865257
0.1370728 -0.13199995 -0.12970653 -0.08258235 0.05309554 0.21357575 -0.15287761 0.27470487
0.12260561 -0.11575021 0.014380006 -0.038333923 -0.22810595 0.25460717 0.30401722 4.1922438e-05
0.009177878 -0.2495228 -0.18322812 0.13187501 0.008861852 0.214193 0.09406897 0.07855419
-0.15203853 0.06624368 -0.25797284 -0.14291872 0.12395697 -0.041024406 0.051922232 -0.09545964
0.1347267 -0.11227973 0.15340357 0.101818174 -0.027447224 0.059589364 0.081642136 0.13024269
0.18891792 -0.19562347 0.080945775 -0.044102143 0.17689231 0.07160291 -0.11743638 0.016519519
0.07364037 0.054448206 0.015109505 0.0062199403 -0.21343432 0.06633393 0.019374223 0.009493408
-0.0016512807 -0.020759994 -0.12319677 0.15834746 -0.22542381 -0.030976616 0.09936112 -0.09622085
-0.006592485 -0.29508802 0.0957233 0.036377005 0.16545178 -0.04480254 -0.17508848 -0.0051530567
0.033310577 0.2442108 -0.10068291 0.00896234 -0.00730905 0.36977476 -0.0071266983 -0.19270882
-0.07033376 0.082354546 0.079978116 0.30777687 -0.30465287 -0.11191903 -0.051769655 -0.15818837
0.073485605 0.10932115 0.11313794 -0.009247384 0.043163605 -0.08506158 -0.022536095 0.022414675
-0.012037643 -0.11852431 0.052598797 0.026633844 0.057487205 -0.0030882393 -0.06490852 0.14849237
0.080600135 0.108440064 0.0980144 0.0721977 0.16071315 -0.18177707 -0.03944712 -0.006205358
0.02596805 0.10859673 0.11746315 0.051151834 0.12444955 -0.023130346 0.18850441 0.07382044
0.01833996 0.042047646 -0.0341482 0.16975366 -0.24472141 -0.25878215 -0.05379975 0.043657947
-0.06312712 -0.015787067 -0.16948959 -0.1326813 0.064977065 -0.18266656 -0.004254807 -0.01864285
-0.23164982 -0.1911224 -0.10870633 -0.03947235 -0.29092354 -0.040683746 0.072534375 0.0025688133
0.25563785 0.053741165 -0.094608314 0.11843488 -0.07136547 -0.18329693 0.108996816 0.21176687
0.26426905 0.08974552 0.24002089 -0.043875333 -0.029434832 0.11243166 0.041492842 -0.24443196
0.042736724 -0.021782579 -0.09572659 -0.06082949 -0.019050602 -0.17188632 0.015784154 0.065422274
0.162221 -0.024161262 -0.012922606 0.040637966 0.16862237 0.15063217 0.12057644 0.07459933
-0.09840147 0.045972772 0.002105881 -0.071901314 -0.10167419 0.083879985 0.00064359285 -0.046167348
0.082816586 -0.036104564 0.015272246 -0.0039359448 0.0489801 -0.12528256 0.068723455 0.029201994
-0.0911443 -0.04182307 0.20831715 -0.07724584 0.07329142 0.09419434 0.15305421 -0.09116266
0.008268229 0.12037161 -0.026127312 -0.04993451 -0.37359622 -0.21941759 -0.36327383 0.1315065
0.13668635 0.110535786 -0.19548981 0.08190513 0.16378547 0.018792188 0.073236786 0.0967727
0.093286194 0.19303752 0.07281135 -0.20898017 -0.10188432 -0.008169651 0.057384904 0.114668

bias f4 [64]
00000000: 5abf 53be c8d3 c5bd 5af1 cebd 2115 c5bd
00000010: 550c 4cbe 8e9a 1dbe 9bef 8d3d 8cd3 c9be
00000020: e19d adbe c991 4fbd 1bc0 03bd e1af a4bd
00000030: c6ca ec3d b206 7fbe 2ccc ccbe e339 e9bd
00000040: 6639 7e3b 185b 52be fcb8 adbe d507 313e
00000050: 76fd 1fbe 0863 27be fb77 8d3d 9497 09bd
00000060: e68c dbbd 1e9d 80be a1de 5db9 427f 80be
00000070: e982 dfbc a218 69bd 1234 5bbe acb8 5c3e
00000080: 6ea5 8cbe 50d6 81bd 09c4 e2bd 9e56 95bd
00000090: afd1 b4bd ad2b e3bd 3c65 823d 42c4 52be
000000a0: a826 83be 3fab 72be 7014 71be 56b6 d4be
000000b0: b9a9 88be c34e d6be 32cf 3a3d 9812 9cbe
000000c0: e117 1c3e 9f88 b9be c204 49bd affd 30be
000000d0: e072 11bf 9877 203d c818 033c 492f 64be
000000e0: c003 9dbd b3c8 b0be 7efa 18be 525f 83be
000000f0: 3bfb adbd 43dc 36bd 1953 80be 025e 6cbf
-0.20678464 -0.09659535 -0.10104628 -0.09623171 -0.1992658 -0.15390989 0.06930467 -0.3941921
-0.33909515 -0.05067614 -0.032165628 -0.08041359 0.115621135 -0.24904898 -0.3999952 -0.11387994
0.0038791536 -0.20542562 -0.33930194 0.17288144 -0.15624031 -0.16346371 0.0690765 -0.03359182
-0.107202336 -0.2511987 -0.00021159138 -0.2509709 -0.027284103 -0.056908257 -0.21406582 0.21554822
-0.27469963 -0.06339705 -0.11072547 -0.072919115 -0.088290565 -0.11092315 0.06366965 -0.20582679
-0.2561543 -0.23698138 -0.23542953 -0.4154536 -0.26691988 -0.41856965 0.045607753 -0.30482936
0.15243484 -0.36237046 -0.049076803 -0.17284273 -0.5681591 0.039176553 0.008001514 -0.22283663
-0.07666731 -0.3452812 -0.14939305 -0.2565866 -0.08495184 -0.04464365 -0.25063398 -0.92330945

weight f4 [16, 64]
00000000: 7b59 94bd 0bdf c3bc 20cb 52bc e821 bb3d
00000010: a139 bf3b c13c 1b3c ed2d 5dbd 21d4 183d
00000020: 483b 11bd 951e 893c ecfd a2bc 5d8a f63d
00000030: 2fe3 46bc 28a9 f13c 2e74 a43c 2260 fa3d
00000040: 99a0 04be de1f 66bd 9ae7 31be d81b 23ba
00000050: 9bfa 9b3d 4365 e1bd 990c 9d3c 8428 debc
00000060: 413b 703d 2687 613c d18a 4bbc 65e4 c53d
00000070: c1c0 5fbd f4ce 29bd 5c0f 0d3d f6fd 5dbc
00000080: 44bc cc3d c1a9 eebc b1d3 413b 43e8 8fbc
00000090: 074b b83c e590 08bb d927 b63b 7653 60bd
000000a0: 6e7f c7bd 2f07 a0bd 81cf 00bd 5309 b8bc
000000b0: b566 c1bc 0050 5d3c b85b 8f3d 04b7 0c3e
000000c0: c3d7 9cbd 7c02 963d 8a70 963c 9385 05bc
000000d0: c42a 3e3d db32 8fbd a40b cf3b facc 1ebd
000000e0: 65b4 3abc cd37 5c3d 5bf7 7bbd 5f3a 25bd
000000f0: b507 97ba 73f5 09be 5fbb eabc 6271 fdbd
00000100: 234d cbbc 58bf 08bd 63c3 773c 2a8d cf3c
00000110: 21a4 363c 84c2 643b 1100 c0bc 5fbc eb39
00000120: a4f9 26bd 88d1 e53c 4837 b53d 24b5 383c
00000130: ff30 fc3c 7888 a8bd 7baa 8dbc f47a 223c
00000140: 0d81 2bbb de7e 9cbc 4f17 513a b1ce 613c
00000150: 77df 35bd f094 203d 6559 df39 9a4d 3d3c
00000160: 33cd afbc 68ce 4f3c 3b3a 093d 86a8 a93c
00000170: f820 013c cd6d e73c 04a7 153d 037e a33b
00000180: d1a4 ef39 6123 e0bc 4d53 6bbc aeb7 193d
00000190: df62 0abd 5e4e f9bc 9f11 4bbb 4e0b a1bc
000001a0: 157e 5cbc 3c9a 6bbc 33a3 a53d d3c0 73bd
000001b0: 9fe8 203d 7591 2a3d d3fe 073c 78f4 0bbe
000001c0: 43a2 3abd 1819 963d a67e c9bd 7e3b a0bd
000001d0: 0b57 0bbd f140 f938 d2db bf3d 2462 d83a
000001e0: 936a 4d3d 36b6 073e ad54 af3c 0c2e 173d
000001f0: ed65 15be b43b 96b6 d387 a3bd 659a c5bd
00000200: f9e7 c1bc e7b8 913d 9b8e cb3c c426 ae3c
00000210: 7725 d53a 739f 583b cc7a a7bd a3ce 88bc
00000220: 6202 4a3e a17b 593d b40f 353c b0a1 023d
00000230: 2e0d 28bd 7ff8 81bd 94ac d8ba 5b20 55bd
00000240: 721a f838 d063 de3d 6e33 b1bc 8876 cb3c
00000250: cbd4 93bd a233 bfbc 651c 243c e2af 883d
00000260: c061 373c ee55 253d adb7 f03a 5b46 9fbd
00000270: 0858 81bc 8c0d 03be c5c0 52bc 183c 9b3c
00000280: bda1 e93c 6aad 98bb 4a8b 51bd 1a77 93bc
00000290: 13f2 3b3b 55ba 62be 9d09 93bb 9c4c 873b
000002a0: 227f 503b 1152 093d 48bb 0f3d c052 823d
000002b0: 9e38 d93c f232 91bd 56a6 d33c ed1e 7b3e
000002c0: b731 61bd 6d55 b1bc afc8 03bd b2e1 adbd
000002d0: d338 073d ba6e 8d3c 30ec b7bd d6d7 d5bc
000002e0: 6ca8 acbd ad77 cabd 6dc4 85bd aad0 253c
000002f0: b7bb 3bbc a536 2cbd d766 debb 1dfb fcbb
00000300: ed2e 703d 1104 8ebc 3294 223d 7fd3 e0bc
00000310: bbda c6be 0a00 613c ca02 dc3c b2b6 a5bc
00000320: 2031 2fbb 69f1 2e3d aad9 813d 3d5a 8b3d
00000330: 5aaa 80bc 858a d73b 2377 c63c b7e5 88bc
00000340: 94d7 73bd 838b 1e3c 7ec0 ad3c d954 fd3e
00000350: 1a5a b23d 00bf 07bc 791b 09bd 6c0c bfbc
00000360: b3a1 893b a0ef 2cbc 161a fbbc 0c8f 45bd
00000370: bb8e 8a3a bb5e 5bbd 5563 ec3c c574 a6bc
00000380: c410 36bc bbfe 113a bea1 e13c 1bb8 c73b
00000390: d3fb 14bd 8ad3 c13c 6d18 333c 6307 4d3b
000003a0: f1b5 843b 9abb f3bb 8243 0ebc 6ab2 9cbb
000003b0: 7a35 893c 952a 893d 0b24 e7bc 0eb4 5dbc
000003c0: 1b74 af3c 5783 1a3d 95e0 a33b f8c2 6e3c
000003d0: 8a9f c0bd cdd8 d7bc ede7 9d3c 69b1 763c
000003e0: ed07 193d 4d9c ae3c c167 113d 90a3 96bd
000003f0: 531b 1e3c 0b81 f23c 5420 6d3d f780 bb3d
-0.072436295 -0.023910066 -0.012865812 0.091373265 0.0058357273 0.009474934 -0.053998876 0.037311677
-0.035456926 0.016738215 -0.01989647 0.120381095 -0.012139126 0.029499605 0.02007493 0.12225367
-0.12951888 -0.056182735 -0.17373505 -0.00062221056 0.076161586 -0.11005642 0.019171046 -0.027118929
0.05865026 0.013765132 -0.012423233 0.096627034 -0.054627184 -0.04145713 0.034438476 -0.013549319
0.09996846 -0.02913368 0.002957564 -0.017566806 0.022496713 -0.0020838317 0.0055589494 -0.054767095
-0.09741102 -0.0781387 -0.03144789 -0.022465384 -0.023608545 0.013507843 0.06999916 0.1374169
-0.07658341 0.073246926 0.01836421 -0.008149522 0.046427503 -0.06992122 0.0063185263 -0.0387697
-0.0113955485 0.053764153 -0.061515193 -0.04033887 -0.0011522683 -0.13472538 -0.028653799 -0.12375142
-0.024817055 -0.033385605 0.015122267 0.025335867 0.01114753 0.003490598 -0.023437532 0.0004496304
-0.04076542 0.028054014 0.08848435 0.011273656 0.030785082 -0.08229154 -0.017293205 0.00991701
-0.002616945 -0.019103464 0.00079761905 0.013782189 -0.044402566 0.039204538 0.0004260048 0.011554146
-0.021460151 0.012683488 0.0335028 0.020710241 0.0078813955 0.0282506 0.03653623 0.004989387
0.0004570843 -0.02736062 -0.014363122 0.037528686 -0.033785697 -0.030432876 -0.0030985845 -0.01965871
-0.013457795 -0.014380034 0.080877684 -0.059510063 0.039284345 0.041642625 0.008300501 -0.13667476
-0.0455649 0.07329005 -0.098386094 -0.07823847 -0.034018558 0.000118853415 0.09368099 0.001650874
0.050150465 0.13253102 0.021402681 0.036909148 -0.14589663 -4.4772987e-06 -0.07984891 -0.09648589
-0.023670183 0.071153454 0.024848273 0.02125872 0.0016261776 0.0033054024 -0.081777185 -0.016700095
0.19727471 0.053096417 0.011051107 0.03189248 -0.041028194 -0.06346225 -0.0016530924 -0.05203281
0.00011830487 0.108588815 -0.021630969 0.024836794 -0.072183214 -0.02334005 0.010016535 0.06674172
0.011192739 0.040365152 0.0018365287 -0.07777091 -0.015789047 -0.12798136 -0.012863343 0.018949553
0.028519506 -0.0046593444 -0.051158227 -0.018001128 0.0028678223 -0.22141393 -0.00448723 0.0041290056
0.0031814058 0.03352553 0.035090715 0.063634396 0.026516255 -0.07089795 0.025836151 0.24523516
-0.054979052 -0.02164718 -0.03217381 -0.084903136 0.033013176 0.017264713 -0.08980596 -0.026103895
-0.084305614 -0.098861076 -0.06531606 0.01012055 -0.011458329 -0.0420443 -0.006787162 -0.0077203647
0.058638502 -0.017335923 0.03969211 -0.0274446 -0.38838753 0.0137329195 0.026856799 -0.020228717
-0.0026732162 0.042710695 0.06340344 0.06804321 -0.01570623 0.006577792 0.02422673 -0.0167111
-0.059531763 0.009676817 0.021209951 0.49478796 0.08708592 -0.008285284 -0.033473466 -0.023321353
0.0042001843 -0.010555178 -0.030652087 -0.048232123 0.0010571101 -0.05355714 0.028855959 -0.020319352
-0.011112396 0.0005569269 0.027542945 0.006094945 -0.03637297 0.02366044 0.0109311165 0.003128492
0.0040500094 -0.0074381353 -0.008683087 -0.004782011 0.016749132 0.06697575 -0.028215429 -0.013531698
0.021417668 0.03772291 0.0050011375 0.014572851 -0.0940543 -0.026348496 0.01927563 0.015056946
0.037361074 0.021314764 0.035499338 -0.07355416 0.009650069 0.029602548 0.05789216 0.091554575

bias f4 [16]
00000000: 7bed 643e d4ca 133e d011 e7bd da87 19be
00000010: e41b e3bd 4b91 343e 307c 3dbe 8087 7bbe
00000020: 4e22 4b3e 9f45 b2bd c117 64be efa7 e9bd
00000030: c854 36be 40d2 38be a332 2dbe a94c a5be
0.22356217 0.14432842 -0.11282694 -0.1499323 -0.11089304 0.1763355 -0.18504405 -0.24563408
0.19837305 -0.087046854 -0.22274686 -0.11408984 -0.17805779 -0.18048954 -0.16913848 -0.3228505

weight f4 [128, 285]
00000000: 6a26 533b 73c4 fc3c d401 36be 6298 76bf
00000010: 6a03 be3d f891 753f 8f2b 34bd ef07 983b
00000020: f9af 49bd 5ad6 46be 20a5 9bbd 3545 123e
00000030: f3c9 b03c fa27 6e3f 4102 503e 861b 68be
00000040: 156a 29bd 7d5a 0ebd 1eff d0be f892 e33c
00000050: 85cf 81bd 05d9 babe ec86 e4bd d7f5 883e
00000060: 21e9 893c cbf8 e7bb bb0d 95be e955 d6bd
00000070: eb5a 9e3c 54f4 0f3d 21cc 34be 6243 123a
00000080: b359 62bd f3ac e0bd 54ee 8c3d 3521 ef3c
00000090: f619 f1bc 8a9a ce3d 50f3 fdbd afdb 3ebd
000000a0: 1b81 0c3d e9b6 743c f59b 03bc fa7d c1ba
000000b0: 95fa cbbb dcb1 d03a 16d8 66bd 7ec0 003d
000000c0: a5e9 433b 97b0 3fbb c27d e9bc 220a f23c
000000d0: 9ddf d53a 29c4 763b 2dfc 623c c858 babc
000000e0: f5e8 0c3b d3f5 083d 2de3 4e3d 7ad2 2b3d
000000f0: 9996 06bf 8e58 ab3c 964f bf3e 631d f13c
00000100: b966 bdbc 2c5c 1ebc 7cb1 52be 0dac aebd
00000110: 011e b7bd 9db5 823d fa3e 023f 1158 333e
00000120: ecbc 433c cba8 a6bd c6ed cfbd 4272 cdbd
00000130: d495 da3c ccd9 1d3d 3c42 33bc 3919 fdbc
00000140: 92e1 4ebe 3def bb3b 9a0a aebc 4842 0e3e
00000150: 54b1 94bc caa3 843d bef4 d43d 0a2d c03d
00000160: 3d0a d73d 2805 93bd 7b56 59bd c179 4b3e
00000170: 70b0 943c dda0 a13d a59e d7bd 02a9 06be
00000180: 8df6 55bd f7ce 11bd c694 f8bb 348e a63b
00000190: 8c58 50bc 2711 0bbc 2a87 dcbc 346c a0bd
000001a0: 420c c03d fdad 633c 8ca7 e8bc 7d26 0abd
000001b0: 5034 a43c 6e76 2bbb b76e d0bc a1e8 a53c
000001c0: db6c f5bc 8192 e73b eb78 f7bd c0ff 0ebd
000001d0: b318 da3c 8086 293e 3382 f7bd 32d2 ba3c
000001e0: 85ae 263d 250d 47bd ad6d 03bd 8f9e 15be
000001f0: df8a 843d 432a a3bd a267 27bc bce2 1d3f
00000200: 8b4c 2a3e 24ad 9f3e 8f9e 15bd 0591 903e
00000210: fbe3 563d 030b 1abe d0a9 3dbd 05f3 953c
00000220: 0e86 af3d 38da 42be d0ed 3abd 5ad8 47be
00000230: 039c 383e 8aa2 2f3d 4ef3 433c 8129 e7bd
00000240: 807c 0a3f 9f92 8b3e b143 56be 2cbe bfbd
00000250: 788d e83d 8ba9 a53d d56d 47bd 3eab 1bbe
00000260: 9747 90be 6cc1 a43d 8468 6dbd 3941 0ebd
00000270: 0bc8 c23b 430c d13a e147 63bb 17d3 45bd
00000280: fc02 95bd 4876 103e c203 c73c c9e8 6bbd
00000290: 7158 3ebd 6bc3 363d 7203 4d3c 16ea 60bd
000002a0: a522 ac3b 3439 733c 2ce8 2e3c 2a3a fcbe
000002b0: ee7c 783d 6f8e 843e a262 703f 9d17 b5be
000002c0: 8397 93be 2400 e93c ec9f b4bc 4e0d bebc
000002d0: e840 e0be 3262 5f3e ebf2 af3c 64ab fcbc
000002e0: 70d3 6f3e 56d9 123f 2898 f33e 2539 0abd
000002f0: 027d 713c d949 593d ccf8 53be 9dd9 67ba
00000300: 845c 403e a381 bd3d 5acb 04be 68ed 423c
00000310: 06fb aabe 0a4d 04bd a664 863e 727e a33d
00000320: 1bfa 00bf e4f5 a63f ccd8 c13d fd01 12bf
00000330: ada0 eabd b6c2 c63d 39d8 07be cffa 2fbd
00000340: d518 18bd 3051 aabe 9dba 9ebe ea74 a43d
00000350: ff12 bd3c 63c0 17bb 2c3a e83c 21cb 1fbc
00000360: 8d86 5dba eaf8 c7bc 5769 1a3e 792a 0b3d
00000370: 5cd2 babb 06ab 46bd 6bfc 9a3c c8d5 313c
00000380: 3288 9cba c319 9dba d45d 6639 92f9 66bc
00000390: 0ce9 a1be 1e7c 4abf e753 0dbf bc29 d23f
000003a0: 7310 03bf d351 36bf e70d 3bbd 7a39 af3d
000003b0: 2479 3d3d b70e 5a3f d537 b13e 8ec9 263e
000003c0: 2170 ab3a ffbf 22c0 3d26 dd3f a70e 1f3f
000003d0: 3b86 7a3d 4fed f93e ee44 c23d c12d 1d3b
000003e0: 7808 5bbd 4994 1b3f 3c97 533c abd8 563e
000003f0: ea32 143e 0132 2bbe 0c67 75be 99ca a2be
0.0032218941 0.030855393 -0.17774135 -0.9632627 0.09277995 0.95925856 -0.043986853 0.0046396176
-0.049240086 -0.19417706 -0.075998545 0.14284213 0.021580672 0.9302975 0.2031336 -0.2266675
-0.041360933 -0.034754265 -0.4081964 0.027780041 -0.06338409 -0.36493698 -0.11158547 0.2675006
0.016834797 -0.007079219 -0.29112038 -0.10465605 0.019330462 0.03514512 -0.17655994 0.0005579499
-0.055261325 -0.109704874 0.06881395 0.029190639 -0.029431324 0.1008807 -0.12399924 -0.046596225
0.034302812 0.014936187 -0.0080327885 -0.0014762275 -0.00622494 0.0015922147 -0.05635842 0.031433575
0.0029893902 -0.0029249543 -0.028502349 0.029545847 0.0016317252 0.0037653542 0.013854069 -0.022747412
0.0021501158 0.03343756 0.05050962 0.041948773 -0.52573544 0.02091625 0.37365407 0.029432958
-0.023120271 -0.00966553 -0.20575517 -0.0852891 -0.0894127 0.06382296 0.50877345 0.17514063
0.011946898 -0.081376635 -0.101527736 -0.100315586 0.026682772 0.038537785 -0.0109410845 -0.030895816
-0.20203236 0.0057353065 -0.02124529 0.13892472 -0.018150963 0.06476553 0.10398243 0.093835905
0.105 -0.07178718 -0.05306099 0.19870664 0.018150538 0.0789201 -0.10528306 -0.13150409
-0.052237082 -0.035597768 -0.0075860946 0.00508287 -0.012716424 -0.008487976 -0.02691992 -0.07833138
0.09377338 0.0138964625 -0.028400205 -0.03372811 0.020044476 -0.002616312 -0.025443418 0.020252528
-0.029959133 0.007067025 -0.1208361 -0.03491187 0.026623106 0.16555214 -0.120853804 0.022805307
0.04069378 -0.04859652 -0.032087017 -0.14611267 0.064718 -0.07967045 -0.010217579 0.61674094
0.16630761 0.31186783 -0.036528166 0.2823564 0.052463513 -0.15043263 -0.046304524 0.018304357
0.08570491 -0.19028556 -0.045636952 -0.19516125 0.18028264 0.04287962 0.011959864 -0.11287213
0.5409622 0.272603 -0.2092426 -0.09362444 0.11355108 0.080889784 -0.04868873 -0.15202042
-0.2817962 0.08044705 -0.057961002 -0.03473017 0.005944257 0.0015949089 -0.0034680294 -0.048297014
-0.0727596 0.1410762 0.024293784 -0.057595048 -0.046471063 0.04461996 0.012513028 -0.05491074
0.0052531534 0.014845181 0.010675471 -0.49263126 0.060666017 0.25889918 0.939005 -0.35369578
-0.28826532 0.02844245 -0.022048913 -0.023199704 -0.4379952 0.21814802 0.021478137 -0.030843444
0.23420501 0.5736288 0.47577024 -0.033745904 0.014739277 0.053048942 -0.20700377 -0.00088443776
0.18785292 0.09253242 -0.12968197 0.011897422 -0.3339464 -0.032300033 0.26248664 0.07983102
-0.5038163 1.304379 0.09465179 -0.57034284 -0.11456428 0.09705107 -0.13266076 -0.0429638
-0.037133057 -0.33265066 -0.3100175 0.08030112 0.023080347 -0.0023155443 0.028348051 -0.00975302
-0.00084505306 -0.024410684 0.15079246 0.033976052 -0.0057013463 -0.048502944 0.01891919 0.010854192
-0.0011942445 -0.0011985827 0.00021969463 -0.014097588 -0.31623113 -0.7909564 -0.5520615 1.6418986
-0.51196975 -0.71218604 -0.045667555 0.08555885 0.046258107 0.85178703 0.3461291 0.16287825
0.0013079682 -2.5429685 1.7277294 0.6213173 0.06116317 0.48813865 0.094858035 0.002398357
-0.053474873 0.6077314 0.012914475 0.2098109 0.14472547 -0.16718294 -0.2396509 -0.31795195

bias f4 [128]
00000000: 54de 18c0 f340 efbf 3a58 873e cd49 0f3f
00000010: 9c56 3a3e fd9c 0040 95ed efbe 5db1 e03e
00000020: 6a10 01be 8736 fa3e dd76 fcbe 4240 01bd
00000030: 7ab3 80be 25a6 a7c0 5518 e53e e989 9abe
00000040: b492 37bf 3ea7 2bbf 4825 f5be cbcd 07bf
00000050: 7778 01bf c066 c5be 4026 73bf 650a 5abf
00000060: 7617 cabf 2851 2f40 a5e5 3b3c e4de b23e
00000070: f9c1 0e3f 4f16 07c0 2d43 98be 4fb4 37bf
00000080: 6c3f b7bd 6cc6 f23e cbed 33bf 2026 b7be
00000090: f177 5bbf a7e5 9c3e 62cc f9be 825b 1fbf
000000a0: fe39 393f 5e07 d5be 36ca 8dbf 3480 d33e
000000b0: 732d 55bf d11a 8abe 9931 a2be d896 ee3e
000000c0: f9cf 73bd 2e4e 54be 23c7 d5be ae2b debe
000000d0: 9db4 53bf 398a 8dbf 1a43 b1bf 6ed5 65bf
000000e0: 1d45 12bf c925 a1bf 7316 8fbf d55a d03e
000000f0: c5f0 a7bf 69fa a4bf 2336 f43f 82f1 b4bf
00000100: f7c1 1fc0 1e56 f7be ca1e 38be bff0 40c0
00000110: c37f 4fbe d7e0 8dbf fe7d cebf 075a cfbe
00000120: 1d1f 4a3e 0d17 d73e dafc 1ebf ea05 813f
00000130: 52bc 8bbe c104 63be ab60 4140 a809 6dbf
00000140: a581 d6be a4b1 fb3c eb4b 42bf 7357 b83e
00000150: 9943 be3c a9db f5bd 303b 1a3c ed78 2dc0
00000160: 37d1 f83e 2414 6d3e ee4d 34bf 2eff 70bf
00000170: e0bb d23d f31b 863f ecfa 05c0 bb86 8abf
00000180: b387 b83f 94bb 05be c7be f8be 0c9a 68bf
00000190: 2035 8a3e 3e4c 7abf ae2c 6dbf ae7a 28c0
000001a0: 3078 0bbf 250b febe eb64 393f 6747 59bf
000001b0: 8b48 083f e623 afbe 2974 71be 44b6 683e
000001c0: c258 01be 824a 93be 5cd1 60be 020c 503f
000001d0: 8e89 53bf 803e 1540 922b 2dbf f28f 4dbf
000001e0: b5d9 d0bc a25b 89c0 77e6 e2be ae63 63bf
000001f0: e1e5 22bf 404e dfbe f530 81be 4c95 7ebf
-2.3885698 -1.8691696 0.264345 0.55971986 0.18197101 2.0095818 -0.46860948 0.43885317
-0.12603918 0.48869726 -0.49309435 -0.03155542 -0.2513693 -5.2390313 0.44745126 -0.30183342
-0.71708226 -0.67052066 -0.47880006 -0.5304839 -0.5057444 -0.38554955 -0.9498024 -0.8517211
-1.578841 2.7393284 0.011468326 0.34935677 0.5576473 -2.1107366 -0.2973875 -0.71759504
-0.08947644 0.4741701 -0.7028472 -0.35771275 -0.8572989 0.3064396 -0.48788744 -0.62249005
0.72354114 -0.41607183 -1.1077335 0.4130875 -0.83272475 -0.26973584 -0.31678465 0.4659946
-0.05952451 -0.20732948 -0.41753492 -0.433927 -0.8269747 -1.1057807 -1.3848603 -0.8977879
-0.5713671 -1.2589656 -1.1178726 0.406943 -1.3120352 -1.2888919 1.9079021 -1.4136202
-2.4962137 -0.4830789 -0.17980495 -3.014694 -0.20263581 -1.1084241 -1.61322 -0.40498373
0.19738431 0.42009774 -0.6210457 1.007993 -0.27292114 -0.22169782 3.0215251 -0.9259286
-0.41895786 0.030724354 -0.7589709 0.36004218 0.023225592 -0.120047875 0.009413525 -2.7105057
0.48597118 0.23152214 -0.7043141 -0.94139373 0.102897406 1.047728 -2.09344 -1.0822366
1.4416412 -0.13059837 -0.48583052 -0.90860057 0.26993656 -0.97772586 -0.926463 -2.6324878
-0.54480267 -0.49617878 0.72419614 -0.84874576 0.5323569 -0.34207076 -0.23579468 0.22725779
-0.12631515 -0.28767782 -0.21954864 0.8126832 -0.82631767 2.3319397 -0.6764461 -0.8029777
-0.025494436 -4.2924356 -0.44316456 -0.88823974 -0.6363202 -0.43614388 -0.25232664 -0.9944656
