src/rl_sar/policy/tita/robot_lab/policy.pt (torch, 742752 bytes, 8 tensors)

weight f4 [512, 33]
000000 75 f0 60 3d f6 d4 b8 be bf bd 2a 3f 76 45 e0 be
       0.054916818 -0.36099976 0.6669578 -0.43802994
000010 c9 52 3b bf 4b b0 76 3e 1c d4 38 3e c7 00 80 bd
       -0.73173195 0.24090688 0.18049663 -0.06250148
000020 88 86 c6 be 73 17 68 3c 46 66 99 bf 7f 75 0b bf
       -0.38774514 0.014165747 -1.1984336 -0.5447616
000030 07 ca fb be 63 48 0c 3f aa a7 0e 3f dd 86 f3 be
       -0.49177572 0.54797953 0.55724585 -0.4756383
000040 27 08 68 3f 90 ab 63 bd 32 e2 37 bf 21 0d 0b 3f
       0.9063744 -0.055583537 -0.7182952 0.5431691
000050 d6 d1 48 3b 0a 9d 0b be 6b 76 27 bc 25 79 6a 3d
       0.003064265 -0.13634124 -0.010221104 0.05724444
000060 21 1e ef bc 30 ac 02 3d 5d c2 54 3d a4 26 30 bd
       -0.029189171 0.031902492 0.05194317 -0.0430056
000070 a5 51 f2 3c a2 a2 ae bd ae c0 4c bc 6e 20 de bc
       0.029579947 -0.085271135 -0.01249711 -0.027115073
000080 73 4a 27 bd c4 f0 86 bd ef 68 7e be f9 94 68 3e
       -0.040842485 -0.06588891 -0.24844716 0.22713079
000090 04 27 c6 be ef 1b d4 3e a5 75 78 3e c0 bc c0 3e
       -0.38701642 0.41427562 0.24263628 0.37644005
0000a0 d4 8a db bc 1b 62 82 3c cd cc de be f8 ab 19 3f
       -0.026799597 0.015915921 -0.43515626 0.6002803
0000b0 0b 11 fa be bd ec 92 3e cb 55 dc 3d 16 66 c7 be
       -0.48841128 0.28696242 0.10758551 -0.38945073
0000c0 f9 d8 b6 3b 84 d5 bc be d8 42 d2 be f3 ab 4b be
       0.0055800644 -0.3688165 -0.41066623 -0.19889812
0000d0 6f 36 ef be 74 7c ee 3e 4e 47 7c bf a4 6b 8f bf
       -0.46721217 0.46579325 -0.985463 -1.1204724
0000e0 7e eb 68 be b1 ba 39 bf 12 f9 09 3c 6a db 23 3e
       -0.22746083 -0.72550493 0.008421199 0.16001669
0000f0 e7 5d c3 bc 9f 49 1d bd 30 e5 60 3d d8 7a 0a 3d
       -0.023848487 -0.03840029 0.05490607 0.03380856
000100 2b b3 9a 3b e1 cb 63 bc c5 eb 25 be d7 38 3f bf
       0.0047210655 -0.013903589 -0.1620322 -0.74696106
000110 bd 92 c7 3e 11 59 2c bf 0e 41 b4 be c4 c9 0e bd
       0.3897914 -0.67323405 -0.35205883 -0.034860387
000120 af 68 02 3f 2c d0 76 3e fa 63 05 be 56 73 f1 be
       0.50940984 0.24102849 -0.1302642 -0.47158307
000130 f1 dd 4e be 99 27 c5 be 1b 5d 5d be 93 84 06 3d
       -0.20201851 -0.38506773 -0.21617548 0.032841276
000140 f2 96 9c bd 96 2a 9e 3e a4 73 9b bc ee be d3 be
       -0.07645978 0.30891865 -0.01897604 -0.41356605
000150 6a ea 8a bf ce 43 03 bf c6 94 30 be e5 da a7 bf
       -1.0852787 -0.51275337 -0.17244253 -1.3113676
000160 88 f1 96 bf 43 03 e3 bd 80 a2 92 be e9 37 04 3d
       -1.179246 -0.110846065 -0.28639603 0.032279883
000170 38 0b 6c bd bc 30 94 3c dc ab 3f bd 0a 2b 1e bd
       -0.057627887 0.018089645 -0.046794757 -0.038615264
000180 62 dc 59 3b 33 41 ab bd 1b ff 24 bd 26 4c 1c 3e
       0.003324293 -0.08362045 -0.04028235 0.15263423
000190 2d 57 80 bd a2 18 83 bd 3d 0d 5a be 03 a8 5e bf
       -0.062666275 -0.06401183 -0.21294113 -0.86975116
0001a0 c7 1a eb 3d 0b 80 15 be b5 33 0b 3f 85 41 84 3d
       0.11479717 -0.14599626 0.54375774 0.06457809
0001b0 b4 48 70 3f ef 28 14 3f c3 f1 a8 3a 9e 65 00 3f
       0.93860936 0.5787496 0.0012889433 0.50155056
0001c0 bd e5 88 be 16 0e 66 be 0a d3 c2 be 18 79 32 be
       -0.26737776 -0.22466311 -0.38051635 -0.17429006
0001d0 f7 bf 80 be 4c 4e 88 3e 95 c4 c9 3e 02 e6 68 3f
       -0.25146458 0.26622236 0.39407793 0.90975964
0001e0 ba f6 f1 be 2a 50 0b bf 83 aa ba 3d be 65 6b be
       -0.4725855 -0.54419196 0.09114554 -0.2298803
0001f0 3c e8 c0 3c 8f 30 00 be 71 13 d8 3c 72 a2 7d 3b
       0.023548238 -0.12518524 0.026376458 0.0038701561
000200 9c e5 d0 bc d0 f2 21 3d de da a4 bc 09 f6 86 3c
       -0.025500111 0.039538205 -0.020123895 0.01647474
000210 2a ee fb bd 5e a7 ac bd 6d 0d d2 3d 9f 4f a8 bc
       -0.123012856 -0.0843036 0.10256467 -0.020545779
000220 33 4f e2 3d d2 9c 3c 3d 67 6d 81 bd 2c 3b 93 bd
       0.11050262 0.046047993 -0.06319695 -0.071890205
000230 01 2f 10 bc 01 ba f4 bd 28 8e 02 be 1a 92 62 be
       -0.008800269 -0.1194954 -0.12749541 -0.22126046
000240 9b 21 f2 bd 3d 9b 10 be 86 51 d7 3c cf df a1 3d
       -0.11822816 -0.14121719 0.02628399 0.07904016
000250 74 a9 44 3f f7 6a 52 3e eb 41 f8 be 75 89 78 be
       0.76821065 0.20548616 -0.4848779 -0.24271186
000260 fc ad f0 be 20 90 b6 bd 7b 77 4d 3e f3 eb 2b bd
       -0.4700774 -0.089142084 0.2006511 -0.041973066
000270 63 b5 87 3d cd a3 4a 3c 9d 36 06 3c 6d 7d 1f 3c
       0.06626394 0.012368155 0.008191732 0.009734494
000280 b0 12 8f bc 37 d0 f0 3c 15 d5 db bc ad 18 98 3c
       -0.017464966 0.02939616 -0.026835004 0.018566454
000290 b5 06 30 bc 99 2f 35 3e b6 88 31 3f bc a8 97 3e
       -0.010743787 0.17693938 0.6934923 0.29620922
0002a0 16 44 20 3f 25 77 8f 3e ea ee b4 bc 03 6a bd bd
       0.6260389 0.28020588 -0.02208658 -0.09248736
0002b0 90 80 0b 3e bf d3 c5 bd 4a e8 bf 3c 85 d5 f1 bd
       0.13623261 -0.09659528 0.023426194 -0.11808304
0002c0 3c e9 2c 3f a2 78 62 3d 7a 53 2a 3f c5 6d 13 3f
       0.6754339 0.055290826 0.66533625 0.5758937
0002d0 d4 9f ce bd 15 14 54 be 11 b3 f9 3c 43 31 ba 3f
       -0.100890785 -0.20710786 0.030480893 1.4546283
0002e0 0a 80 9e 3e b5 b9 83 3f 65 44 b1 3f fc 28 c9 3e
       0.3095706 1.0291048 1.3848997 0.3928908
0002f0 c5 18 30 be ac 67 02 be 27 b3 cb bc e3 54 aa 3b
       -0.17196949 -0.1273486 -0.0248657 0.0051981076
000300 0b 41 ba 3c 2c d3 3c bd 2f 19 c0 bc 8c 1e ad 3c
       0.022736093 -0.046099827 -0.023449508 0.02113273
000310 5d e1 87 3c 24 ff b6 3c 72 26 ff be b6 07 eb be
       0.016586954 0.022338457 -0.4983402 -0.4590432
000320 37 c6 47 be 8e 66 4c bf 96 af e2 3e 1b 2a 6c be
       -0.19509207 -0.79843986 0.44274586 -0.23062937
000330 51 6a 0a be 5d 66 51 3e 3b 12 d4 3d 71 91 c9 bd
       -0.13517119 0.20449205 0.1035504 -0.09842194
000340 b7 29 9c 3c 4e 99 98 3d 6f f5 e7 be 4b 29 6e bf
       0.01906286 0.074511155 -0.45304438 -0.9303176
000350 9f 27 29 bf 8f 66 99 3e ea dc c9 bd 6e 0a 93 3e
       -0.6607608 0.29961058 -0.09856589 0.28718895
000360 0f d9 9e bf c2 43 f0 be e5 db 94 3d fd 57 9c bf
       -1.2409991 -0.46926695 0.07268504 -1.2214352
000370 7f d8 32 bf 73 5d a9 bd 95 9c 80 bd 8e 1c 89 3b
       -0.69861597 -0.08269777 -0.06279866 0.004184312
000380 e9 2e b6 bd 24 64 ac 3d b6 c0 6c bd 14 c8 66 be
       -0.08895666 0.08417538 -0.05780097 -0.22537261
000390 fa bd b9 3d 6f e8 ab bd 97 3b 0b be 12 54 96 be
       0.09069438 -0.083939426 -0.1359695 -0.29361016
0003a0 54 51 ac be 87 37 44 bf 22 40 27 bf 52 18 95 bd
       -0.33655798 -0.7664723 -0.65332234 -0.07280029
0003b0 cc 51 88 3e ad 8d 9b 3e 44 dd bf 3d cc 49 bb 3e
       0.26624906 0.30381528 0.09368375 0.3657974
0003c0 56 14 b7 be 61 7e 98 3e b8 73 3d bf cf d1 9c bc
       -0.35757703 0.2978392 -0.740047 -0.019143013
0003d0 22 3b 4d 3d 48 a9 82 be 7b bf 83 3e c2 87 f9 be
       0.05010522 -0.25519776 0.25732026 -0.48736387
0003e0 27 52 a0 3e 37 51 ee be 20 b0 5f be af 26 25 be
       0.31312677 -0.46546337 -0.2184453 -0.16128038
0003f0 c8 a9 22 bf 17 a5 45 be 7e d8 f3 bd 6a e9 0e bd
       -0.63540316 -0.19301258 -0.11906527 -0.03489057

bias f4 [512]
000000 37 4d 8e 3d 37 17 89 be 01 05 c2 3c 35 f4 27 be
       0.06948321 -0.26775524 0.023684027 -0.16401751
000010 2f 6e 1f bc fb 86 77 bd 56 68 45 bd f9 62 1f be
       -0.00973086 -0.06043146 -0.048195206 -0.15565099
000020 2a 1d 82 bf f7 f2 4d bd 36 ce 67 be 75 1d 17 bf
       -1.016515 -0.050280537 -0.22637257 -0.5902932
000030 17 77 74 be 8f af 1d ba 7f 15 05 bc c7 cd 69 3d
       -0.23873554 -0.0006015235 -0.008122801 0.05708101
000040 b9 50 67 be 2a 3d 73 bd 6a c3 95 3e df 19 c3 be
       -0.22589387 -0.059384502 0.29250652 -0.38105676
000050 0e f9 9a 3e 38 c4 d5 bc a7 f2 02 3e e4 47 37 bf
       0.3026814 -0.026094541 0.12787877 -0.7159407
000060 ee 8a 8c be 10 94 51 3e 23 c6 af 3e 6e fe ab be
       -0.27449745 0.20466638 0.34330854 -0.33592552
000070 09 eb c7 3e 28 1c 03 bf 7f fd 66 3d 52 7e 30 3d
       0.39046505 -0.5121484 0.056394096 0.04308922
000080 5f 34 cf bd 73 04 aa 3d 2f cd 73 3d 72 2d 92 be
       -0.10117411 0.0830163 0.05952185 -0.28550297
000090 d9 b7 dc bd 2c 9d e3 3d 1c 3c cc 3d 9e 8f 40 bf
       -0.10777254 0.111139625 0.099724025 -0.7521914
0000a0 25 f0 08 3e ce 81 42 3e 7e 63 5d bd aa 01 02 3d
       0.13372858 0.18994829 -0.05404996 0.03173987
0000b0 12 7c 87 be ac 1c 58 bd c6 ad c3 bd ec 4c 0e 3d
       -0.26461846 -0.05276172 -0.09554629 0.034741327
0000c0 82 fb 3c be c9 3d 71 bc b8 58 48 be fb 05 aa 3e
       -0.18455318 -0.014724203 -0.19565094 0.33207688
0000d0 19 27 bf 3a e5 d4 8e 3d d5 16 1a 3e b7 b8 63 bd
       0.0014583796 0.069742 0.15047772 -0.05559608
0000e0 97 d3 b0 be a3 60 0f 3e 2b 91 97 3d df ff 35 bf
       -0.3453643 0.14001708 0.074007355 -0.71093553
0000f0 a0 51 8e be 6c b1 99 3d 74 f0 1b bf b6 1f 12 be
       -0.2779665 0.07504544 -0.6091378 -0.1426991
000100 da 86 aa bd 09 82 a5 3d a0 be 4f bf 96 60 9f 3c
       -0.08326502 0.08081443 -0.81150246 0.019455235
000110 cc 51 89 be 43 d9 e6 be dc 0e 53 3d 5a 82 0b bc
       -0.2682022 -0.45087633 0.051527843 -0.008514965
000120 37 b6 ad be f8 5a 00 bf 0b c6 ac be f0 86 32 bc
       -0.3392808 -0.5013881 -0.33744845 -0.010896429
000130 fb d9 53 bf f6 fb 5c be ab a1 41 be 90 33 85 be
       -0.82754487 -0.2158049 -0.18909328 -0.26015902
000140 51 84 8e be 9d af ac 3c 8d 39 0b 3e 9a 72 00 3e
       -0.27835324 0.021079833 0.13596173 0.12543717
000150 b6 72 5e be 5b 98 07 be 3a b0 9a bd 10 be 5f 3c
       -0.21723446 -0.13241713 -0.07553144 0.013656154
000160 6a dd d9 3d 59 58 9c 3d 86 34 ca 3b 07 7a e9 bd
       0.106379345 0.076340385 0.006170812 -0.11400228
000170 99 63 5c be fc 96 59 3d 9b 0d 6c bc 0f 3e 4c be
       -0.21522368 0.053122506 -0.014407541 -0.19945548
000180 13 4c 5e bf c5 87 59 3d 96 44 fa bd 8f a0 8a bd
       -0.8683483 0.053107996 -0.12220113 -0.06768905
000190 be 69 b1 be 25 8d 48 bd 1c 9e b5 be b0 53 28 3d
       -0.34650987 -0.04896273 -0.3547219 0.041095436
0001a0 1a 0a 01 3e 3f 34 85 bc b6 41 8c 3e f9 b9 0b be
       0.1260151 -0.016260264 0.27393883 -0.13645162
0001b0 a2 6d ea bd 6f 7d 2d bd 2c 61 aa 3d a7 38 05 3e
       -0.11446692 -0.04235595 0.08319315 0.13009892
0001c0 d4 de 25 be dc 67 7d bf 74 9a 58 3f 90 d7 e8 bc
       -0.16198283 -0.989866 0.84610677 -0.0284231
0001d0 79 6a 97 3e 6e 2f 01 3d 96 5f 50 3d 81 fc b0 be
       0.2957342 0.031539373 0.050872408 -0.34567645
0001e0 c7 19 84 be 80 bc a0 be 1e c5 71 3e 34 18 81 be
       -0.25800917 -0.31393814 0.2361035 -0.25213778
0001f0 3a 4f 30 3e f7 8b df 3d a0 cb 88 bc dc 8a 19 3e
       0.17217723 0.10915368 -0.016698658 0.14994377
000200 27 37 16 3e 9f 16 b4 bd 59 40 d3 bd bf 63 9c be
       0.14669476 -0.08793377 -0.10315008 -0.3054485
000210 dd 00 85 3d 23 41 2f be b7 84 c3 bc 83 02 9c 3e
       0.06494305 -0.17114691 -0.023866994 0.30470666
000220 7b 5c d5 bc d0 9e 4a 3e 19 eb fb bd 02 db 01 3e
       -0.026045075 0.19787145 -0.12300701 0.12681201
000230 53 08 25 3e 6d 72 d5 be 90 bb 31 be f0 a1 e9 be
       0.16116457 -0.41688862 -0.17356706 -0.4563136
000240 44 23 b8 be 00 e1 ba be 67 75 25 be 06 28 cb bc
       -0.35964406 -0.36499786 -0.16158067 -0.024799358
000250 b4 ca 33 3e 3e 34 a2 bf 47 05 89 3d 55 03 da 3e
       0.17557794 -1.2672193 0.0669046 0.42580667
000260 15 e3 d9 3d 34 c6 f4 3e cd 67 90 be 19 d1 2d 3e
       0.106390156 0.47807467 -0.28204194 0.16974296
000270 a2 fc 98 be 7f 7a 1b be b1 c2 dc bb 18 11 5a bd
       -0.29880244 -0.15183447 -0.006737076 -0.053238958
000280 8d 86 96 be 13 38 21 be dc 8f 70 be b9 f1 4e be
       -0.2939953 -0.15744047 -0.23492378 -0.20209397
000290 f5 4b 41 bd 3e 4b 25 be d2 2b f0 be 04 51 a3 bc
       -0.04719158 -0.16141984 -0.46908432 -0.019936092
0002a0 83 d7 fc bd de 2a e2 bd 3c dd 9f 3c 1b 6b 28 be
       -0.12345793 -0.110433325 0.019514672 -0.16447107
0002b0 60 e9 35 be 7e 75 85 be 23 6b 64 bd 06 92 18 be
       -0.17764807 -0.26066202 -0.055766236 -0.14899454
0002c0 db c6 a1 bd 5c 55 d3 bf b7 5c 0a 3e 14 f2 c6 3d
       -0.07899257 -1.6510425 0.1351193 0.097141415
0002d0 da 38 73 be d2 ec 3c 3e 2e 3e 21 3e ed cb 73 bd
       -0.23752156 0.18449715 0.15746376 -0.05952065
0002e0 33 54 4d 3e 19 e1 70 3b e9 43 90 be 96 c2 b5 be
       0.2005165 0.0036755262 -0.2817681 -0.3550002
0002f0 fc c5 b3 be f0 a7 ca bd 12 fe a8 3e 1e bf 3a be
       -0.35111988 -0.09895313 0.3300634 -0.18236968
000300 33 af 09 be 79 d7 34 be 1a 76 9d 3e 24 89 25 bd
       -0.1344574 -0.17660321 0.30754167 -0.04041399
000310 9e 6d 34 be e0 2b 8a 3e 92 2a a4 be 92 fd 31 be
       -0.1761994 0.269866 -0.3206373 -0.17381886
000320 9f 8b 99 bc 92 93 86 bd 6a 66 48 bd 0e 2f 90 3d
       -0.018743334 -0.065711156 -0.048925795 0.07040225
000330 75 a9 ad bd 09 47 bc bc e9 c0 8a 3e b4 1a c8 3a
       -0.08479587 -0.022983091 0.27100304 0.0015266747
000340 05 3e ff be 4d be ee be f8 58 31 bd ea 77 ea be
       -0.49852005 -0.46629563 -0.043297738 -0.45794612
000350 b9 d7 2b bc fb 0b 91 bd 78 7a 0f be c4 37 37 3e
       -0.010488444 -0.07082363 -0.14011562 0.17892367
000360 7a ae 79 3e 5d ae 71 be df e4 c5 3e ac 85 63 3e
       0.24382964 -0.2360167 0.38651177 0.2221896
000370 ad 59 b8 be c6 4e 4e bc 7b 4e 28 bd 28 3d 32 3e
       -0.36005917 -0.012592023 -0.04109047 0.17406142
000380 64 06 27 3d f0 07 df be 29 45 88 be b2 27 6a 3e
       0.04077758 -0.43560743 -0.26615265 0.22866705
000390 66 a3 26 3b 25 d3 64 be dd 79 34 be 3a 0c 41 be
       0.0025426983 -0.2234617 -0.17624612 -0.1885232
0003a0 bf e8 f1 bd 3e ac 2c be db 05 05 3d cf ff 8d bd
       -0.11811971 -0.1686258 0.032476287 -0.06933557
0003b0 c4 43 9c 3d 3f 13 8a bd be 58 00 be 78 f3 95 3c
       0.07630113 -0.06741952 -0.12533852 0.018304572
0003c0 d0 ad 0b be ce 55 80 3e 42 f3 85 3c ac 35 10 bd
       -0.13640523 0.25065464 0.016351346 -0.035207435
0003d0 fd e6 e4 bc 54 37 db bc cc f3 00 3c df b3 5b be
       -0.027942175 -0.026759781 0.007870626 -0.21455334
0003e0 8f f7 d2 3d ae e0 bc bf 3b 0b cd bd 1d 75 7d bc
       0.10301124 -1.4756067 -0.10011908 -0.0154698165
0003f0 fe 38 5d 3c de 30 b4 be bf 63 96 3d ab fa a9 bd
       0.0135023575 -0.35193533 0.07343244 -0.08299764

weight f4 [256, 512]
000000 5c db 42 3e 67 97 91 3e 02 65 1e be a2 1e e7 3d
       0.19028991 0.28435823 -0.15468219 0.112851396
000010 11 9d 76 3e 9d 64 41 3e 7a c1 14 bf dd 77 99 bc
       0.24083354 0.18886037 -0.5810772 -0.018733913
000020 12 ac f6 3d 88 96 cd be a4 17 83 be fa ed 73 3e
       0.120445386 -0.4015391 -0.25603974 0.2382125
000030 c1 69 8a be e8 95 13 3d c4 3a 61 3e 2d 6d c5 be
       -0.2703381 0.036031634 0.21995074 -0.38559857
000040 7e cf 0b 3f 27 07 10 3d 23 e9 d5 be 37 68 b6 3e
       0.5461348 0.03516307 -0.41779432 0.35626385
000050 8c 5d c8 bd 2b f6 b8 3e 2d 89 72 3e 1d 46 92 be
       -0.09783468 0.3612531 0.23685141 -0.28569117
000060 b1 24 27 3e c6 a6 37 3e d1 48 22 3d 6c d6 8b 3e
       0.1632259 0.17934713 0.039620224 0.27312028
000070 74 6c e8 be bb 3b f9 3d 22 71 7b be 85 5c a8 be
       -0.45395243 0.12169596 -0.24554875 -0.32883087
000080 bc f9 c8 be 5f 42 f1 3e ce ee 61 3e 77 48 96 be
       -0.39253032 0.4712095 0.22063753 -0.2935216
000090 51 8a 10 be 24 9f 52 be bc d7 1b 3e 3d 48 33 be
       -0.14115264 -0.2056852 0.15219015 -0.17508025
0000a0 8e c7 2a 3e 7e ec ce bc 43 d7 fb 3d bc c7 96 be
       0.16677687 -0.025259253 0.12296917 -0.2944926
0000b0 1f f5 be bd 3b 23 4d bd 47 66 38 3e d6 7a 9e bd
       -0.09324097 -0.050082427 0.18007766 -0.07738273
0000c0 cd c3 3c 3e c3 00 88 be 67 17 bc be 6d 67 15 bf
       0.18434067 -0.2656308 -0.36736605 -0.5836094
0000d0 32 4f a0 bc 61 82 62 be 0d d9 b2 3d af 97 e4 be
       -0.019569013 -0.22120048 0.087328054 -0.44646975
0000e0 c8 f7 52 be 54 5f e5 bd 07 91 73 bd 5a 96 95 3e
       -0.20602334 -0.11199823 -0.05946448 0.29216272
0000f0 28 98 82 3e f1 c9 3b be 4e a6 5d 3e 77 d1 aa 3d
       0.2550671 -0.18338753 0.21645471 0.083407335
000100 f2 12 bf 3e f0 71 d3 3d fe 77 3b 3e 76 ca 5b be
       0.37319142 0.10324466 0.18307492 -0.21463951
000110 6e 0f a0 3d ac 03 ac bd 30 c3 ea 3c ca 78 56 be
       0.07815443 -0.08399138 0.028657526 -0.20944515
000120 98 80 f2 bd 30 24 b5 3a d8 7f 20 be c3 05 80 be
       -0.118409336 0.0013819989 -0.15673769 -0.25004396
000130 50 08 82 3d 73 a0 c6 3e 0f 2d 74 3e 4a 1b ec 3d
       0.06349242 0.38794288 0.23845313 0.115286425
000140 c9 e4 8d 3e 22 64 4a bd 3c 20 41 3c c9 e1 1d bf
       0.27713612 -0.0494119 0.01178747 -0.61672646
000150 33 0f 4d be cf 4a 2e be 48 41 53 3d 48 e5 d9 3d
       -0.2002533 -0.17020725 0.05157593 0.10639435
000160 4e 9f 16 be bb 43 b1 bd da 2c 57 be a1 d1 d1 be
       -0.14709207 -0.08655497 -0.21013203 -0.40980247
000170 ba 5f 5a be 30 a5 cf 3d fe f1 62 be 6e 59 62 3e
       -0.2132558 0.10138929 -0.22162625 0.22104427
000180 6d 4c 9b 3e 98 fe 03 3e ce bc e1 3d 1c b4 90 3d
       0.30331746 0.12890089 0.1102234 0.07065603
000190 6f be 3d be cd e2 d0 bd 75 be 0a bf 8e 29 68 bc
       -0.18529676 -0.10199509 -0.54196864 -0.014170064
0001a0 87 59 d9 3e 85 0b ea 3d 81 9b 64 be 93 cb 89 3e
       0.42451116 0.114279784 -0.22324945 0.26913127
0001b0 d6 d4 22 3e 91 2c 6a bd af fa 8f 3e 6d b6 a9 bd
       0.15901503 -0.057171408 0.28120944 -0.08286748
0001c0 2c 99 6e bc 86 b4 26 3e 62 a3 3a bd d3 6c a1 3d
       -0.014562886 0.16279802 -0.04556597 0.07882085
0001d0 08 f8 56 be 7e 6a c3 3d 68 a1 f0 be f0 2e 79 be
       -0.20993054 0.09541796 -0.46998143 -0.24334311
0001e0 09 15 7d bd 44 24 10 3e 51 30 1b 3e b4 bd 6f be
       -0.06178764 0.14076334 0.1515515 -0.2341221
0001f0 57 68 d7 3e 0f 8c a4 3d 86 bd 0a 3d 04 39 ea 3d
       0.42071792 0.080345266 0.03387215 0.11436656
000200 21 ca d0 3d 4f a1 49 be 87 7f 9b 3d cc f4 64 be
       0.10194803 -0.1969044 0.07592683 -0.22359008
000210 b5 fa 80 be 26 5b b7 3e 26 b7 b9 3d 53 e0 1c bd
       -0.25191274 0.35811728 0.09068136 -0.03829987
000220 35 32 23 bd 84 3d 77 3e e5 18 0c 3e 63 a9 b5 3d
       -0.039842803 0.2414456 0.13681372 0.088701986
000230 2f 31 66 3e b7 1f 4a 3d d4 a4 7e be 1d b7 3b 3e
       0.224797 0.049346652 -0.24867564 0.18331571
000240 78 93 3b bf 82 8e 8f bd 7c 32 3e 3e 1d 2a cf bd
       -0.73271894 -0.07009603 0.18573946 -0.10115454
000250 98 ad 75 3d 93 70 82 3e 8a 00 60 3e 1f f3 0e 3e
       0.059980005 0.25476512 0.21875206 0.13959931
000260 ec 4b 4b be 88 3f 12 3e d2 4b 38 3e bb 0e 24 be
       -0.1985318 0.14282048 0.17997673 -0.16021244
000270 a1 71 ac 3c 09 1e d2 3e b6 e8 4a 3d 20 dd aa 3e
       0.021050276 0.4103854 0.049538337 0.3337183
000280 7d fb d3 3d d4 85 98 3e 6e 50 85 be ae 93 bd bd
       0.10350702 0.29789603 -0.26037925 -0.09256683
000290 57 88 0f be fb 5f 26 be db 34 28 3e 9e 09 9c 3d
       -0.14016853 -0.16247551 0.16426413 0.07619022
0002a0 67 0b 7a 3e 37 46 c5 3e e4 71 b8 be 2c ec 9f bd
       0.24418412 0.38530132 -0.36024392 -0.07808718
0002b0 e4 43 97 be c6 5e 54 3e 0a 0e 65 3e 71 6a 75 3d
       -0.29543984 0.20739278 0.22368637 0.059915964
0002c0 7c 46 26 3e 89 56 6f 3e e8 d9 cb bd 32 e5 02 be
       0.16237825 0.23372854 -0.09953672 -0.12782744
0002d0 ea 0b b5 bd 7f 97 bf 3d 12 58 bf 3e 05 64 8c 3e
       -0.08840163 0.093550675 0.3737188 0.2742006
0002e0 bd e1 d0 be 76 04 aa 3c 98 c8 10 be e2 e2 1b bf
       -0.40797225 0.02075408 -0.1413902 -0.6089307
0002f0 a1 03 64 3e 66 bd 87 3e fa 39 a5 3e 3f e4 2d bd
       0.2226701 0.26511687 0.32270795 -0.042454
000300 8b 22 26 3d 70 1a 2b be 0c 9d 79 3e 1c 7c ab be
       0.040560286 -0.16709304 0.24376315 -0.33493125
000310 1f 90 51 bc 5e 38 15 3d 2f 29 4e 3e e4 89 1e 3e
       -0.012790709 0.03643071 0.20132898 0.15482289
000320 dc cb 7b 3e 22 ac cc 3c 1c 29 9f be 22 33 22 be
       0.24589485 0.024984423 -0.3108605 -0.15839818
000330 43 a2 6e 3d 47 c3 5c 3d 41 33 1e 3c 1a 32 4d be
       0.058260214 0.05389717 0.009655775 -0.20038643
000340 4c 2a 8b 3e c1 45 30 be 19 da 93 be 40 a2 21 3d
       0.27180707 -0.17214109 -0.28877333 0.039461374
000350 5b 3c 67 be ef 98 1d bf 12 8b 3b 3e 45 f7 cb 3e
       -0.22581618 -0.61561483 0.1831477 0.3983709
000360 1a f9 b0 be 2a 40 60 be 21 b1 ed bd da 13 82 bf
       -0.3456505 -0.21899477 -0.1160605 -1.0162308
000370 30 c9 cb bb fe 59 18 3e b3 33 d5 be ef b7 ed 3d
       -0.006219052 0.1487808 -0.41641006 0.11607348
000380 9c 67 87 bf 39 f2 96 bd f4 7e da 3d 7e d7 0a be
       -1.0578494 -0.07370419 0.10668746 -0.13558766
000390 31 33 4a be 4b e3 16 bf 49 1b 07 bf 68 f5 f5 bd
       -0.1974609 -0.5894057 -0.5277601 -0.12009698
0003a0 15 93 af bd 7c 78 00 be 63 eb 99 3d 1e 03 33 be
       -0.085729755 -0.12545961 0.075155996 -0.17481658
0003b0 ff 08 1b 3c 78 2f 5e 3e 3a d0 5e be 0a 34 b9 bc
       0.009462594 0.21697795 -0.2175912 -0.022607822
0003c0 5c f1 9a bb a3 e6 fd 3c 07 11 91 3d 44 2d a2 3d
       -0.0047284793 0.030993765 0.07083326 0.0791879
0003d0 e8 b3 70 bd d3 94 65 be a4 38 a0 bd 86 13 94 3e
       -0.058765322 -0.22420053 -0.07823303 0.28921145
0003e0 be a2 51 3e 34 a7 9a 3e 94 59 26 3e e6 02 91 bc
       0.20472237 0.3020569 0.16245109 -0.017701577
0003f0 7b 74 1d bf 17 3e 2e 3e 99 6e ba 3e 63 98 7f be
       -0.6150586 0.17015873 0.36412504 -0.24960475

bias f4 [256]
000000 67 50 01 bf 5f 92 b3 be 48 61 49 be bf f5 a0 be
       -0.5051331 -0.3507261 -0.19666016 -0.3143749
000010 a1 f6 30 be 33 be b5 be a7 1d ae be 6f 6b 06 bf
       -0.17281581 -0.35496673 -0.34006998 -0.5250768
000020 24 77 1e bf 7d 93 82 bd 64 95 83 be 5f 94 b2 be
       -0.61900544 -0.063757874 -0.25699914 -0.34878823
000030 77 9a 9f be 4a 17 29 bf 06 5a ce bd 71 50 54 be
       -0.31172535 -0.6605116 -0.10075764 -0.20733811
000040 e1 86 a2 be c8 4a e7 be e4 53 1e bf 7f f7 3f be
       -0.3174353 -0.4517424 -0.61846757 -0.18746756
000050 7d fc d4 be 81 2d 57 be aa 29 b8 bd 17 56 35 be
       -0.41598883 -0.21013452 -0.08992322 -0.17708622
000060 80 2b 3c bf 5b 04 ba be 92 d5 02 3d d3 34 f9 be
       -0.73503876 -0.36331448 0.031941958 -0.48673114
000070 4a da c2 be 59 77 b8 be c2 b4 ff be 27 9a 19 bf
       -0.38057166 -0.36028555 -0.49942595 -0.6000084
000080 0e 35 92 be 72 25 b2 be 56 a2 a8 bd 25 e2 e0 be
       -0.28556103 -0.34794194 -0.08234088 -0.43922535
000090 b8 60 b8 be 6a 56 6e be 30 68 0f bf b3 8e ea be
       -0.3601129 -0.23275152 -0.5601835 -0.45811996
0000a0 e9 74 0a bf e4 75 63 be 62 f1 0c be e2 73 dc be
       -0.5408464 -0.2221294 -0.13763955 -0.43057162
0000b0 18 d9 3c bf 84 54 e6 be 88 49 e7 be c2 f4 03 bf
       -0.7376876 -0.44986355 -0.45173287 -0.51545346
0000c0 29 b3 cc bd b9 06 70 be c8 ef 3d bd fd 0b 44 bd
       -0.099951096 -0.23440064 -0.04637125 -0.047862995
0000d0 43 c1 fb be 91 fa 64 be ba 1f f0 be 59 62 f6 be
       -0.49170884 -0.22361208 -0.46899205 -0.48121908
0000e0 59 37 0f bf f7 83 0a bf ed 81 d9 3d 53 4b e4 be
       -0.5594383 -0.5410761 0.106204845 -0.44588718
0000f0 fa 2a f5 be 0e 35 1d bd 04 c6 c2 bd d8 c7 67 be
       -0.4788435 -0.038380675 -0.09510425 -0.22634828
000100 e3 93 f9 be db d7 13 be 2e 54 f7 be 78 86 0e bf
       -0.4874564 -0.14437811 -0.48306412 -0.55673933
000110 f6 b8 2c bf a3 fa 40 be 44 d5 d1 bd a1 f0 2c bf
       -0.6746973 -0.1884561 -0.10245755 -0.6755467
000120 95 d1 e5 be d0 00 e7 be 04 c9 3b bf aa 9a ef be
       -0.4488646 -0.45117807 -0.733536 -0.46797687
000130 43 94 69 bf 80 2a 9b be b0 14 49 be 7c 2d 8c 3e
       -0.91241854 -0.30305862 -0.19636798 0.27378452
000140 87 9b 80 be 69 9c 44 be 92 46 f6 bd 98 c2 f3 be
       -0.25118658 -0.1920029 -0.12025179 -0.476094
000150 c9 90 c6 be 29 01 93 be 03 4a 58 3e 72 94 51 be
       -0.38782337 -0.28711823 0.21121983 -0.20466784
000160 72 a1 8d 3d 28 65 55 be b5 33 a2 be 98 01 c5 bd
       0.06915559 -0.2083937 -0.31680074 -0.096194446
000170 5f ab d1 be 37 89 48 bc 08 e4 a9 bd 6e 1d 81 be
       -0.40951058 -0.012239746 -0.08295447 -0.25217766
000180 af 73 45 be 3c 00 05 bd b1 01 ba be 2b 16 d8 be
       -0.19282411 -0.032470927 -0.36329415 -0.42204413
000190 17 d1 1d bd c0 98 ed 3d ee df 31 be 37 0c 28 be
       -0.03852948 0.116014004 -0.17370579 -0.1641091
0001a0 f1 d8 44 bf b2 27 c3 3c f5 eb 20 be 23 ac 2f be
       -0.76893526 0.02382264 -0.1571501 -0.17155509
0001b0 6a 71 8d be e2 1d 16 bf c1 82 f5 3d 24 fc ce be
       -0.2762559 -0.5863935 0.1198783 -0.40426743
0001c0 47 73 d2 3d 9a d9 4d 3d e0 3e 53 be 5b 7b 48 be
       0.10275894 0.05025635 -0.20629454 -0.19578306
0001d0 c9 85 8b 3d e5 19 c2 3d a5 a7 00 3e 29 d4 b7 be
       0.06812627 0.09477595 0.12563951 -0.35904053
0001e0 97 ab 90 3b e2 b9 cb be 09 07 63 3d 2a 60 1d 3d
       0.0044149864 -0.39790255 0.05542663 0.038421787
0001f0 fc 70 1f bf 43 5e c4 3b 76 fb 93 bf 7f b7 23 be
       -0.62281775 0.005992682 -1.1561115 -0.15987967
000200 46 44 02 bf 98 05 21 bf 70 b9 ee be fa 3c fb be
       -0.50885427 -0.6289916 -0.46625853 -0.4906996
000210 41 9f 6a be 61 2b 58 bf 26 ba bd be 22 b6 d8 bd
       -0.22912313 -0.8444119 -0.37056082 -0.10581614
000220 35 52 0b be 6b c0 dc be 9a 54 bc be 85 b2 17 bf
       -0.13605578 -0.43115553 -0.36783296 -0.59256774
000230 00 5a 4e be f7 ad d7 3c 25 91 0f bf 83 0d 0c be
       -0.2015152 0.02632807 -0.5608085 -0.1367703
000240 1a 52 7d 3c e8 af 75 bf 3c 41 da be be d9 43 be
       0.015461469 -0.95971537 -0.42627895 -0.19126031
000250 11 3a c4 be 00 6c 38 be 3c cd 14 bf 3e 66 3e be
       -0.3832555 -0.18009949 -0.5812566 -0.1859369
000260 07 ea a3 be dc eb 27 be a2 40 91 be d2 62 88 be
       -0.32014486 -0.16398567 -0.28369623 -0.26637894
000270 3c 54 ef be e3 a9 08 bf 42 5f 5a be 43 0c b9 be
       -0.46743953 -0.53384227 -0.213254 -0.36142167
000280 43 fe 3d bf 46 6e cb be 8a 8c 1c bf 33 43 be be
       -0.742161 -0.3973257 -0.61151946 -0.37160644
000290 fc 9b 9b be fd db 21 bf d2 1e 80 be 96 22 d2 be
       -0.30392444 -0.632263 -0.25023514 -0.41042012
0002a0 c9 a5 db 3b ce ca e3 bd 30 07 98 be c7 e4 6f be
       0.0067031127 -0.11122666 -0.29692984 -0.23427115
0002b0 ab 8f 12 bf be 0a 7c bd 7f a1 fd bd 65 6e 0a be
       -0.5725047 -0.061533682 -0.123843186 -0.13518675
0002c0 02 ac f2 be 9c f7 cc be 9d 5f 6a be f8 32 f5 bd
       -0.47396857 -0.4003266 -0.22888036 -0.11972612
0002d0 d2 4e 92 be 36 3f 1d bd ec 2c 9a bf 7d aa e9 be
       -0.2857576 -0.03839036 -1.2044959 -0.45637885
0002e0 28 0f 5a be 20 5e 58 be 44 c1 d3 be 3c 7a 2d be
       -0.21294844 -0.21129656 -0.41358387 -0.1694116
0002f0 85 53 ee be 5c af 8a be ae fa 8f be a2 0c 0e bf
       -0.46548095 -0.27086914 -0.2812094 -0.55488026
000300 d5 43 06 bf 8f d7 0d bf 58 23 60 be ce 1f 88 be
       -0.52447253 -0.5540704 -0.21888483 -0.26586765
000310 b3 35 8a be a7 e6 15 bf 63 b8 a5 be 76 ed fd bd
       -0.26994094 -0.5855507 -0.32367238 -0.12398808
000320 67 62 06 3d e8 a8 08 be a0 07 3c be ae d6 1b bd
       0.032808688 -0.13345683 -0.18362284 -0.03804653
000330 16 a9 16 bd 54 54 20 bf 28 a8 8e be b2 93 90 be
       -0.036782347 -0.62628675 -0.27862668 -0.28237683
000340 e0 a6 3c 3d 82 64 08 bf d9 1d 02 bf 33 ca 81 be
       0.046057582 -0.5327836 -0.50826794 -0.25349578
000350 0a f9 e7 be 11 99 69 bd 62 4f 12 bf 79 d1 93 be
       -0.4530719 -0.05703074 -0.5715238 -0.28870752
000360 23 d8 88 3c 49 dd f0 bd 65 66 be be c9 4e c5 be
       0.016704625 -0.11760957 -0.37187496 -0.3853667
000370 8e 37 e2 be a5 42 64 3e 09 e8 e7 be 68 44 17 bf
       -0.4418301 0.22291048 -0.45294216 -0.59088755
000380 c0 08 77 be 84 f8 58 bd 31 eb b0 3d 63 74 8c be
       -0.24124432 -0.052971378 0.08638609 -0.27432546
000390 3e bb 61 be 5f 79 17 be 39 04 16 bf 03 11 df bd
       -0.22044083 -0.14792393 -0.58600193 -0.108919166
0003a0 e8 aa 96 be 25 37 6c be 3a 9e 93 be 38 7d cf bd
       -0.29427266 -0.23067911 -0.28831655 -0.101313055
0003b0 37 da 0c be 7b df aa bd 63 2a 94 be 33 17 ea be
       -0.13755117 -0.08343407 -0.28938589 -0.45720825
0003c0 f3 e2 99 be e6 7f fa ba 1d 46 b1 be 88 7d ec be
       -0.3005596 -0.0019111603 -0.34623805 -0.46189523
0003d0 6b 8e 5a be ac 70 19 bf b1 24 28 3e 48 23 0b bf
       -0.2134339 -0.5993755 0.16420247 -0.5435071
0003e0 c5 f9 2d bf 3b aa cc be 4c e2 20 bf 5d 15 8d be
       -0.67959243 -0.39973626 -0.628453 -0.2755536
0003f0 5d 8a eb bd f5 22 8a be dc f2 0b be 52 52 e2 be
       -0.11501 -0.26979795 -0.13666862 -0.4420343

weight f4 [128, 256]
000000 20 5d 9c bd 47 7d 22 3f 54 24 f4 be fd 3e ed be
       -0.0763495 0.6347241 -0.47683966 -0.4633712
000010 03 07 ba bd ce 31 85 3e 3c ea 70 be 35 e4 26 be
       -0.09083369 0.2601456 -0.23526853 -0.16297992
000020 b1 7a 0e be 7e 67 a0 3e e8 03 4e be ea 87 05 3c
       -0.1391399 0.31328958 -0.20118678 0.00815008
000030 78 2b d9 be 78 98 1d 3e 28 01 dd be 59 51 8b 3e
       -0.42415977 0.15390193 -0.43164945 0.272105
000040 7c 03 56 be 9c 94 be 3e 47 1f c3 bc eb ce 0a 3f
       -0.20899767 0.37222755 -0.023818625 0.5422198
000050 d8 0a a4 bc d2 67 bf 3e c2 e8 10 bf 1d 60 f0 3d
       -0.020024702 0.37383896 -0.5660516 0.11737082
000060 ce 2b 31 3e 16 15 1f be c1 80 19 be f0 0c 3a be
       0.17301866 -0.15535387 -0.14990522 -0.18168998
000070 4d 15 f9 3d f1 76 d1 be f5 35 b5 be bf 7b c8 3d
       0.12162266 -0.40911058 -0.35392728 0.09789228
000080 1c da 65 bc 8d 61 6a be 11 9e 91 3e e6 20 9d b9
       -0.014029052 -0.22888775 0.28440908 -0.00029969885
000090 fb 1b 3c be 71 15 82 be 5e e9 65 3d 36 93 9b bd
       -0.18370049 -0.25406983 0.05613076 -0.07596438
0000a0 2d 22 26 3e bc 53 69 bc 8a aa 59 3e b2 67 58 3e
       0.16223975 -0.014241155 0.21256462 0.21133307
0000b0 a4 34 ad bd 17 34 9e 3e 49 ad 38 3e cb 66 dd be
       -0.08457306 0.30899116 0.18034853 -0.43242487
0000c0 25 54 e0 3d 19 ae 07 3e 46 f7 1e 3d 60 38 3b 3e
       0.10953549 0.13250007 0.038810037 0.18283224
0000d0 5a a0 cc bd e8 f5 1e 3d c8 3c 1d 3c e4 48 31 be
       -0.09991522 0.038808733 0.009597011 -0.17312962
0000e0 fa e1 91 be 00 eb 11 3e 08 f0 1a 3d 37 ce 80 be
       -0.2849272 0.14249802 0.037826568 -0.2515733
0000f0 f7 d3 13 bf 7d a9 e2 3d db 13 8a 3e 2e 1f 2b 3d
       -0.5774531 0.110674836 0.26968274 0.041777782
000100 e1 c3 54 3d cb 72 12 bd a6 6b b5 3d 46 aa df 3d
       0.051944617 -0.035754006 0.08858423 0.10921149
000110 b6 1e 8f be ed 9a 6f bd 99 dc e5 bd 68 3f 22 3b
       -0.27953118 -0.058497358 -0.11223716 0.0024757031
000120 7c 87 2c 3e 54 09 89 3e 29 20 70 bd 69 62 9d 3d
       0.16848558 0.2676493 -0.05862442 0.07684786
000130 01 fe ab bc 0f be 61 be 53 ab 11 3e f6 03 a1 be
       -0.020995142 -0.22045158 0.14225511 -0.31448334
000140 d7 50 11 bd b1 8e a4 be f6 e3 a1 be ce 56 12 bd
       -0.035477486 -0.32140115 -0.31619233 -0.035727315
000150 ec b6 0c 3c af 2d f3 3d 65 c1 32 bd fe e5 97 bd
       0.008588534 0.11873948 -0.043641467 -0.074169144
000160 37 ba c3 3d b3 43 60 be a8 26 7f 3e 31 63 90 be
       0.09557002 -0.21900825 0.2491709 -0.28200677
000170 75 8a 32 3e fc 10 38 be c3 48 05 3e 96 45 a3 3e
       0.1743563 -0.17975229 0.13016038 0.31889027
000180 4a b8 44 be a8 53 d0 3c 4a 6e b9 bd 7c b4 05 3b
       -0.19210926 0.025430515 -0.09054239 0.0020401767
000190 95 06 9c ba 64 ac 95 bd 7c a5 d4 3d 54 d8 b5 bd
       -0.0011903817 -0.073082715 0.10383126 -0.08879152
0001a0 d2 c9 3c 3d fd c8 e4 bd f2 ca 84 3e d7 46 84 be
       0.04609091 -0.11171148 0.25936085 -0.25835297
0001b0 ad 40 e8 3e b5 ff d4 3d bb 7f 6f be 09 79 0d 3e
       0.45361844 0.10400335 -0.23388569 0.13815702
0001c0 34 e3 49 be e5 3b 12 bf f7 a7 36 3e 49 1e e9 3c
       -0.19715577 -0.5712264 0.17837511 0.028456824
0001d0 5b 9c b7 3d 50 aa 3a be 7f c5 92 be be 99 73 3e
       0.08965369 -0.18229032 -0.28666303 0.23789117
0001e0 4c 45 13 be e9 8b dc 3e c8 33 6b be 97 6f b7 be
       -0.14381903 0.43075493 -0.22968972 -0.35827324
0001f0 0f 15 1b be 10 17 39 bc 92 49 4b 3e 70 17 84 be
       -0.15144752 -0.011297002 0.19852284 -0.2579913
000200 75 1e 46 be b3 91 49 be 1b 8b 47 be 10 e2 a9 3e
       -0.19347556 -0.19684486 -0.19486658 0.33180285
000210 3b 19 70 be 43 f4 0d 3e 2e 37 db be 65 59 4e be
       -0.23447125 0.1386271 -0.42815536 -0.20151289
000220 f5 60 c5 bd 0b b7 6e bc ca 08 80 3d 73 bc 5c bd
       -0.09637634 -0.014570008 0.062516764 -0.053890657
000230 ee ed 2e bf 0b 43 5d bf 5d 19 60 3d 5a 97 86 3e
       -0.683318 -0.86430424 0.05471169 0.26287347
000240 6d 9f 56 be 9f c9 e1 3b 57 40 12 be 32 0c a8 3d
       -0.20959254 0.00689049 -0.14282356 0.08205451
000250 5e 69 92 bd 10 52 b4 be 2a a1 47 3e 4a ff d1 be
       -0.071490034 -0.3521886 0.19495073 -0.41015083
000260 24 bd 15 bd 0a 72 1b be e9 e1 3c 3e dc 61 56 be
       -0.03655733 -0.15180221 0.18445553 -0.20935768
000270 35 3c 2b be 6f 0f de bd e0 e4 d5 bd 6c 28 80 3d
       -0.16722186 -0.108427875 -0.10444045 0.0625771
000280 53 ea e6 bd 8a 5e 9e be c1 b6 8e 3e 9d c9 b1 3d
       -0.112751625 -0.30931503 0.27873805 0.08681033
000290 32 e3 04 be c6 3b c2 3c 2e 5a 08 3b 0e 6b 56 3e
       -0.12977293 0.023710143 0.0020805704 0.20939276
0002a0 f5 44 0a be a5 e5 89 3b 9e ff 2c be 54 b7 17 bf
       -0.13502868 0.004208284 -0.16894385 -0.5926411
0002b0 e7 d3 b9 3e 2a d9 85 be 1c c2 8a 3d 2a 6f ff 3d
       0.3629448 -0.26142246 0.06775305 0.12472375
0002c0 47 65 99 be f0 db 92 bd 87 9f 9e 3e 0a 12 5f be
       -0.2996008 -0.07170856 0.30981085 -0.21784225
0002d0 b5 ce 1b 3e 65 02 0e 3e a7 45 23 bd f1 ee 9e be
       0.15215571 0.13868101 -0.039861348 -0.31041673
0002e0 c1 ac 8a 3e 88 e5 1b bd 93 d2 92 bd 0c a0 b1 3e
       0.27084926 -0.038060695 -0.0716907 0.3469242
0002f0 96 3f 61 3d 3a ab 01 3d b1 b4 fc 3d f5 39 a0 bd
       0.05499228 0.031657435 0.12339152 -0.078235544
000300 e6 5f 54 3e 63 03 39 be 27 ea fa 3d 0a 3d fe bd
       0.20739707 -0.18067698 0.12251692 -0.12413986
000310 57 f9 53 3d 40 51 5a bf 48 99 57 bd 7e fc 15 39
       0.05175146 -0.8528023 -0.052636415 0.00014303808
000320 fb 48 9b be 98 fa 33 3d 21 17 18 bf 69 7e c6 bd
       -0.30329117 0.043940157 -0.5941029 -0.096920796
000330 7e 59 bb be ba 67 19 3e cd d6 93 3e 86 d1 12 3e
       -0.36591715 0.14980975 0.28874817 0.1433774
000340 10 fe de bd 9c c5 d9 3d 34 23 8f bc ee 51 8d be
       -0.10888302 0.10633394 -0.01747284 -0.2760157
000350 cd e4 18 3d 5a 08 4c 3d 49 c3 87 be 72 c3 64 be
       0.037327576 0.049812652 -0.26516178 -0.22340181
000360 83 03 e1 be 6e 81 9b bd 35 1e 24 3e 44 b3 3d be
       -0.43947992 -0.07593046 0.16027148 -0.18525416
000370 83 0b 8e 3c 71 f8 b6 3c 17 ce 68 be 30 7c 19 3d
       0.017339474 0.022335263 -0.22734867 0.03747195
000380 64 70 b9 3e 5e eb ae be 1f 98 5a 3e 37 4f b2 3e
       0.3621856 -0.34163946 0.21347092 0.3482606
000390 36 c7 ef 3d c2 78 23 3d ac 71 21 be d4 4b d0 3b
       0.11707918 0.039910085 -0.15766019 0.0063566957
0003a0 47 19 d6 3e 4b ac be bd ea f8 1c bf 49 74 e0 bd
       0.4181616 -0.09310206 -0.6131731 -0.1095968
0003b0 12 66 65 bd b5 8f 99 bd 6b ab 23 3e a5 2a b7 3d
       -0.056005545 -0.07498113 0.1598336 0.08943681
0003c0 e2 dc 8a 3e 16 c0 22 bd 6f 27 47 3e dc 17 63 bd
       0.27121645 -0.03973397 0.19448636 -0.055442676
0003d0 00 ad fb be 5c 2b 0a bd f3 ef 0d be ef c3 20 3e
       -0.49155426 -0.033732757 -0.13861065 0.15699743
0003e0 bd 2c db bb 11 b8 3d 3e 1f 28 63 3e 65 f3 1a 3e
       -0.006688683 0.18527247 0.22183274 0.1513191
0003f0 6b 5b a0 3d 2e 7d df 3e 4a df ca be 15 59 d1 be
       0.078299366 0.43650192 -0.3962348 -0.40888277

bias f4 [128]
000000 88 bf af be d3 0b e6 be 0f 31 8c be 54 73 13 be
       -0.34325814 -0.44930896 -0.2738118 -0.14399463
000010 6b 7c 92 be 4a 41 90 be 0d a5 b6 be dd 98 01 bf
       -0.28610548 -0.28174812 -0.356728 -0.50623876
000020 1d 3c 69 3e d0 de 23 bf 9f a4 2b bf ea 39 cb be
       0.22776838 -0.6401186 -0.67048067 -0.39692622
000030 b8 c0 1f bf af a4 9f be 45 28 79 be fd ac bc be
       -0.6240344 -0.3118033 -0.24331768 -0.3685073
000040 79 71 a1 be d5 97 3a bf 1b cb db be 69 32 11 bf
       -0.31531885 -0.7288793 -0.42928395 -0.56717545
000050 fc 85 db be cb ce bb bd ba 1d c0 be e2 2f 89 be
       -0.4287566 -0.09170302 -0.3752268 -0.26794344
000060 9e ae 09 be 28 e7 9c be e6 c8 74 bd ec 35 f6 be
       -0.13445517 -0.30645108 -0.059761904 -0.48088014
000070 74 0b f4 be d3 b3 02 bf 9c 2b 6e be 43 30 b3 be
       -0.47664988 -0.5105564 -0.23258823 -0.34997758
000080 49 ef ad be d9 dd dd be c8 34 48 be d2 23 fb 3d
       -0.33971623 -0.4333332 -0.19551384 0.122626916
000090 6a 7c 0d bf 24 be 86 be 60 40 32 bf 30 8a 45 be
       -0.55267966 -0.2631694 -0.6962948 -0.19290996
0000a0 aa 92 80 be 38 da 12 be dd 1c 0c be bd 1a 24 bf
       -0.25111896 -0.14341056 -0.13682885 -0.641033
0000b0 88 24 12 be f0 4e 8f be 3f 70 3d bf 11 1a 90 bd
       -0.14271748 -0.27989912 -0.739994 -0.07036222
0000c0 51 df 51 be 1f b7 86 be 2e 39 21 bf 4b 05 3c bd
       -0.20495345 -0.26311585 -0.62977874 -0.045903485
0000d0 3e 75 9d be 4c a0 0d be 8b 72 04 bf b8 31 17 bf
       -0.3075351 -0.1383068 -0.5173728 -0.5906024
0000e0 a1 a8 05 be 8b 7a 68 39 63 38 c9 be f5 0f 13 bf
       -0.13052608 0.00022170895 -0.39300832 -0.57446223
0000f0 d4 94 5f be 45 89 eb bd 2c 0f 02 bf c4 aa 30 bf
       -0.21834117 -0.115007915 -0.508044 -0.6901057
000100 05 78 02 be a8 c7 c8 be cf bf d5 be bf a1 49 bf
       -0.12741096 -0.39214826 -0.417479 -0.7876243
000110 87 53 2f bf 83 61 9b be ef 2a b3 be cb c2 76 bf
       -0.6848683 -0.30347833 -0.34993693 -0.9639098
000120 7b 2d 6b be ed 99 aa be c4 68 72 be 5a aa 07 bf
       -0.22966568 -0.3332056 -0.23672777 -0.5299431
000130 e7 c4 19 bf 2b 2f aa be 43 40 ac be af 96 f6 be
       -0.60066074 -0.3323911 -0.33642778 -0.48161837
000140 9f 32 20 be 07 83 9f be ed a3 bb be 0b 8f 82 be
       -0.1564431 -0.31154653 -0.36648503 -0.25499758
000150 02 5e 29 bf bf 32 99 be eb 93 f0 be 2a 5e a6 be
       -0.6615907 -0.2992153 -0.46987852 -0.32493716
000160 2e b6 0a bf 1e 73 77 be 5c 0e 1b bf 09 40 e1 3d
       -0.54184234 -0.24165007 -0.60568786 0.10998542
000170 eb af 14 be 53 df 0d bf ca e7 f2 be 58 7d 1b bf
       -0.14520232 -0.5541889 -0.47442466 -0.60738134
000180 96 73 66 be fc 18 dc be 45 42 ee be ec 93 7f bd
       -0.2250503 -0.42987812 -0.46534935 -0.06239693
000190 c3 26 47 be c9 14 a9 be dd 2a 38 be a1 a7 12 bf
       -0.1944838 -0.3302367 -0.17985101 -0.5728703
0001a0 68 37 bb be e3 3a 6a be da 46 47 be 4d 5c b0 be
       -0.3656571 -0.22874026 -0.19460621 -0.3444542
0001b0 25 7e be bd 19 6b 83 be c1 06 c3 bd 1e 96 20 bf
       -0.09301404 -0.25667647 -0.095227726 -0.6272906
0001c0 1a 30 9e be 36 02 72 bf c9 3e aa be 43 83 16 be
       -0.30896074 -0.94534624 -0.33251026 -0.1469851
0001d0 c0 60 0e bf e6 44 60 3d e3 89 95 be b1 8f 99 be
       -0.5561638 0.054753207 -0.29206762 -0.2999244
0001e0 bf 22 36 bf de 30 f0 bd ac d8 de be bc c6 71 bf
       -0.7114677 -0.11728071 -0.43524683 -0.9444387
0001f0 62 bb 4a be 0e 2b c8 be 6a 27 9d be 64 e6 b5 be
       -0.19798043 -0.39095348 -0.30694133 -0.35527337

weight f4 [8, 128]
000000 5d d4 c2 3a a3 9d 02 bd ae 99 b4 3d 13 2c e9 ba
       0.0014864315 -0.031888615 0.088183746 -0.0017789624
000010 d8 91 02 3c a6 67 9e 3c 50 fd a8 bc 60 fd 6e bc
       0.007969342 0.019336533 -0.020628601 -0.0145867765
000020 22 cd aa 3c 30 1c f6 bc 93 37 09 3d 29 c5 02 bc
       0.020849768 -0.030042738 0.033500265 -0.007981577
000030 ac 13 a8 bc ee 30 4c 3c e7 05 03 3d cd 52 9d bd
       -0.020517193 0.012462838 0.03198805 -0.076818086
000040 2d 38 05 bd 3e 2e c5 bc 27 7d 96 bd be d7 4c 3c
       -0.032524277 -0.024069902 -0.0734809 0.012502609
000050 48 b2 d9 3c 27 68 31 3c 37 d0 f5 bd 08 ae 91 3b
       0.026574269 0.0108280545 -0.120026045 0.004445795
000060 40 52 14 3e 4e 4b b9 bd 71 67 c6 bc 10 14 fb bb
       0.14484501 -0.09047566 -0.024219247 -0.0076623037
000070 19 65 bd bd c5 72 17 3d fa 9d a2 3d 8e a4 9a 3b
       -0.092477985 0.036974687 0.07940288 0.0047193235
000080 33 b0 ff 3c dd 3f 89 3d 56 1a 9f 3c 5e 30 09 3e
       0.031211948 0.06701634 0.019421738 0.13397357
000090 7c 34 0c bc f5 23 92 bb bb a9 28 3d a4 78 9f 3b
       -0.008557435 -0.004459853 0.041177493 0.0048666764
0000a0 55 00 e1 bc 53 8a 3d 3d 4b 09 2e bc 5d 5b 5e bd
       -0.027465979 0.046274494 -0.010622333 -0.05428635
0000b0 b4 4d 67 3c 3c 28 67 bc 3b 3f 25 bd 04 c2 98 3b
       0.014117647 -0.014108714 -0.040343504 0.0046618003
0000c0 d5 d5 d6 ba ae 91 0c bc 8b 80 44 bd 2f 5d 30 3d
       -0.0016390631 -0.008579655 -0.04797415 0.043057617
0000d0 96 bd b7 bc 39 92 5d bd d5 63 c8 3d d7 cc 67 bd
       -0.022429269 -0.054094527 0.097846664 -0.056591835
0000e0 8e 13 31 3c a9 7c 53 3c e8 b5 18 3d a2 93 49 bd
       0.010807885 0.012908139 0.037282854 -0.04921306
0000f0 ad 33 3f 3d b9 0e eb 3c 19 c1 8d bd b8 ff b8 bb
       0.04668014 0.028693544 -0.06921596 -0.0056457184
000100 0b d3 b3 bd f8 33 61 3b 7e a8 a8 3c 65 0e fb bc
       -0.087804876 0.0034363251 0.020588156 -0.030646512
000110 fe ec 9c bc 7a 94 1f 3d fd 1e dc bc 22 75 d6 bd
       -0.019155975 0.038959958 -0.026870245 -0.1047156
000120 ce 79 29 bd eb bf 7b 3c ef 2d 76 3c 89 95 83 3c
       -0.041375928 0.015365581 0.0150256 0.016062515
000130 43 a7 a6 bb 45 a6 97 3c 36 fd 93 bd 2f 25 7a bc
       -0.005085857 0.0185119 -0.072260305 -0.015267654
000140 95 03 11 3e 5d a1 d0 3c 0f 58 8f bc 36 94 be bb
       0.14161523 0.025467569 -0.017498044 -0.005816008
000150 73 4e 98 bc 15 41 82 3c 14 2c 3d 3d ae 69 3a bd
       -0.018592095 0.015900174 0.046184614 -0.04551094
000160 a9 98 4c bd 2f c6 6a bd cb ce bc bd a4 6d a3 3c
       -0.049950276 -0.05731791 -0.0921913 0.019949742
000170 d6 5d 93 3d 40 62 14 3d 40 b1 6a bd 4c d7 57 3c
       0.07195632 0.03622651 -0.057297945 0.013173889
000180 c6 d9 0b bb 36 bd dd 3c 36 a6 a9 bd 75 c5 72 3c
       -0.002133952 0.027067762 -0.08283655 0.014817585
000190 9b f9 c1 bc 0b f4 db bd 4e 83 0a be 55 2d 57 3c
       -0.023678591 -0.10739907 -0.13526651 0.013133367
0001a0 9f d3 cf bc 4e 48 4a 3d d0 79 34 3c 9f cf 36 bc
       -0.025369463 0.04938536 0.0110153705 -0.011157899
0001b0 1f 37 ee 3c ef 76 76 bd 1c 72 52 b9 85 7f 41 bd
       0.029079018 -0.060172018 -0.0002006967 -0.047240753
0001c0 4d e2 36 3d 0b a6 1e bd 8b ab fe 3c fc 23 47 3b
       0.04464941 -0.03873257 0.031087657 0.0030386439
0001d0 6d 23 3c 3d 6a 10 85 bc f0 d9 8d bb f4 94 a8 bd
       0.045932222 -0.016243178 -0.0043289587 -0.082315356
0001e0 ff ae c0 bc 58 33 bb 3d d0 fd b5 bc 75 14 0b be
       -0.023520945 0.091406524 -0.022215754 -0.13582022
0001f0 42 63 e7 bc f6 75 77 bd 92 b2 06 bc ff 60 ed bc
       -0.028245572 -0.06041523 -0.008221285 -0.028976915
000200 92 c1 5b ba 1e 20 31 bb 01 cd e0 3b d0 e3 7f bc
       -0.0008383031 -0.00270272 0.006860376 -0.01561828
000210 09 b6 a6 3c 38 60 31 bc f1 b3 33 3c 8b 4a a4 3a
       0.020350473 -0.010826163 0.010968194 0.0012534423
000220 82 74 9b 3d 34 96 40 bd 6f 28 0d bd dc cd d6 3c
       0.075905815 -0.047018245 -0.03446239 0.026221208
000230 dc a6 70 3d 59 cb 50 3b 4e 0d e0 3b f1 94 88 3a
       0.05875288 0.0031859486 0.0068375235 0.0010420365
000240 6e d9 f9 bb a7 ce 0b bd 8a b7 9e bb af ee 37 3d
       -0.0076247966 -0.034132626 -0.004843657 0.04490536
000250 da ca 89 b8 64 68 55 bc 5d 38 ef bb a0 1b 8e 3b
       -6.570453e-05 -0.013025377 -0.00730042 0.0043367893
000260 a0 86 41 bb 6e bd 9e bc 0b bc 07 3c 33 aa 80 3d
       -0.0029529706 -0.019377436 0.008284579 0.06282463
000270 8e 56 cc 3a 25 eb 12 3d 4d e3 36 bd d1 f8 6a bc
       0.001558976 0.035868783 -0.044650365 -0.014341549
000280 99 55 53 3c 91 29 be 3c 13 69 92 3b db cf 4c bb
       0.012898826 0.02321318 0.004468092 -0.0031251821
000290 87 00 40 3b 5c 16 60 3c 32 b6 d9 3c 36 3a 62 bc
       0.002929719 0.013677206 0.026576135 -0.013807824
0002a0 bf 3c 65 3c e9 6e bf 3b df 94 4c 3d 3a 67 31 3c
       0.013991534 0.005842079 0.049946662 0.010827834
0002b0 c1 4b 80 ba 1d e7 aa bc 69 5f 99 3d 55 27 5c bb
       -0.0009788201 -0.020862157 0.07488901 -0.003359278
0002c0 fc 2a 66 3b 69 6f 1d 3d df d6 ce bc c5 57 da bc
       0.0035120836 0.038436327 -0.025248943 -0.02665318
0002d0 e3 78 d6 3c eb 27 0d be f9 bc 65 bc d2 3e 70 bd
       0.02618069 -0.13784759 -0.014022105 -0.05865366
0002e0 dc 59 c4 bb df b2 99 3c 73 52 59 3c ba cf c4 bd
       -0.0059921574 0.01876205 0.013264286 -0.09609933
0002f0 03 bc 42 3c 12 c3 07 3d cd 07 f3 bb 2f ef c7 bc
       0.011885646 0.033145018 -0.0074167014 -0.024406044
000300 18 84 23 3b 78 16 66 3c 31 bd 59 bc 28 0f ba 3c
       0.002495056 0.014043443 -0.013289736 0.022712305
000310 c5 05 20 3c 24 3b 9a bb d1 38 b5 bb 3e 93 09 3d
       0.009767001 -0.004706757 -0.0055304547 0.033587687
000320 8c 71 06 bc 45 3c 9a 3c ad 15 06 3d 3d 49 5a 3d
       -0.008205783 0.018827567 0.032735515 0.0532925
000330 9c de fb 3c 9a c2 66 3c 60 8b 4a 3c 19 88 1d 3d
       0.030745797 0.014084483 0.012362331 0.03845987
000340 b9 03 4e 3b a2 4f 2d bd 9f f0 34 bc d2 dd 9f ba
       0.0031435324 -0.042312272 -0.011043697 -0.0012196845
000350 1d 64 10 3c e2 6a 85 3a 26 bd 4f bd 57 c6 84 3c
       0.008812931 0.0010178948 -0.050717495 0.016207857
000360 62 43 5d bb dc 69 80 bb 54 cd bc 3c ec 4e 39 3c
       -0.0033762087 -0.0039188694 0.023047127 0.01131032
000370 5c 03 5f 3c c7 8a a7 bb 6a bd ca 3c c7 d0 23 bd
       0.013611641 -0.005112979 0.024748523 -0.039994027
000380 17 64 26 3c 36 60 b0 3c 5d 5e 06 3c 4a 82 00 bd
       0.010155699 0.021530252 0.008201209 -0.031374253
000390 a9 4f d1 bb e5 85 4c bb 01 b3 02 3e fa 16 62 bc
       -0.00638767 -0.0031207737 0.12763597 -0.013799423
0003a0 6c ad df 39 ea 6e 09 bc 1d 49 26 bd b8 d7 e9 bc
       0.00042663084 -0.00838826 -0.04059707 -0.028545246
0003b0 d9 46 e0 3b 7c d4 07 3c b9 74 0b 3d f9 e8 35 3b
       0.006844383 0.008290406 0.034046862 0.002775727
0003c0 9f 10 f6 b9 9b fc 69 3d 5e 11 0f 3c 3a 98 36 bd
       -0.0004693316 0.05712567 0.008732168 -0.04457877
0003d0 8a 65 f5 bd f1 eb e9 bc a4 65 ad 3b 57 84 42 bc
       -0.11982258 -0.028554888 0.0052916575 -0.011872373
0003e0 7d 82 d4 bc 80 ed 19 3b 01 08 82 bc a0 d9 d5 bb
       -0.025941128 0.0023487508 -0.015872957 -0.006526187
0003f0 f5 3b 7c 3d 82 04 3f 3c 59 a8 e5 bc d8 12 29 3d
       0.061580617 0.01165879 -0.028034376 0.041277736

bias f4 [8]
000000 dc 51 b1 3e a3 d1 cf 3d bc b0 a7 3e 2a 9f 70 be
       0.34632766 0.10147407 0.32752025 -0.23498216
000010 46 3b 6e 3e 59 ff e1 3e 98 d6 53 3e 85 5b 0c 3d
       0.23264799 0.44140127 0.2068733 0.034266967
